…
I0702 10:25:22.493894  7210 net.cpp:49] Initializing net from parameters: 
name: "fish_filter"
state {
  phase: TRAIN
}
layer {
  name: "training_cells"
  type: "Python"
  top: "image"
  top: "label"
  include {
    phase: TRAIN
  }
  python_param {
    module: "fisherman.caffe_layers"
    layer: "ChunkingFishFovDataLayer"
    param_str: "{\'tops\': [\'image\', \'label\'], \'seed\': 1337, \'data_dir\': \'/home/sam/code/fisherman/data/dense_labelling_same_res/\', \'split\': \'train\', \'n_samples\': 20, \'chunker_params\': {\'chunk_size\': 254, \'window_size\': 1}}"
  }
}
layer {
  name: "conv1"
  type: "Convolution"
  bottom: "image"
  top: "conv1"
  param {
    lr_mult: 1
  }
  param {
    lr_mult: 2
  }
  convolution_param {
    num_output: 15
    kernel_size: 15
    stride: 1
    weight_filler {
      type: "xavier"
    }
    bias_filler {
      type: "constant"
    }
  }
}
layer {
  name: "pool1"
  type: "Pooling"
  bottom: "conv1"
  top: "pool1"
  pooling_param {
    pool: MAX
    kernel_size: 5
    stride: 5
  }
}
layer {
  name: "conv2"
  type: "Convolution"
  bottom: "pool1"
  top: "conv2"
  param {
    lr_mult: 1
  }
  param {
    lr_mult: 2
  }
  convolution_param {
    num_output: 5
    kernel_size: 7
    stride: 1
    weight_filler {
      type: "xavier"
    }
    bias_filler {
      type: "constant"
    }
  }
}
layer {
  name: "pool2"
  type: "Pooling"
  bottom: "conv2"
  top: "pool2"
  pooling_param {
    pool: MAX
    kernel_size: 3
    stride: 3
  }
}
layer {
  name: "ip_conv1"
  type: "Convolution"
  bottom: "pool2"
  top: "ip_conv_1"
  param {
    lr_mult: 1
  }
  param {
    lr_mult: 2
  }
  convolution_param {
    num_output: 32
    kernel_size: 7
    stride: 1
    weight_filler {
      type: "xavier"
    }
    bias_filler {
      type: "constant"
    }
  }
}
layer {
  name: "relu1"
  type: "ReLU"
  bottom: "ip_conv_1"
  top: "ip_conv_1"
}
layer {
  name: "drop1"
  type: "Dropout"
  bottom: "ip_conv_1"
  top: "ip_conv_1"
  dropout_param {
    dropout_ratio: 0.5
  }
}
layer {
  name: "ip_conv2"
  type: "Convolution"
  bottom: "ip_conv_1"
  top: "ip_conv2"
  param {
    lr_mult: 1
  }
  param {
    lr_mult: 2
  }
  convolution_param {
    num_output: 2
    kernel_size: 1
    stride: 1
    weight_filler {
      type: "xavier"
    }
    bias_filler {
      type: "constant"
    }
  }
}
layer {
  name: "upsample"
  type: "Deconvolution"
  bottom: "ip_conv2"
  top: "upsample"
  param {
    lr_mult: 0
  }
  convolution_param {
    num_output: 2
    bias_term: false
    kernel_size: 149
    stride: 15
  }
}
layer {
  name: "loss"
  type: "SoftmaxWithLoss"
  bottom: "upsample"
  bottom: "label"
  top: "loss"
  loss_param {
    normalize: false
  }
}
I0702 10:25:22.494247  7210 layer_factory.hpp:77] Creating layer training_cells
I0702 10:25:23.262255  7210 net.cpp:91] Creating Layer training_cells
I0702 10:25:23.262290  7210 net.cpp:399] training_cells -> image
I0702 10:25:23.262312  7210 net.cpp:399] training_cells -> label
I0702 10:25:23.337190  7210 net.cpp:141] Setting up training_cells
I0702 10:25:23.337239  7210 net.cpp:148] Top shape: 20 2 254 254 (2580640)
I0702 10:25:23.337255  7210 net.cpp:148] Top shape: 20 1 254 254 (1290320)
I0702 10:25:23.337260  7210 net.cpp:156] Memory required for data: 15483840
I0702 10:25:23.337324  7210 layer_factory.hpp:77] Creating layer conv1
I0702 10:25:23.337347  7210 net.cpp:91] Creating Layer conv1
I0702 10:25:23.337353  7210 net.cpp:425] conv1 <- image
I0702 10:25:23.337368  7210 net.cpp:399] conv1 -> conv1
I0702 10:25:23.338521  7210 net.cpp:141] Setting up conv1
I0702 10:25:23.338546  7210 net.cpp:148] Top shape: 20 15 240 240 (17280000)
I0702 10:25:23.338551  7210 net.cpp:156] Memory required for data: 84603840
I0702 10:25:23.338567  7210 layer_factory.hpp:77] Creating layer pool1
I0702 10:25:23.338577  7210 net.cpp:91] Creating Layer pool1
I0702 10:25:23.338582  7210 net.cpp:425] pool1 <- conv1
I0702 10:25:23.338588  7210 net.cpp:399] pool1 -> pool1
I0702 10:25:23.338627  7210 net.cpp:141] Setting up pool1
I0702 10:25:23.338634  7210 net.cpp:148] Top shape: 20 15 48 48 (691200)
I0702 10:25:23.338639  7210 net.cpp:156] Memory required for data: 87368640
I0702 10:25:23.338644  7210 layer_factory.hpp:77] Creating layer conv2
I0702 10:25:23.338654  7210 net.cpp:91] Creating Layer conv2
I0702 10:25:23.338659  7210 net.cpp:425] conv2 <- pool1
I0702 10:25:23.338665  7210 net.cpp:399] conv2 -> conv2
I0702 10:25:23.339189  7210 net.cpp:141] Setting up conv2
I0702 10:25:23.339203  7210 net.cpp:148] Top shape: 20 5 42 42 (176400)
I0702 10:25:23.339208  7210 net.cpp:156] Memory required for data: 88074240
I0702 10:25:23.339217  7210 layer_factory.hpp:77] Creating layer pool2
I0702 10:25:23.339226  7210 net.cpp:91] Creating Layer pool2
I0702 10:25:23.339231  7210 net.cpp:425] pool2 <- conv2
I0702 10:25:23.339237  7210 net.cpp:399] pool2 -> pool2
I0702 10:25:23.339262  7210 net.cpp:141] Setting up pool2
I0702 10:25:23.339269  7210 net.cpp:148] Top shape: 20 5 14 14 (19600)
I0702 10:25:23.339273  7210 net.cpp:156] Memory required for data: 88152640
I0702 10:25:23.339277  7210 layer_factory.hpp:77] Creating layer ip_conv1
I0702 10:25:23.339287  7210 net.cpp:91] Creating Layer ip_conv1
I0702 10:25:23.339292  7210 net.cpp:425] ip_conv1 <- pool2
I0702 10:25:23.339298  7210 net.cpp:399] ip_conv1 -> ip_conv_1
I0702 10:25:23.339481  7210 net.cpp:141] Setting up ip_conv1
I0702 10:25:23.339489  7210 net.cpp:148] Top shape: 20 32 8 8 (40960)
I0702 10:25:23.339493  7210 net.cpp:156] Memory required for data: 88316480
I0702 10:25:23.339503  7210 layer_factory.hpp:77] Creating layer relu1
I0702 10:25:23.339509  7210 net.cpp:91] Creating Layer relu1
I0702 10:25:23.339514  7210 net.cpp:425] relu1 <- ip_conv_1
I0702 10:25:23.339520  7210 net.cpp:386] relu1 -> ip_conv_1 (in-place)
I0702 10:25:23.339529  7210 net.cpp:141] Setting up relu1
I0702 10:25:23.339534  7210 net.cpp:148] Top shape: 20 32 8 8 (40960)
I0702 10:25:23.339537  7210 net.cpp:156] Memory required for data: 88480320
I0702 10:25:23.339542  7210 layer_factory.hpp:77] Creating layer drop1
I0702 10:25:23.339550  7210 net.cpp:91] Creating Layer drop1
I0702 10:25:23.339555  7210 net.cpp:425] drop1 <- ip_conv_1
I0702 10:25:23.339561  7210 net.cpp:386] drop1 -> ip_conv_1 (in-place)
I0702 10:25:23.339579  7210 net.cpp:141] Setting up drop1
I0702 10:25:23.339586  7210 net.cpp:148] Top shape: 20 32 8 8 (40960)
I0702 10:25:23.339589  7210 net.cpp:156] Memory required for data: 88644160
I0702 10:25:23.339594  7210 layer_factory.hpp:77] Creating layer ip_conv2
I0702 10:25:23.339604  7210 net.cpp:91] Creating Layer ip_conv2
I0702 10:25:23.339609  7210 net.cpp:425] ip_conv2 <- ip_conv_1
I0702 10:25:23.339615  7210 net.cpp:399] ip_conv2 -> ip_conv2
I0702 10:25:23.339745  7210 net.cpp:141] Setting up ip_conv2
I0702 10:25:23.339753  7210 net.cpp:148] Top shape: 20 2 8 8 (2560)
I0702 10:25:23.339758  7210 net.cpp:156] Memory required for data: 88654400
I0702 10:25:23.339764  7210 layer_factory.hpp:77] Creating layer upsample
I0702 10:25:23.339774  7210 net.cpp:91] Creating Layer upsample
I0702 10:25:23.339778  7210 net.cpp:425] upsample <- ip_conv2
I0702 10:25:23.339786  7210 net.cpp:399] upsample -> upsample
I0702 10:25:23.341984  7210 net.cpp:141] Setting up upsample
I0702 10:25:23.341997  7210 net.cpp:148] Top shape: 20 2 254 254 (2580640)
I0702 10:25:23.342033  7210 net.cpp:156] Memory required for data: 98976960
I0702 10:25:23.342042  7210 layer_factory.hpp:77] Creating layer loss
I0702 10:25:23.342051  7210 net.cpp:91] Creating Layer loss
I0702 10:25:23.342056  7210 net.cpp:425] loss <- upsample
I0702 10:25:23.342061  7210 net.cpp:425] loss <- label
I0702 10:25:23.342067  7210 net.cpp:399] loss -> loss
I0702 10:25:23.342082  7210 layer_factory.hpp:77] Creating layer loss
…
I0702 10:25:23.346899  7210 net.cpp:49] Initializing net from parameters: 
name: "fish_filter"
state {
  phase: TEST
}
layer {
  name: "testing_cells"
  type: "Python"
  top: "image"
  top: "label"
  include {
    phase: TEST
  }
  python_param {
    module: "fisherman.caffe_layers"
    layer: "ChunkingFishFovDataLayer"
    param_str: "{\'tops\': [\'image\', \'label\'], \'seed\': 1337, \'data_dir\': \'/home/sam/code/fisherman/data/dense_labelling_same_res/\', \'split\': \'test\', \'n_samples\': 5, \'chunker_params\': {\'chunk_size\': 254, \'window_size\': 1}}"
  }
}
layer {
  name: "conv1"
  type: "Convolution"
  bottom: "image"
  top: "conv1"
  param {
    lr_mult: 1
  }
  param {
    lr_mult: 2
  }
  convolution_param {
    num_output: 15
    kernel_size: 15
    stride: 1
    weight_filler {
      type: "xavier"
    }
    bias_filler {
      type: "constant"
    }
  }
}
layer {
  name: "pool1"
  type: "Pooling"
  bottom: "conv1"
  top: "pool1"
  pooling_param {
    pool: MAX
    kernel_size: 5
    stride: 5
  }
}
layer {
  name: "conv2"
  type: "Convolution"
  bottom: "pool1"
  top: "conv2"
  param {
    lr_mult: 1
  }
  param {
    lr_mult: 2
  }
  convolution_param {
    num_output: 5
    kernel_size: 7
    stride: 1
    weight_filler {
      type: "xavier"
    }
    bias_filler {
      type: "constant"
    }
  }
}
layer {
  name: "pool2"
  type: "Pooling"
  bottom: "conv2"
  top: "pool2"
  pooling_param {
    pool: MAX
    kernel_size: 3
    stride: 3
  }
}
layer {
  name: "ip_conv1"
  type: "Convolution"
  bottom: "pool2"
  top: "ip_conv_1"
  param {
    lr_mult: 1
  }
  param {
    lr_mult: 2
  }
  convolution_param {
    num_output: 32
    kernel_size: 7
    stride: 1
    weight_filler {
      type: "xavier"
    }
    bias_filler {
      type: "constant"
    }
  }
}
layer {
  name: "relu1"
  type: "ReLU"
  bottom: "ip_conv_1"
  top: "ip_conv_1"
}
layer {
  name: "drop1"
  type: "Dropout"
  bottom: "ip_conv_1"
  top: "ip_conv_1"
  dropout_param {
    dropout_ratio: 0.5
  }
}
layer {
  name: "ip_conv2"
  type: "Convolution"
  bottom: "ip_conv_1"
  top: "ip_conv2"
  param {
    lr_mult: 1
  }
  param {
    lr_mult: 2
  }
  convolution_param {
    num_output: 2
    kernel_size: 1
    stride: 1
    weight_filler {
      type: "xavier"
    }
    bias_filler {
      type: "constant"
    }
  }
}
layer {
  name: "upsample"
  type: "Deconvolution"
  bottom: "ip_conv2"
  top: "upsample"
  param {
    lr_mult: 0
  }
  convolution_param {
    num_output: 2
    bias_term: false
    kernel_size: 149
    stride: 15
  }
}
layer {
  name: "accuracy"
  type: "Accuracy"
  bottom: "upsample"
  bottom: "label"
  top: "accuracy"
  include {
    phase: TEST
  }
}
layer {
  name: "loss"
  type: "SoftmaxWithLoss"
  bottom: "upsample"
  bottom: "label"
  top: "loss"
  loss_param {
    normalize: false
  }
}
I0702 10:25:23.347333  7210 layer_factory.hpp:77] Creating layer testing_cells
I0702 10:25:23.347388  7210 net.cpp:91] Creating Layer testing_cells
I0702 10:25:23.347407  7210 net.cpp:399] testing_cells -> image
I0702 10:25:23.347416  7210 net.cpp:399] testing_cells -> label
I0702 10:25:23.364709  7210 net.cpp:141] Setting up testing_cells
I0702 10:25:23.364759  7210 net.cpp:148] Top shape: 5 2 254 254 (645160)
I0702 10:25:23.364766  7210 net.cpp:148] Top shape: 5 1 254 254 (322580)
I0702 10:25:23.364770  7210 net.cpp:156] Memory required for data: 3870960
I0702 10:25:23.364778  7210 layer_factory.hpp:77] Creating layer label_testing_cells_1_split
I0702 10:25:23.364795  7210 net.cpp:91] Creating Layer label_testing_cells_1_split
I0702 10:25:23.364802  7210 net.cpp:425] label_testing_cells_1_split <- label
I0702 10:25:23.364809  7210 net.cpp:399] label_testing_cells_1_split -> label_testing_cells_1_split_0
I0702 10:25:23.364820  7210 net.cpp:399] label_testing_cells_1_split -> label_testing_cells_1_split_1
I0702 10:25:23.364845  7210 net.cpp:141] Setting up label_testing_cells_1_split
I0702 10:25:23.364852  7210 net.cpp:148] Top shape: 5 1 254 254 (322580)
I0702 10:25:23.364857  7210 net.cpp:148] Top shape: 5 1 254 254 (322580)
I0702 10:25:23.364861  7210 net.cpp:156] Memory required for data: 6451600
I0702 10:25:23.364866  7210 layer_factory.hpp:77] Creating layer conv1
I0702 10:25:23.364878  7210 net.cpp:91] Creating Layer conv1
I0702 10:25:23.364882  7210 net.cpp:425] conv1 <- image
I0702 10:25:23.364888  7210 net.cpp:399] conv1 -> conv1
I0702 10:25:23.365123  7210 net.cpp:141] Setting up conv1
I0702 10:25:23.365133  7210 net.cpp:148] Top shape: 5 15 240 240 (4320000)
I0702 10:25:23.365137  7210 net.cpp:156] Memory required for data: 23731600
I0702 10:25:23.365147  7210 layer_factory.hpp:77] Creating layer pool1
I0702 10:25:23.365155  7210 net.cpp:91] Creating Layer pool1
I0702 10:25:23.365160  7210 net.cpp:425] pool1 <- conv1
I0702 10:25:23.365166  7210 net.cpp:399] pool1 -> pool1
I0702 10:25:23.365200  7210 net.cpp:141] Setting up pool1
I0702 10:25:23.365206  7210 net.cpp:148] Top shape: 5 15 48 48 (172800)
I0702 10:25:23.365211  7210 net.cpp:156] Memory required for data: 24422800
I0702 10:25:23.365216  7210 layer_factory.hpp:77] Creating layer conv2
I0702 10:25:23.365226  7210 net.cpp:91] Creating Layer conv2
I0702 10:25:23.365229  7210 net.cpp:425] conv2 <- pool1
I0702 10:25:23.365245  7210 net.cpp:399] conv2 -> conv2
I0702 10:25:23.365397  7210 net.cpp:141] Setting up conv2
I0702 10:25:23.365404  7210 net.cpp:148] Top shape: 5 5 42 42 (44100)
I0702 10:25:23.365409  7210 net.cpp:156] Memory required for data: 24599200
I0702 10:25:23.365417  7210 layer_factory.hpp:77] Creating layer pool2
I0702 10:25:23.365423  7210 net.cpp:91] Creating Layer pool2
I0702 10:25:23.365428  7210 net.cpp:425] pool2 <- conv2
I0702 10:25:23.365433  7210 net.cpp:399] pool2 -> pool2
I0702 10:25:23.365455  7210 net.cpp:141] Setting up pool2
I0702 10:25:23.365463  7210 net.cpp:148] Top shape: 5 5 14 14 (4900)
I0702 10:25:23.365466  7210 net.cpp:156] Memory required for data: 24618800
I0702 10:25:23.365470  7210 layer_factory.hpp:77] Creating layer ip_conv1
I0702 10:25:23.365478  7210 net.cpp:91] Creating Layer ip_conv1
I0702 10:25:23.365483  7210 net.cpp:425] ip_conv1 <- pool2
I0702 10:25:23.365535  7210 net.cpp:399] ip_conv1 -> ip_conv_1
I0702 10:25:23.365713  7210 net.cpp:141] Setting up ip_conv1
I0702 10:25:23.365721  7210 net.cpp:148] Top shape: 5 32 8 8 (10240)
I0702 10:25:23.365726  7210 net.cpp:156] Memory required for data: 24659760
I0702 10:25:23.365734  7210 layer_factory.hpp:77] Creating layer relu1
I0702 10:25:23.365741  7210 net.cpp:91] Creating Layer relu1
I0702 10:25:23.365746  7210 net.cpp:425] relu1 <- ip_conv_1
I0702 10:25:23.365751  7210 net.cpp:386] relu1 -> ip_conv_1 (in-place)
I0702 10:25:23.365757  7210 net.cpp:141] Setting up relu1
I0702 10:25:23.365762  7210 net.cpp:148] Top shape: 5 32 8 8 (10240)
I0702 10:25:23.365767  7210 net.cpp:156] Memory required for data: 24700720
I0702 10:25:23.365772  7210 layer_factory.hpp:77] Creating layer drop1
I0702 10:25:23.365778  7210 net.cpp:91] Creating Layer drop1
I0702 10:25:23.365782  7210 net.cpp:425] drop1 <- ip_conv_1
I0702 10:25:23.365787  7210 net.cpp:386] drop1 -> ip_conv_1 (in-place)
I0702 10:25:23.365803  7210 net.cpp:141] Setting up drop1
I0702 10:25:23.365809  7210 net.cpp:148] Top shape: 5 32 8 8 (10240)
I0702 10:25:23.365813  7210 net.cpp:156] Memory required for data: 24741680
I0702 10:25:23.365818  7210 layer_factory.hpp:77] Creating layer ip_conv2
I0702 10:25:23.365825  7210 net.cpp:91] Creating Layer ip_conv2
I0702 10:25:23.365830  7210 net.cpp:425] ip_conv2 <- ip_conv_1
I0702 10:25:23.365836  7210 net.cpp:399] ip_conv2 -> ip_conv2
I0702 10:25:23.365972  7210 net.cpp:141] Setting up ip_conv2
I0702 10:25:23.365979  7210 net.cpp:148] Top shape: 5 2 8 8 (640)
I0702 10:25:23.365983  7210 net.cpp:156] Memory required for data: 24744240
I0702 10:25:23.365990  7210 layer_factory.hpp:77] Creating layer upsample
I0702 10:25:23.365998  7210 net.cpp:91] Creating Layer upsample
I0702 10:25:23.366003  7210 net.cpp:425] upsample <- ip_conv2
I0702 10:25:23.366008  7210 net.cpp:399] upsample -> upsample
I0702 10:25:23.366184  7210 net.cpp:141] Setting up upsample
I0702 10:25:23.366191  7210 net.cpp:148] Top shape: 5 2 254 254 (645160)
I0702 10:25:23.366196  7210 net.cpp:156] Memory required for data: 27324880
I0702 10:25:23.366204  7210 layer_factory.hpp:77] Creating layer upsample_upsample_0_split
I0702 10:25:23.366209  7210 net.cpp:91] Creating Layer upsample_upsample_0_split
I0702 10:25:23.366214  7210 net.cpp:425] upsample_upsample_0_split <- upsample
I0702 10:25:23.366219  7210 net.cpp:399] upsample_upsample_0_split -> upsample_upsample_0_split_0
I0702 10:25:23.366226  7210 net.cpp:399] upsample_upsample_0_split -> upsample_upsample_0_split_1
I0702 10:25:23.366246  7210 net.cpp:141] Setting up upsample_upsample_0_split
I0702 10:25:23.366253  7210 net.cpp:148] Top shape: 5 2 254 254 (645160)
I0702 10:25:23.366257  7210 net.cpp:148] Top shape: 5 2 254 254 (645160)
I0702 10:25:23.366262  7210 net.cpp:156] Memory required for data: 32486160
I0702 10:25:23.366266  7210 layer_factory.hpp:77] Creating layer accuracy
I0702 10:25:23.366273  7210 net.cpp:91] Creating Layer accuracy
I0702 10:25:23.366277  7210 net.cpp:425] accuracy <- upsample_upsample_0_split_0
I0702 10:25:23.366282  7210 net.cpp:425] accuracy <- label_testing_cells_1_split_0
I0702 10:25:23.366288  7210 net.cpp:399] accuracy -> accuracy
…
