…
I0705 14:04:35.271778 27608 net.cpp:49] Initializing net from parameters: 
name: "fish_filter"
state {
  phase: TRAIN
}
layer {
  name: "training_cells"
  type: "Python"
  top: "image"
  top: "label"
  include {
    phase: TRAIN
  }
  python_param {
    module: "fisherman.caffe_layers"
    layer: "ChunkingFishFovDataLayer"
    param_str: "{\'tops\': [\'image\', \'label\'], \'seed\': 1337, \'data_dir\': \'/home/sam/code/fisherman/data/dense_labelling_same_res/\', \'split\': \'train\', \'n_samples\': 20, \'chunker_params\': {\'chunk_size\': 254, \'window_size\': 1}}"
  }
}
layer {
  name: "conv1"
  type: "Convolution"
  bottom: "image"
  top: "conv1"
  param {
    lr_mult: 1
  }
  param {
    lr_mult: 2
  }
  convolution_param {
    num_output: 15
    kernel_size: 15
    stride: 1
    weight_filler {
      type: "xavier"
    }
    bias_filler {
      type: "constant"
    }
  }
}
layer {
  name: "pool1"
  type: "Pooling"
  bottom: "conv1"
  top: "pool1"
  pooling_param {
    pool: MAX
    kernel_size: 5
    stride: 5
  }
}
layer {
  name: "conv2"
  type: "Convolution"
  bottom: "pool1"
  top: "conv2"
  param {
    lr_mult: 1
  }
  param {
    lr_mult: 2
  }
  convolution_param {
    num_output: 5
    kernel_size: 7
    stride: 1
    weight_filler {
      type: "xavier"
    }
    bias_filler {
      type: "constant"
    }
  }
}
layer {
  name: "pool2"
  type: "Pooling"
  bottom: "conv2"
  top: "pool2"
  pooling_param {
    pool: MAX
    kernel_size: 3
    stride: 3
  }
}
layer {
  name: "ip_conv1"
  type: "Convolution"
  bottom: "pool2"
  top: "ip_conv_1"
  param {
    lr_mult: 1
  }
  param {
    lr_mult: 2
  }
  convolution_param {
    num_output: 32
    kernel_size: 7
    stride: 1
    weight_filler {
      type: "xavier"
    }
    bias_filler {
      type: "constant"
    }
  }
}
layer {
  name: "relu1"
  type: "ReLU"
  bottom: "ip_conv_1"
  top: "ip_conv_1"
}
layer {
  name: "drop1"
  type: "Dropout"
  bottom: "ip_conv_1"
  top: "ip_conv_1"
  dropout_param {
    dropout_ratio: 0.5
  }
}
layer {
  name: "ip_conv2"
  type: "Convolution"
  bottom: "ip_conv_1"
  top: "ip_conv2"
  param {
    lr_mult: 1
  }
  param {
    lr_mult: 2
  }
  convolution_param {
    num_output: 2
    kernel_size: 1
    stride: 1
    weight_filler {
      type: "xavier"
    }
    bias_filler {
      type: "constant"
    }
  }
}
layer {
  name: "upsample"
  type: "Deconvolution"
  bottom: "ip_conv2"
  top: "upsample"
  param {
    lr_mult: 1
  }
  convolution_param {
    num_output: 2
    bias_term: false
    kernel_size: 149
    stride: 15
  }
}
layer {
  name: "loss"
  type: "InfogainSoftmaxLoss"
  bottom: "upsample"
  bottom: "label"
  top: "loss"
  loss_param {
    normalize: true
  }
  infogain_loss_param {
    source: "/home/sam/code/fisherman/infogainH.binaryproto"
  }
  softmax_param {
    axis: 1
  }
}
I0705 14:04:35.272203 27608 layer_factory.hpp:77] Creating layer training_cells
I0705 14:04:36.084975 27608 net.cpp:91] Creating Layer training_cells
I0705 14:04:36.085011 27608 net.cpp:399] training_cells -> image
I0705 14:04:36.085041 27608 net.cpp:399] training_cells -> label
I0705 14:04:36.211825 27608 net.cpp:141] Setting up training_cells
I0705 14:04:36.211863 27608 net.cpp:148] Top shape: 20 2 254 254 (2580640)
I0705 14:04:36.211915 27608 net.cpp:148] Top shape: 20 1 254 254 (1290320)
I0705 14:04:36.211921 27608 net.cpp:156] Memory required for data: 15483840
I0705 14:04:36.211931 27608 layer_factory.hpp:77] Creating layer conv1
I0705 14:04:36.211954 27608 net.cpp:91] Creating Layer conv1
I0705 14:04:36.211961 27608 net.cpp:425] conv1 <- image
I0705 14:04:36.211973 27608 net.cpp:399] conv1 -> conv1
I0705 14:04:36.216171 27608 net.cpp:141] Setting up conv1
I0705 14:04:36.216187 27608 net.cpp:148] Top shape: 20 15 240 240 (17280000)
I0705 14:04:36.216192 27608 net.cpp:156] Memory required for data: 84603840
I0705 14:04:36.216205 27608 layer_factory.hpp:77] Creating layer pool1
I0705 14:04:36.216215 27608 net.cpp:91] Creating Layer pool1
I0705 14:04:36.216220 27608 net.cpp:425] pool1 <- conv1
I0705 14:04:36.216226 27608 net.cpp:399] pool1 -> pool1
I0705 14:04:36.216264 27608 net.cpp:141] Setting up pool1
I0705 14:04:36.216271 27608 net.cpp:148] Top shape: 20 15 48 48 (691200)
I0705 14:04:36.216275 27608 net.cpp:156] Memory required for data: 87368640
I0705 14:04:36.216279 27608 layer_factory.hpp:77] Creating layer conv2
I0705 14:04:36.216289 27608 net.cpp:91] Creating Layer conv2
I0705 14:04:36.216295 27608 net.cpp:425] conv2 <- pool1
I0705 14:04:36.216300 27608 net.cpp:399] conv2 -> conv2
I0705 14:04:36.224750 27608 net.cpp:141] Setting up conv2
I0705 14:04:36.224763 27608 net.cpp:148] Top shape: 20 5 42 42 (176400)
I0705 14:04:36.224778 27608 net.cpp:156] Memory required for data: 88074240
I0705 14:04:36.224797 27608 layer_factory.hpp:77] Creating layer pool2
I0705 14:04:36.224805 27608 net.cpp:91] Creating Layer pool2
I0705 14:04:36.224810 27608 net.cpp:425] pool2 <- conv2
I0705 14:04:36.224817 27608 net.cpp:399] pool2 -> pool2
I0705 14:04:36.224843 27608 net.cpp:141] Setting up pool2
I0705 14:04:36.224850 27608 net.cpp:148] Top shape: 20 5 14 14 (19600)
I0705 14:04:36.224854 27608 net.cpp:156] Memory required for data: 88152640
I0705 14:04:36.224859 27608 layer_factory.hpp:77] Creating layer ip_conv1
I0705 14:04:36.224879 27608 net.cpp:91] Creating Layer ip_conv1
I0705 14:04:36.224882 27608 net.cpp:425] ip_conv1 <- pool2
I0705 14:04:36.224889 27608 net.cpp:399] ip_conv1 -> ip_conv_1
I0705 14:04:36.225107 27608 net.cpp:141] Setting up ip_conv1
I0705 14:04:36.225116 27608 net.cpp:148] Top shape: 20 32 8 8 (40960)
I0705 14:04:36.225121 27608 net.cpp:156] Memory required for data: 88316480
I0705 14:04:36.225129 27608 layer_factory.hpp:77] Creating layer relu1
I0705 14:04:36.225136 27608 net.cpp:91] Creating Layer relu1
I0705 14:04:36.225141 27608 net.cpp:425] relu1 <- ip_conv_1
I0705 14:04:36.225147 27608 net.cpp:386] relu1 -> ip_conv_1 (in-place)
I0705 14:04:36.225154 27608 net.cpp:141] Setting up relu1
I0705 14:04:36.225159 27608 net.cpp:148] Top shape: 20 32 8 8 (40960)
I0705 14:04:36.225163 27608 net.cpp:156] Memory required for data: 88480320
I0705 14:04:36.225173 27608 layer_factory.hpp:77] Creating layer drop1
I0705 14:04:36.225193 27608 net.cpp:91] Creating Layer drop1
I0705 14:04:36.225198 27608 net.cpp:425] drop1 <- ip_conv_1
I0705 14:04:36.225203 27608 net.cpp:386] drop1 -> ip_conv_1 (in-place)
I0705 14:04:36.225224 27608 net.cpp:141] Setting up drop1
I0705 14:04:36.225230 27608 net.cpp:148] Top shape: 20 32 8 8 (40960)
I0705 14:04:36.225234 27608 net.cpp:156] Memory required for data: 88644160
I0705 14:04:36.225239 27608 layer_factory.hpp:77] Creating layer ip_conv2
I0705 14:04:36.225249 27608 net.cpp:91] Creating Layer ip_conv2
I0705 14:04:36.225255 27608 net.cpp:425] ip_conv2 <- ip_conv_1
I0705 14:04:36.225261 27608 net.cpp:399] ip_conv2 -> ip_conv2
I0705 14:04:36.225400 27608 net.cpp:141] Setting up ip_conv2
I0705 14:04:36.225409 27608 net.cpp:148] Top shape: 20 2 8 8 (2560)
I0705 14:04:36.225414 27608 net.cpp:156] Memory required for data: 88654400
I0705 14:04:36.225419 27608 layer_factory.hpp:77] Creating layer upsample
I0705 14:04:36.225430 27608 net.cpp:91] Creating Layer upsample
I0705 14:04:36.225435 27608 net.cpp:425] upsample <- ip_conv2
I0705 14:04:36.225440 27608 net.cpp:399] upsample -> upsample
I0705 14:04:36.231009 27608 net.cpp:141] Setting up upsample
I0705 14:04:36.231022 27608 net.cpp:148] Top shape: 20 2 254 254 (2580640)
I0705 14:04:36.231036 27608 net.cpp:156] Memory required for data: 98976960
I0705 14:04:36.231045 27608 layer_factory.hpp:77] Creating layer loss
I0705 14:04:36.231057 27608 net.cpp:91] Creating Layer loss
I0705 14:04:36.231062 27608 net.cpp:425] loss <- upsample
I0705 14:04:36.231067 27608 net.cpp:425] loss <- label
I0705 14:04:36.231075 27608 net.cpp:399] loss -> loss
I0705 14:04:36.231091 27608 layer_factory.hpp:77] Creating layer loss
…
I0705 14:04:36.236810 27608 net.cpp:49] Initializing net from parameters: 
name: "fish_filter"
state {
  phase: TEST
}
layer {
  name: "testing_cells"
  type: "Python"
  top: "image"
  top: "label"
  include {
    phase: TEST
  }
  python_param {
    module: "fisherman.caffe_layers"
    layer: "ChunkingFishFovDataLayer"
    param_str: "{\'tops\': [\'image\', \'label\'], \'seed\': 1337, \'data_dir\': \'/home/sam/code/fisherman/data/dense_labelling_same_res/\', \'split\': \'test\', \'n_samples\': 5, \'chunker_params\': {\'chunk_size\': 254, \'window_size\': 1}}"
  }
}
layer {
  name: "conv1"
  type: "Convolution"
  bottom: "image"
  top: "conv1"
  param {
    lr_mult: 1
  }
  param {
    lr_mult: 2
  }
  convolution_param {
    num_output: 15
    kernel_size: 15
    stride: 1
    weight_filler {
      type: "xavier"
    }
    bias_filler {
      type: "constant"
    }
  }
}
layer {
  name: "pool1"
  type: "Pooling"
  bottom: "conv1"
  top: "pool1"
  pooling_param {
    pool: MAX
    kernel_size: 5
    stride: 5
  }
}
layer {
  name: "conv2"
  type: "Convolution"
  bottom: "pool1"
  top: "conv2"
  param {
    lr_mult: 1
  }
  param {
    lr_mult: 2
  }
  convolution_param {
    num_output: 5
    kernel_size: 7
    stride: 1
    weight_filler {
      type: "xavier"
    }
    bias_filler {
      type: "constant"
    }
  }
}
layer {
  name: "pool2"
  type: "Pooling"
  bottom: "conv2"
  top: "pool2"
  pooling_param {
    pool: MAX
    kernel_size: 3
    stride: 3
  }
}
layer {
  name: "ip_conv1"
  type: "Convolution"
  bottom: "pool2"
  top: "ip_conv_1"
  param {
    lr_mult: 1
  }
  param {
    lr_mult: 2
  }
  convolution_param {
    num_output: 32
    kernel_size: 7
    stride: 1
    weight_filler {
      type: "xavier"
    }
    bias_filler {
      type: "constant"
    }
  }
}
layer {
  name: "relu1"
  type: "ReLU"
  bottom: "ip_conv_1"
  top: "ip_conv_1"
}
layer {
  name: "drop1"
  type: "Dropout"
  bottom: "ip_conv_1"
  top: "ip_conv_1"
  dropout_param {
    dropout_ratio: 0.5
  }
}
layer {
  name: "ip_conv2"
  type: "Convolution"
  bottom: "ip_conv_1"
  top: "ip_conv2"
  param {
    lr_mult: 1
  }
  param {
    lr_mult: 2
  }
  convolution_param {
    num_output: 2
    kernel_size: 1
    stride: 1
    weight_filler {
      type: "xavier"
    }
    bias_filler {
      type: "constant"
    }
  }
}
layer {
  name: "upsample"
  type: "Deconvolution"
  bottom: "ip_conv2"
  top: "upsample"
  param {
    lr_mult: 1
  }
  convolution_param {
    num_output: 2
    bias_term: false
    kernel_size: 149
    stride: 15
  }
}
layer {
  name: "accuracy"
  type: "Accuracy"
  bottom: "upsample"
  bottom: "label"
  top: "accuracy"
  include {
    phase: TEST
  }
}
layer {
  name: "loss"
  type: "InfogainSoftmaxLoss"
  bottom: "upsample"
  bottom: "label"
  top: "loss"
  loss_param {
    normalize: true
  }
  infogain_loss_param {
    source: "/home/sam/code/fisherman/infogainH.binaryproto"
  }
  softmax_param {
    axis: 1
  }
}
I0705 14:04:36.237241 27608 layer_factory.hpp:77] Creating layer testing_cells
I0705 14:04:36.237294 27608 net.cpp:91] Creating Layer testing_cells
I0705 14:04:36.237303 27608 net.cpp:399] testing_cells -> image
I0705 14:04:36.237311 27608 net.cpp:399] testing_cells -> label
I0705 14:04:36.266530 27608 net.cpp:141] Setting up testing_cells
I0705 14:04:36.266578 27608 net.cpp:148] Top shape: 5 2 254 254 (645160)
I0705 14:04:36.266585 27608 net.cpp:148] Top shape: 5 1 254 254 (322580)
I0705 14:04:36.266590 27608 net.cpp:156] Memory required for data: 3870960
I0705 14:04:36.266598 27608 layer_factory.hpp:77] Creating layer label_testing_cells_1_split
I0705 14:04:36.266610 27608 net.cpp:91] Creating Layer label_testing_cells_1_split
I0705 14:04:36.266616 27608 net.cpp:425] label_testing_cells_1_split <- label
I0705 14:04:36.266624 27608 net.cpp:399] label_testing_cells_1_split -> label_testing_cells_1_split_0
I0705 14:04:36.266635 27608 net.cpp:399] label_testing_cells_1_split -> label_testing_cells_1_split_1
I0705 14:04:36.266660 27608 net.cpp:141] Setting up label_testing_cells_1_split
I0705 14:04:36.266667 27608 net.cpp:148] Top shape: 5 1 254 254 (322580)
I0705 14:04:36.266672 27608 net.cpp:148] Top shape: 5 1 254 254 (322580)
I0705 14:04:36.266677 27608 net.cpp:156] Memory required for data: 6451600
I0705 14:04:36.266681 27608 layer_factory.hpp:77] Creating layer conv1
I0705 14:04:36.266695 27608 net.cpp:91] Creating Layer conv1
I0705 14:04:36.266700 27608 net.cpp:425] conv1 <- image
I0705 14:04:36.266705 27608 net.cpp:399] conv1 -> conv1
I0705 14:04:36.266933 27608 net.cpp:141] Setting up conv1
I0705 14:04:36.266953 27608 net.cpp:148] Top shape: 5 15 240 240 (4320000)
I0705 14:04:36.266958 27608 net.cpp:156] Memory required for data: 23731600
I0705 14:04:36.266968 27608 layer_factory.hpp:77] Creating layer pool1
I0705 14:04:36.266976 27608 net.cpp:91] Creating Layer pool1
I0705 14:04:36.266981 27608 net.cpp:425] pool1 <- conv1
I0705 14:04:36.266988 27608 net.cpp:399] pool1 -> pool1
I0705 14:04:36.267012 27608 net.cpp:141] Setting up pool1
I0705 14:04:36.267029 27608 net.cpp:148] Top shape: 5 15 48 48 (172800)
I0705 14:04:36.267032 27608 net.cpp:156] Memory required for data: 24422800
I0705 14:04:36.267037 27608 layer_factory.hpp:77] Creating layer conv2
I0705 14:04:36.267045 27608 net.cpp:91] Creating Layer conv2
I0705 14:04:36.267050 27608 net.cpp:425] conv2 <- pool1
I0705 14:04:36.267056 27608 net.cpp:399] conv2 -> conv2
I0705 14:04:36.267231 27608 net.cpp:141] Setting up conv2
I0705 14:04:36.267240 27608 net.cpp:148] Top shape: 5 5 42 42 (44100)
I0705 14:04:36.267244 27608 net.cpp:156] Memory required for data: 24599200
I0705 14:04:36.267252 27608 layer_factory.hpp:77] Creating layer pool2
I0705 14:04:36.267258 27608 net.cpp:91] Creating Layer pool2
I0705 14:04:36.267263 27608 net.cpp:425] pool2 <- conv2
I0705 14:04:36.267268 27608 net.cpp:399] pool2 -> pool2
I0705 14:04:36.267290 27608 net.cpp:141] Setting up pool2
I0705 14:04:36.267297 27608 net.cpp:148] Top shape: 5 5 14 14 (4900)
I0705 14:04:36.267302 27608 net.cpp:156] Memory required for data: 24618800
I0705 14:04:36.267348 27608 layer_factory.hpp:77] Creating layer ip_conv1
I0705 14:04:36.267356 27608 net.cpp:91] Creating Layer ip_conv1
I0705 14:04:36.267360 27608 net.cpp:425] ip_conv1 <- pool2
I0705 14:04:36.267366 27608 net.cpp:399] ip_conv1 -> ip_conv_1
I0705 14:04:36.267539 27608 net.cpp:141] Setting up ip_conv1
I0705 14:04:36.267547 27608 net.cpp:148] Top shape: 5 32 8 8 (10240)
I0705 14:04:36.267552 27608 net.cpp:156] Memory required for data: 24659760
I0705 14:04:36.267560 27608 layer_factory.hpp:77] Creating layer relu1
I0705 14:04:36.267566 27608 net.cpp:91] Creating Layer relu1
I0705 14:04:36.267570 27608 net.cpp:425] relu1 <- ip_conv_1
I0705 14:04:36.267576 27608 net.cpp:386] relu1 -> ip_conv_1 (in-place)
I0705 14:04:36.267582 27608 net.cpp:141] Setting up relu1
I0705 14:04:36.267588 27608 net.cpp:148] Top shape: 5 32 8 8 (10240)
I0705 14:04:36.267592 27608 net.cpp:156] Memory required for data: 24700720
I0705 14:04:36.267596 27608 layer_factory.hpp:77] Creating layer drop1
I0705 14:04:36.267604 27608 net.cpp:91] Creating Layer drop1
I0705 14:04:36.267608 27608 net.cpp:425] drop1 <- ip_conv_1
I0705 14:04:36.267613 27608 net.cpp:386] drop1 -> ip_conv_1 (in-place)
I0705 14:04:36.267629 27608 net.cpp:141] Setting up drop1
I0705 14:04:36.267635 27608 net.cpp:148] Top shape: 5 32 8 8 (10240)
I0705 14:04:36.267639 27608 net.cpp:156] Memory required for data: 24741680
I0705 14:04:36.267643 27608 layer_factory.hpp:77] Creating layer ip_conv2
I0705 14:04:36.267652 27608 net.cpp:91] Creating Layer ip_conv2
I0705 14:04:36.267657 27608 net.cpp:425] ip_conv2 <- ip_conv_1
I0705 14:04:36.267662 27608 net.cpp:399] ip_conv2 -> ip_conv2
I0705 14:04:36.267798 27608 net.cpp:141] Setting up ip_conv2
I0705 14:04:36.267807 27608 net.cpp:148] Top shape: 5 2 8 8 (640)
I0705 14:04:36.267812 27608 net.cpp:156] Memory required for data: 24744240
I0705 14:04:36.267817 27608 layer_factory.hpp:77] Creating layer upsample
I0705 14:04:36.267824 27608 net.cpp:91] Creating Layer upsample
I0705 14:04:36.267829 27608 net.cpp:425] upsample <- ip_conv2
I0705 14:04:36.267835 27608 net.cpp:399] upsample -> upsample
I0705 14:04:36.268007 27608 net.cpp:141] Setting up upsample
I0705 14:04:36.268014 27608 net.cpp:148] Top shape: 5 2 254 254 (645160)
I0705 14:04:36.268019 27608 net.cpp:156] Memory required for data: 27324880
I0705 14:04:36.268026 27608 layer_factory.hpp:77] Creating layer upsample_upsample_0_split
I0705 14:04:36.268033 27608 net.cpp:91] Creating Layer upsample_upsample_0_split
I0705 14:04:36.268038 27608 net.cpp:425] upsample_upsample_0_split <- upsample
I0705 14:04:36.268043 27608 net.cpp:399] upsample_upsample_0_split -> upsample_upsample_0_split_0
I0705 14:04:36.268049 27608 net.cpp:399] upsample_upsample_0_split -> upsample_upsample_0_split_1
I0705 14:04:36.268070 27608 net.cpp:141] Setting up upsample_upsample_0_split
I0705 14:04:36.268076 27608 net.cpp:148] Top shape: 5 2 254 254 (645160)
I0705 14:04:36.268081 27608 net.cpp:148] Top shape: 5 2 254 254 (645160)
I0705 14:04:36.268085 27608 net.cpp:156] Memory required for data: 32486160
I0705 14:04:36.268090 27608 layer_factory.hpp:77] Creating layer accuracy
I0705 14:04:36.268097 27608 net.cpp:91] Creating Layer accuracy
I0705 14:04:36.268101 27608 net.cpp:425] accuracy <- upsample_upsample_0_split_0
I0705 14:04:36.268106 27608 net.cpp:425] accuracy <- label_testing_cells_1_split_0
I0705 14:04:36.268111 27608 net.cpp:399] accuracy -> accuracy
…
