…
I0706 19:40:22.025569 30501 net.cpp:313] The NetState phase (0) differed from the phase (1) specified by a rule in layer accuracy
I0706 19:40:22.025671 30501 net.cpp:49] Initializing net from parameters: 
name: "fish_filter"
state {
  phase: TRAIN
}
layer {
  name: "training_cells"
  type: "Python"
  top: "image"
  top: "label"
  include {
    phase: TRAIN
  }
  python_param {
    module: "fisherman.caffe_layers"
    layer: "DataMapLayer"
    param_str: "{\'tops\': [\'image\', \'label\'], \'data_dir\': \'/home/sam/code/fisherman/data/dense_labelling_k149/\', \'split\': \'train\', \'samples_per_class\': 256, \'kernel\': 149}"
  }
}
layer {
  name: "conv1"
  type: "Convolution"
  bottom: "image"
  top: "conv1"
  param {
    lr_mult: 1
  }
  param {
    lr_mult: 2
  }
  convolution_param {
    num_output: 15
    kernel_size: 15
    stride: 1
    weight_filler {
      type: "xavier"
    }
    bias_filler {
      type: "constant"
    }
  }
}
layer {
  name: "pool1"
  type: "Pooling"
  bottom: "conv1"
  top: "pool1"
  pooling_param {
    pool: MAX
    kernel_size: 5
    stride: 5
  }
}
layer {
  name: "conv2"
  type: "Convolution"
  bottom: "pool1"
  top: "conv2"
  param {
    lr_mult: 1
  }
  param {
    lr_mult: 2
  }
  convolution_param {
    num_output: 5
    kernel_size: 7
    stride: 1
    weight_filler {
      type: "xavier"
    }
    bias_filler {
      type: "constant"
    }
  }
}
layer {
  name: "pool2"
  type: "Pooling"
  bottom: "conv2"
  top: "pool2"
  pooling_param {
    pool: MAX
    kernel_size: 3
    stride: 3
  }
}
layer {
  name: "ip1"
  type: "InnerProduct"
  bottom: "pool2"
  top: "ip1"
  param {
    lr_mult: 1
  }
  param {
    lr_mult: 2
  }
  inner_product_param {
    num_output: 32
    weight_filler {
      type: "xavier"
    }
    bias_filler {
      type: "constant"
    }
  }
}
layer {
  name: "relu1"
  type: "ReLU"
  bottom: "ip1"
  top: "ip1"
}
layer {
  name: "drop1"
  type: "Dropout"
  bottom: "ip1"
  top: "ip1"
  include {
    phase: TRAIN
  }
  dropout_param {
    dropout_ratio: 0.5
  }
}
layer {
  name: "ip2"
  type: "InnerProduct"
  bottom: "ip1"
  top: "ip2"
  param {
    lr_mult: 1
  }
  param {
    lr_mult: 2
  }
  inner_product_param {
    num_output: 2
    weight_filler {
      type: "xavier"
    }
    bias_filler {
      type: "constant"
    }
  }
}
layer {
  name: "loss"
  type: "SoftmaxWithLoss"
  bottom: "ip2"
  bottom: "label"
  top: "loss"
}
I0706 19:40:22.026161 30501 layer_factory.hpp:77] Creating layer training_cells
I0706 19:40:22.851984 30501 net.cpp:91] Creating Layer training_cells
I0706 19:40:22.852026 30501 net.cpp:399] training_cells -> image
I0706 19:40:22.852053 30501 net.cpp:399] training_cells -> label
I0706 19:42:03.965368 30501 net.cpp:141] Setting up training_cells
I0706 19:42:03.965448 30501 net.cpp:148] Top shape: 512 2 149 149 (22733824)
I0706 19:42:03.965456 30501 net.cpp:148] Top shape: 512 (512)
I0706 19:42:03.965461 30501 net.cpp:156] Memory required for data: 90937344
I0706 19:42:03.965472 30501 layer_factory.hpp:77] Creating layer conv1
I0706 19:42:03.965493 30501 net.cpp:91] Creating Layer conv1
I0706 19:42:03.965500 30501 net.cpp:425] conv1 <- image
I0706 19:42:03.965513 30501 net.cpp:399] conv1 -> conv1
I0706 19:42:03.968654 30501 net.cpp:141] Setting up conv1
I0706 19:42:03.968680 30501 net.cpp:148] Top shape: 512 15 135 135 (139968000)
I0706 19:42:03.968686 30501 net.cpp:156] Memory required for data: 650809344
I0706 19:42:03.968701 30501 layer_factory.hpp:77] Creating layer pool1
I0706 19:42:03.968711 30501 net.cpp:91] Creating Layer pool1
I0706 19:42:03.968716 30501 net.cpp:425] pool1 <- conv1
I0706 19:42:03.968724 30501 net.cpp:399] pool1 -> pool1
I0706 19:42:03.968761 30501 net.cpp:141] Setting up pool1
I0706 19:42:03.968770 30501 net.cpp:148] Top shape: 512 15 27 27 (5598720)
I0706 19:42:03.968775 30501 net.cpp:156] Memory required for data: 673204224
I0706 19:42:03.968778 30501 layer_factory.hpp:77] Creating layer conv2
I0706 19:42:03.968788 30501 net.cpp:91] Creating Layer conv2
I0706 19:42:03.968793 30501 net.cpp:425] conv2 <- pool1
I0706 19:42:03.968799 30501 net.cpp:399] conv2 -> conv2
I0706 19:42:03.969632 30501 net.cpp:141] Setting up conv2
I0706 19:42:03.969646 30501 net.cpp:148] Top shape: 512 5 21 21 (1128960)
I0706 19:42:03.969651 30501 net.cpp:156] Memory required for data: 677720064
I0706 19:42:03.969660 30501 layer_factory.hpp:77] Creating layer pool2
I0706 19:42:03.969678 30501 net.cpp:91] Creating Layer pool2
I0706 19:42:03.969684 30501 net.cpp:425] pool2 <- conv2
I0706 19:42:03.969691 30501 net.cpp:399] pool2 -> pool2
I0706 19:42:03.969717 30501 net.cpp:141] Setting up pool2
I0706 19:42:03.969725 30501 net.cpp:148] Top shape: 512 5 7 7 (125440)
I0706 19:42:03.969729 30501 net.cpp:156] Memory required for data: 678221824
I0706 19:42:03.969734 30501 layer_factory.hpp:77] Creating layer ip1
I0706 19:42:03.969743 30501 net.cpp:91] Creating Layer ip1
I0706 19:42:03.969748 30501 net.cpp:425] ip1 <- pool2
I0706 19:42:03.969754 30501 net.cpp:399] ip1 -> ip1
I0706 19:42:03.969866 30501 net.cpp:141] Setting up ip1
I0706 19:42:03.969874 30501 net.cpp:148] Top shape: 512 32 (16384)
I0706 19:42:03.969879 30501 net.cpp:156] Memory required for data: 678287360
I0706 19:42:03.969887 30501 layer_factory.hpp:77] Creating layer relu1
I0706 19:42:03.969894 30501 net.cpp:91] Creating Layer relu1
I0706 19:42:03.969899 30501 net.cpp:425] relu1 <- ip1
I0706 19:42:03.969905 30501 net.cpp:386] relu1 -> ip1 (in-place)
I0706 19:42:03.969915 30501 net.cpp:141] Setting up relu1
I0706 19:42:03.969921 30501 net.cpp:148] Top shape: 512 32 (16384)
I0706 19:42:03.969926 30501 net.cpp:156] Memory required for data: 678352896
I0706 19:42:03.969931 30501 layer_factory.hpp:77] Creating layer drop1
I0706 19:42:03.969944 30501 net.cpp:91] Creating Layer drop1
I0706 19:42:03.969950 30501 net.cpp:425] drop1 <- ip1
I0706 19:42:03.969956 30501 net.cpp:386] drop1 -> ip1 (in-place)
I0706 19:42:03.969975 30501 net.cpp:141] Setting up drop1
I0706 19:42:03.969981 30501 net.cpp:148] Top shape: 512 32 (16384)
I0706 19:42:03.969986 30501 net.cpp:156] Memory required for data: 678418432
I0706 19:42:03.969990 30501 layer_factory.hpp:77] Creating layer ip2
I0706 19:42:03.970000 30501 net.cpp:91] Creating Layer ip2
I0706 19:42:03.970003 30501 net.cpp:425] ip2 <- ip1
I0706 19:42:03.970011 30501 net.cpp:399] ip2 -> ip2
I0706 19:42:03.970068 30501 net.cpp:141] Setting up ip2
I0706 19:42:03.970077 30501 net.cpp:148] Top shape: 512 2 (1024)
I0706 19:42:03.970082 30501 net.cpp:156] Memory required for data: 678422528
I0706 19:42:03.970088 30501 layer_factory.hpp:77] Creating layer loss
I0706 19:42:03.970095 30501 net.cpp:91] Creating Layer loss
I0706 19:42:03.970100 30501 net.cpp:425] loss <- ip2
I0706 19:42:03.970105 30501 net.cpp:425] loss <- label
I0706 19:42:03.970113 30501 net.cpp:399] loss -> loss
I0706 19:42:03.970125 30501 layer_factory.hpp:77] Creating layer loss
…
I0706 19:42:03.970644 30501 net.cpp:313] The NetState phase (1) differed from the phase (0) specified by a rule in layer drop1
I0706 19:42:03.970715 30501 net.cpp:49] Initializing net from parameters: 
name: "fish_filter"
state {
  phase: TEST
}
layer {
  name: "testing_cells"
  type: "Python"
  top: "image"
  top: "label"
  include {
    phase: TEST
  }
  python_param {
    module: "fisherman.caffe_layers"
    layer: "DataMapLayer"
    param_str: "{\'tops\': [\'image\', \'label\'], \'data_dir\': \'/home/sam/code/fisherman/data/dense_labelling_k149/\', \'split\': \'test\', \'samples_per_class\': 256, \'kernel\': 149}"
  }
}
layer {
  name: "conv1"
  type: "Convolution"
  bottom: "image"
  top: "conv1"
  param {
    lr_mult: 1
  }
  param {
    lr_mult: 2
  }
  convolution_param {
    num_output: 15
    kernel_size: 15
    stride: 1
    weight_filler {
      type: "xavier"
    }
    bias_filler {
      type: "constant"
    }
  }
}
layer {
  name: "pool1"
  type: "Pooling"
  bottom: "conv1"
  top: "pool1"
  pooling_param {
    pool: MAX
    kernel_size: 5
    stride: 5
  }
}
layer {
  name: "conv2"
  type: "Convolution"
  bottom: "pool1"
  top: "conv2"
  param {
    lr_mult: 1
  }
  param {
    lr_mult: 2
  }
  convolution_param {
    num_output: 5
    kernel_size: 7
    stride: 1
    weight_filler {
      type: "xavier"
    }
    bias_filler {
      type: "constant"
    }
  }
}
layer {
  name: "pool2"
  type: "Pooling"
  bottom: "conv2"
  top: "pool2"
  pooling_param {
    pool: MAX
    kernel_size: 3
    stride: 3
  }
}
layer {
  name: "ip1"
  type: "InnerProduct"
  bottom: "pool2"
  top: "ip1"
  param {
    lr_mult: 1
  }
  param {
    lr_mult: 2
  }
  inner_product_param {
    num_output: 32
    weight_filler {
      type: "xavier"
    }
    bias_filler {
      type: "constant"
    }
  }
}
layer {
  name: "relu1"
  type: "ReLU"
  bottom: "ip1"
  top: "ip1"
}
layer {
  name: "ip2"
  type: "InnerProduct"
  bottom: "ip1"
  top: "ip2"
  param {
    lr_mult: 1
  }
  param {
    lr_mult: 2
  }
  inner_product_param {
    num_output: 2
    weight_filler {
      type: "xavier"
    }
    bias_filler {
      type: "constant"
    }
  }
}
layer {
  name: "accuracy"
  type: "Accuracy"
  bottom: "ip2"
  bottom: "label"
  top: "accuracy"
  include {
    phase: TEST
  }
}
layer {
  name: "loss"
  type: "SoftmaxWithLoss"
  bottom: "ip2"
  bottom: "label"
  top: "loss"
}
I0706 19:42:03.971031 30501 layer_factory.hpp:77] Creating layer testing_cells
I0706 19:42:03.971076 30501 net.cpp:91] Creating Layer testing_cells
I0706 19:42:03.971086 30501 net.cpp:399] testing_cells -> image
I0706 19:42:03.971120 30501 net.cpp:399] testing_cells -> label
I0706 19:42:52.087226 30501 net.cpp:141] Setting up testing_cells
I0706 19:42:52.087338 30501 net.cpp:148] Top shape: 512 2 149 149 (22733824)
I0706 19:42:52.087347 30501 net.cpp:148] Top shape: 512 (512)
I0706 19:42:52.087352 30501 net.cpp:156] Memory required for data: 90937344
I0706 19:42:52.087360 30501 layer_factory.hpp:77] Creating layer label_testing_cells_1_split
I0706 19:42:52.087375 30501 net.cpp:91] Creating Layer label_testing_cells_1_split
I0706 19:42:52.087381 30501 net.cpp:425] label_testing_cells_1_split <- label
I0706 19:42:52.087391 30501 net.cpp:399] label_testing_cells_1_split -> label_testing_cells_1_split_0
I0706 19:42:52.087404 30501 net.cpp:399] label_testing_cells_1_split -> label_testing_cells_1_split_1
I0706 19:42:52.087432 30501 net.cpp:141] Setting up label_testing_cells_1_split
I0706 19:42:52.087450 30501 net.cpp:148] Top shape: 512 (512)
I0706 19:42:52.087455 30501 net.cpp:148] Top shape: 512 (512)
I0706 19:42:52.087460 30501 net.cpp:156] Memory required for data: 90941440
I0706 19:42:52.087465 30501 layer_factory.hpp:77] Creating layer conv1
I0706 19:42:52.087478 30501 net.cpp:91] Creating Layer conv1
I0706 19:42:52.087483 30501 net.cpp:425] conv1 <- image
I0706 19:42:52.087491 30501 net.cpp:399] conv1 -> conv1
I0706 19:42:52.087692 30501 net.cpp:141] Setting up conv1
I0706 19:42:52.087712 30501 net.cpp:148] Top shape: 512 15 135 135 (139968000)
I0706 19:42:52.087716 30501 net.cpp:156] Memory required for data: 650813440
I0706 19:42:52.087728 30501 layer_factory.hpp:77] Creating layer pool1
I0706 19:42:52.087736 30501 net.cpp:91] Creating Layer pool1
I0706 19:42:52.087741 30501 net.cpp:425] pool1 <- conv1
I0706 19:42:52.087748 30501 net.cpp:399] pool1 -> pool1
I0706 19:42:52.087774 30501 net.cpp:141] Setting up pool1
I0706 19:42:52.087790 30501 net.cpp:148] Top shape: 512 15 27 27 (5598720)
I0706 19:42:52.087795 30501 net.cpp:156] Memory required for data: 673208320
I0706 19:42:52.087810 30501 layer_factory.hpp:77] Creating layer conv2
I0706 19:42:52.087818 30501 net.cpp:91] Creating Layer conv2
I0706 19:42:52.087823 30501 net.cpp:425] conv2 <- pool1
I0706 19:42:52.087831 30501 net.cpp:399] conv2 -> conv2
I0706 19:42:52.087987 30501 net.cpp:141] Setting up conv2
I0706 19:42:52.088006 30501 net.cpp:148] Top shape: 512 5 21 21 (1128960)
I0706 19:42:52.088011 30501 net.cpp:156] Memory required for data: 677724160
I0706 19:42:52.088029 30501 layer_factory.hpp:77] Creating layer pool2
I0706 19:42:52.088037 30501 net.cpp:91] Creating Layer pool2
I0706 19:42:52.088052 30501 net.cpp:425] pool2 <- conv2
I0706 19:42:52.088057 30501 net.cpp:399] pool2 -> pool2
I0706 19:42:52.088080 30501 net.cpp:141] Setting up pool2
I0706 19:42:52.088088 30501 net.cpp:148] Top shape: 512 5 7 7 (125440)
I0706 19:42:52.088091 30501 net.cpp:156] Memory required for data: 678225920
I0706 19:42:52.088096 30501 layer_factory.hpp:77] Creating layer ip1
I0706 19:42:52.088104 30501 net.cpp:91] Creating Layer ip1
I0706 19:42:52.088109 30501 net.cpp:425] ip1 <- pool2
I0706 19:42:52.088115 30501 net.cpp:399] ip1 -> ip1
I0706 19:42:52.088228 30501 net.cpp:141] Setting up ip1
I0706 19:42:52.088248 30501 net.cpp:148] Top shape: 512 32 (16384)
I0706 19:42:52.088251 30501 net.cpp:156] Memory required for data: 678291456
I0706 19:42:52.088260 30501 layer_factory.hpp:77] Creating layer relu1
I0706 19:42:52.088266 30501 net.cpp:91] Creating Layer relu1
I0706 19:42:52.088271 30501 net.cpp:425] relu1 <- ip1
I0706 19:42:52.088277 30501 net.cpp:386] relu1 -> ip1 (in-place)
I0706 19:42:52.088284 30501 net.cpp:141] Setting up relu1
I0706 19:42:52.088289 30501 net.cpp:148] Top shape: 512 32 (16384)
I0706 19:42:52.088294 30501 net.cpp:156] Memory required for data: 678356992
I0706 19:42:52.088299 30501 layer_factory.hpp:77] Creating layer ip2
I0706 19:42:52.088306 30501 net.cpp:91] Creating Layer ip2
I0706 19:42:52.088311 30501 net.cpp:425] ip2 <- ip1
I0706 19:42:52.088317 30501 net.cpp:399] ip2 -> ip2
I0706 19:42:52.088392 30501 net.cpp:141] Setting up ip2
I0706 19:42:52.088398 30501 net.cpp:148] Top shape: 512 2 (1024)
I0706 19:42:52.088403 30501 net.cpp:156] Memory required for data: 678361088
I0706 19:42:52.088410 30501 layer_factory.hpp:77] Creating layer ip2_ip2_0_split
I0706 19:42:52.088462 30501 net.cpp:91] Creating Layer ip2_ip2_0_split
I0706 19:42:52.088469 30501 net.cpp:425] ip2_ip2_0_split <- ip2
I0706 19:42:52.088491 30501 net.cpp:399] ip2_ip2_0_split -> ip2_ip2_0_split_0
I0706 19:42:52.088498 30501 net.cpp:399] ip2_ip2_0_split -> ip2_ip2_0_split_1
I0706 19:42:52.088522 30501 net.cpp:141] Setting up ip2_ip2_0_split
I0706 19:42:52.088529 30501 net.cpp:148] Top shape: 512 2 (1024)
I0706 19:42:52.088534 30501 net.cpp:148] Top shape: 512 2 (1024)
I0706 19:42:52.088539 30501 net.cpp:156] Memory required for data: 678369280
I0706 19:42:52.088544 30501 layer_factory.hpp:77] Creating layer accuracy
I0706 19:42:52.088557 30501 net.cpp:91] Creating Layer accuracy
I0706 19:42:52.088562 30501 net.cpp:425] accuracy <- ip2_ip2_0_split_0
I0706 19:42:52.088577 30501 net.cpp:425] accuracy <- label_testing_cells_1_split_0
I0706 19:42:52.088593 30501 net.cpp:399] accuracy -> accuracy
…
