…
I0707 11:36:34.277256  3724 net.cpp:313] The NetState phase (0) differed from the phase (1) specified by a rule in layer accuracy
I0707 11:36:34.277333  3724 net.cpp:49] Initializing net from parameters: 
name: "fish_filter"
state {
  phase: TRAIN
}
layer {
  name: "training_cells"
  type: "Python"
  top: "image"
  top: "label"
  include {
    phase: TRAIN
  }
  python_param {
    module: "fisherman.caffe_layers"
    layer: "DataMapLayer"
    param_str: "{\'tops\': [\'image\', \'label\'], \'data_dir\': \'/home/sam/code/fisherman/data/dense_labelling_k149/\', \'split\': \'train\', \'samples_per_class\': 256, \'kernel\': 149}"
  }
}
layer {
  name: "conv1"
  type: "Convolution"
  bottom: "image"
  top: "conv1"
  param {
    lr_mult: 1
  }
  param {
    lr_mult: 2
  }
  convolution_param {
    num_output: 15
    kernel_size: 15
    stride: 1
    weight_filler {
      type: "xavier"
    }
    bias_filler {
      type: "constant"
    }
  }
}
layer {
  name: "pool1"
  type: "Pooling"
  bottom: "conv1"
  top: "pool1"
  pooling_param {
    pool: MAX
    kernel_size: 5
    stride: 5
  }
}
layer {
  name: "conv2"
  type: "Convolution"
  bottom: "pool1"
  top: "conv2"
  param {
    lr_mult: 1
  }
  param {
    lr_mult: 2
  }
  convolution_param {
    num_output: 5
    kernel_size: 7
    stride: 1
    weight_filler {
      type: "xavier"
    }
    bias_filler {
      type: "constant"
    }
  }
}
layer {
  name: "pool2"
  type: "Pooling"
  bottom: "conv2"
  top: "pool2"
  pooling_param {
    pool: MAX
    kernel_size: 3
    stride: 3
  }
}
layer {
  name: "ip1"
  type: "InnerProduct"
  bottom: "pool2"
  top: "ip1"
  param {
    lr_mult: 1
  }
  param {
    lr_mult: 2
  }
  inner_product_param {
    num_output: 32
    weight_filler {
      type: "xavier"
    }
    bias_filler {
      type: "constant"
    }
  }
}
layer {
  name: "relu1"
  type: "ReLU"
  bottom: "ip1"
  top: "ip1"
}
layer {
  name: "drop1"
  type: "Dropout"
  bottom: "ip1"
  top: "ip1"
  include {
    phase: TRAIN
  }
  dropout_param {
    dropout_ratio: 0.5
  }
}
layer {
  name: "ip2"
  type: "InnerProduct"
  bottom: "ip1"
  top: "ip2"
  param {
    lr_mult: 1
  }
  param {
    lr_mult: 2
  }
  inner_product_param {
    num_output: 2
    weight_filler {
      type: "xavier"
    }
    bias_filler {
      type: "constant"
    }
  }
}
layer {
  name: "loss"
  type: "SoftmaxWithLoss"
  bottom: "ip2"
  bottom: "label"
  top: "loss"
}
I0707 11:36:34.277644  3724 layer_factory.hpp:77] Creating layer training_cells
I0707 11:36:35.085736  3724 net.cpp:91] Creating Layer training_cells
I0707 11:36:35.085777  3724 net.cpp:399] training_cells -> image
I0707 11:36:35.085798  3724 net.cpp:399] training_cells -> label
I0707 11:38:17.025102  3724 net.cpp:141] Setting up training_cells
I0707 11:38:17.025198  3724 net.cpp:148] Top shape: 512 2 149 149 (22733824)
I0707 11:38:17.025207  3724 net.cpp:148] Top shape: 512 (512)
I0707 11:38:17.025213  3724 net.cpp:156] Memory required for data: 90937344
I0707 11:38:17.025223  3724 layer_factory.hpp:77] Creating layer conv1
I0707 11:38:17.025245  3724 net.cpp:91] Creating Layer conv1
I0707 11:38:17.025252  3724 net.cpp:425] conv1 <- image
I0707 11:38:17.025264  3724 net.cpp:399] conv1 -> conv1
I0707 11:38:17.026398  3724 net.cpp:141] Setting up conv1
I0707 11:38:17.026425  3724 net.cpp:148] Top shape: 512 15 135 135 (139968000)
I0707 11:38:17.026430  3724 net.cpp:156] Memory required for data: 650809344
I0707 11:38:17.026445  3724 layer_factory.hpp:77] Creating layer pool1
I0707 11:38:17.026455  3724 net.cpp:91] Creating Layer pool1
I0707 11:38:17.026460  3724 net.cpp:425] pool1 <- conv1
I0707 11:38:17.026466  3724 net.cpp:399] pool1 -> pool1
I0707 11:38:17.026504  3724 net.cpp:141] Setting up pool1
I0707 11:38:17.026511  3724 net.cpp:148] Top shape: 512 15 27 27 (5598720)
I0707 11:38:17.026516  3724 net.cpp:156] Memory required for data: 673204224
I0707 11:38:17.026520  3724 layer_factory.hpp:77] Creating layer conv2
I0707 11:38:17.026530  3724 net.cpp:91] Creating Layer conv2
I0707 11:38:17.026535  3724 net.cpp:425] conv2 <- pool1
I0707 11:38:17.026541  3724 net.cpp:399] conv2 -> conv2
I0707 11:38:17.027228  3724 net.cpp:141] Setting up conv2
I0707 11:38:17.027252  3724 net.cpp:148] Top shape: 512 5 21 21 (1128960)
I0707 11:38:17.027267  3724 net.cpp:156] Memory required for data: 677720064
I0707 11:38:17.027277  3724 layer_factory.hpp:77] Creating layer pool2
I0707 11:38:17.027286  3724 net.cpp:91] Creating Layer pool2
I0707 11:38:17.027299  3724 net.cpp:425] pool2 <- conv2
I0707 11:38:17.027304  3724 net.cpp:399] pool2 -> pool2
I0707 11:38:17.027343  3724 net.cpp:141] Setting up pool2
I0707 11:38:17.027349  3724 net.cpp:148] Top shape: 512 5 7 7 (125440)
I0707 11:38:17.027354  3724 net.cpp:156] Memory required for data: 678221824
I0707 11:38:17.027366  3724 layer_factory.hpp:77] Creating layer ip1
I0707 11:38:17.027384  3724 net.cpp:91] Creating Layer ip1
I0707 11:38:17.027390  3724 net.cpp:425] ip1 <- pool2
I0707 11:38:17.027395  3724 net.cpp:399] ip1 -> ip1
I0707 11:38:17.027508  3724 net.cpp:141] Setting up ip1
I0707 11:38:17.027515  3724 net.cpp:148] Top shape: 512 32 (16384)
I0707 11:38:17.027519  3724 net.cpp:156] Memory required for data: 678287360
I0707 11:38:17.027529  3724 layer_factory.hpp:77] Creating layer relu1
I0707 11:38:17.027535  3724 net.cpp:91] Creating Layer relu1
I0707 11:38:17.027540  3724 net.cpp:425] relu1 <- ip1
I0707 11:38:17.027546  3724 net.cpp:386] relu1 -> ip1 (in-place)
I0707 11:38:17.027555  3724 net.cpp:141] Setting up relu1
I0707 11:38:17.027561  3724 net.cpp:148] Top shape: 512 32 (16384)
I0707 11:38:17.027565  3724 net.cpp:156] Memory required for data: 678352896
I0707 11:38:17.027570  3724 layer_factory.hpp:77] Creating layer drop1
I0707 11:38:17.027582  3724 net.cpp:91] Creating Layer drop1
I0707 11:38:17.027588  3724 net.cpp:425] drop1 <- ip1
I0707 11:38:17.027593  3724 net.cpp:386] drop1 -> ip1 (in-place)
I0707 11:38:17.027612  3724 net.cpp:141] Setting up drop1
I0707 11:38:17.027619  3724 net.cpp:148] Top shape: 512 32 (16384)
I0707 11:38:17.027623  3724 net.cpp:156] Memory required for data: 678418432
I0707 11:38:17.027628  3724 layer_factory.hpp:77] Creating layer ip2
I0707 11:38:17.027637  3724 net.cpp:91] Creating Layer ip2
I0707 11:38:17.027642  3724 net.cpp:425] ip2 <- ip1
I0707 11:38:17.027648  3724 net.cpp:399] ip2 -> ip2
I0707 11:38:17.027705  3724 net.cpp:141] Setting up ip2
I0707 11:38:17.027712  3724 net.cpp:148] Top shape: 512 2 (1024)
I0707 11:38:17.027717  3724 net.cpp:156] Memory required for data: 678422528
I0707 11:38:17.027724  3724 layer_factory.hpp:77] Creating layer loss
I0707 11:38:17.027730  3724 net.cpp:91] Creating Layer loss
I0707 11:38:17.027735  3724 net.cpp:425] loss <- ip2
I0707 11:38:17.027740  3724 net.cpp:425] loss <- label
I0707 11:38:17.027746  3724 net.cpp:399] loss -> loss
I0707 11:38:17.027760  3724 layer_factory.hpp:77] Creating layer loss
…
I0707 11:38:17.028266  3724 net.cpp:313] The NetState phase (1) differed from the phase (0) specified by a rule in layer drop1
I0707 11:38:17.028334  3724 net.cpp:49] Initializing net from parameters: 
name: "fish_filter"
state {
  phase: TEST
}
layer {
  name: "testing_cells"
  type: "Python"
  top: "image"
  top: "label"
  include {
    phase: TEST
  }
  python_param {
    module: "fisherman.caffe_layers"
    layer: "DataMapLayer"
    param_str: "{\'tops\': [\'image\', \'label\'], \'data_dir\': \'/home/sam/code/fisherman/data/dense_labelling_k149/\', \'split\': \'test\', \'samples_per_class\': 256, \'kernel\': 149}"
  }
}
layer {
  name: "conv1"
  type: "Convolution"
  bottom: "image"
  top: "conv1"
  param {
    lr_mult: 1
  }
  param {
    lr_mult: 2
  }
  convolution_param {
    num_output: 15
    kernel_size: 15
    stride: 1
    weight_filler {
      type: "xavier"
    }
    bias_filler {
      type: "constant"
    }
  }
}
layer {
  name: "pool1"
  type: "Pooling"
  bottom: "conv1"
  top: "pool1"
  pooling_param {
    pool: MAX
    kernel_size: 5
    stride: 5
  }
}
layer {
  name: "conv2"
  type: "Convolution"
  bottom: "pool1"
  top: "conv2"
  param {
    lr_mult: 1
  }
  param {
    lr_mult: 2
  }
  convolution_param {
    num_output: 5
    kernel_size: 7
    stride: 1
    weight_filler {
      type: "xavier"
    }
    bias_filler {
      type: "constant"
    }
  }
}
layer {
  name: "pool2"
  type: "Pooling"
  bottom: "conv2"
  top: "pool2"
  pooling_param {
    pool: MAX
    kernel_size: 3
    stride: 3
  }
}
layer {
  name: "ip1"
  type: "InnerProduct"
  bottom: "pool2"
  top: "ip1"
  param {
    lr_mult: 1
  }
  param {
    lr_mult: 2
  }
  inner_product_param {
    num_output: 32
    weight_filler {
      type: "xavier"
    }
    bias_filler {
      type: "constant"
    }
  }
}
layer {
  name: "relu1"
  type: "ReLU"
  bottom: "ip1"
  top: "ip1"
}
layer {
  name: "ip2"
  type: "InnerProduct"
  bottom: "ip1"
  top: "ip2"
  param {
    lr_mult: 1
  }
  param {
    lr_mult: 2
  }
  inner_product_param {
    num_output: 2
    weight_filler {
      type: "xavier"
    }
    bias_filler {
      type: "constant"
    }
  }
}
layer {
  name: "accuracy"
  type: "Accuracy"
  bottom: "ip2"
  bottom: "label"
  top: "accuracy"
  include {
    phase: TEST
  }
}
layer {
  name: "loss"
  type: "SoftmaxWithLoss"
  bottom: "ip2"
  bottom: "label"
  top: "loss"
}
I0707 11:38:17.028636  3724 layer_factory.hpp:77] Creating layer testing_cells
I0707 11:38:17.028683  3724 net.cpp:91] Creating Layer testing_cells
I0707 11:38:17.028692  3724 net.cpp:399] testing_cells -> image
I0707 11:38:17.028726  3724 net.cpp:399] testing_cells -> label
I0707 11:39:05.728741  3724 net.cpp:141] Setting up testing_cells
I0707 11:39:05.728848  3724 net.cpp:148] Top shape: 512 2 149 149 (22733824)
I0707 11:39:05.728857  3724 net.cpp:148] Top shape: 512 (512)
I0707 11:39:05.728862  3724 net.cpp:156] Memory required for data: 90937344
I0707 11:39:05.728869  3724 layer_factory.hpp:77] Creating layer label_testing_cells_1_split
I0707 11:39:05.728883  3724 net.cpp:91] Creating Layer label_testing_cells_1_split
I0707 11:39:05.728889  3724 net.cpp:425] label_testing_cells_1_split <- label
I0707 11:39:05.728898  3724 net.cpp:399] label_testing_cells_1_split -> label_testing_cells_1_split_0
I0707 11:39:05.728909  3724 net.cpp:399] label_testing_cells_1_split -> label_testing_cells_1_split_1
I0707 11:39:05.728937  3724 net.cpp:141] Setting up label_testing_cells_1_split
I0707 11:39:05.728945  3724 net.cpp:148] Top shape: 512 (512)
I0707 11:39:05.728950  3724 net.cpp:148] Top shape: 512 (512)
I0707 11:39:05.728955  3724 net.cpp:156] Memory required for data: 90941440
I0707 11:39:05.728958  3724 layer_factory.hpp:77] Creating layer conv1
I0707 11:39:05.728973  3724 net.cpp:91] Creating Layer conv1
I0707 11:39:05.728978  3724 net.cpp:425] conv1 <- image
I0707 11:39:05.728984  3724 net.cpp:399] conv1 -> conv1
I0707 11:39:05.729192  3724 net.cpp:141] Setting up conv1
I0707 11:39:05.729202  3724 net.cpp:148] Top shape: 512 15 135 135 (139968000)
I0707 11:39:05.729207  3724 net.cpp:156] Memory required for data: 650813440
I0707 11:39:05.729218  3724 layer_factory.hpp:77] Creating layer pool1
I0707 11:39:05.729225  3724 net.cpp:91] Creating Layer pool1
I0707 11:39:05.729230  3724 net.cpp:425] pool1 <- conv1
I0707 11:39:05.729236  3724 net.cpp:399] pool1 -> pool1
I0707 11:39:05.729264  3724 net.cpp:141] Setting up pool1
I0707 11:39:05.729270  3724 net.cpp:148] Top shape: 512 15 27 27 (5598720)
I0707 11:39:05.729274  3724 net.cpp:156] Memory required for data: 673208320
I0707 11:39:05.729279  3724 layer_factory.hpp:77] Creating layer conv2
I0707 11:39:05.729288  3724 net.cpp:91] Creating Layer conv2
I0707 11:39:05.729293  3724 net.cpp:425] conv2 <- pool1
I0707 11:39:05.729298  3724 net.cpp:399] conv2 -> conv2
I0707 11:39:05.729470  3724 net.cpp:141] Setting up conv2
I0707 11:39:05.729478  3724 net.cpp:148] Top shape: 512 5 21 21 (1128960)
I0707 11:39:05.729492  3724 net.cpp:156] Memory required for data: 677724160
I0707 11:39:05.729501  3724 layer_factory.hpp:77] Creating layer pool2
I0707 11:39:05.729507  3724 net.cpp:91] Creating Layer pool2
I0707 11:39:05.729512  3724 net.cpp:425] pool2 <- conv2
I0707 11:39:05.729519  3724 net.cpp:399] pool2 -> pool2
I0707 11:39:05.729552  3724 net.cpp:141] Setting up pool2
I0707 11:39:05.729558  3724 net.cpp:148] Top shape: 512 5 7 7 (125440)
I0707 11:39:05.729563  3724 net.cpp:156] Memory required for data: 678225920
I0707 11:39:05.729568  3724 layer_factory.hpp:77] Creating layer ip1
I0707 11:39:05.729575  3724 net.cpp:91] Creating Layer ip1
I0707 11:39:05.729580  3724 net.cpp:425] ip1 <- pool2
I0707 11:39:05.729586  3724 net.cpp:399] ip1 -> ip1
I0707 11:39:05.729694  3724 net.cpp:141] Setting up ip1
I0707 11:39:05.729701  3724 net.cpp:148] Top shape: 512 32 (16384)
I0707 11:39:05.729707  3724 net.cpp:156] Memory required for data: 678291456
I0707 11:39:05.729714  3724 layer_factory.hpp:77] Creating layer relu1
I0707 11:39:05.729722  3724 net.cpp:91] Creating Layer relu1
I0707 11:39:05.729727  3724 net.cpp:425] relu1 <- ip1
I0707 11:39:05.729732  3724 net.cpp:386] relu1 -> ip1 (in-place)
I0707 11:39:05.729738  3724 net.cpp:141] Setting up relu1
I0707 11:39:05.729743  3724 net.cpp:148] Top shape: 512 32 (16384)
I0707 11:39:05.729748  3724 net.cpp:156] Memory required for data: 678356992
I0707 11:39:05.729751  3724 layer_factory.hpp:77] Creating layer ip2
I0707 11:39:05.729759  3724 net.cpp:91] Creating Layer ip2
I0707 11:39:05.729763  3724 net.cpp:425] ip2 <- ip1
I0707 11:39:05.729769  3724 net.cpp:399] ip2 -> ip2
I0707 11:39:05.729825  3724 net.cpp:141] Setting up ip2
I0707 11:39:05.729831  3724 net.cpp:148] Top shape: 512 2 (1024)
I0707 11:39:05.729835  3724 net.cpp:156] Memory required for data: 678361088
I0707 11:39:05.729842  3724 layer_factory.hpp:77] Creating layer ip2_ip2_0_split
I0707 11:39:05.729876  3724 net.cpp:91] Creating Layer ip2_ip2_0_split
I0707 11:39:05.729881  3724 net.cpp:425] ip2_ip2_0_split <- ip2
I0707 11:39:05.729887  3724 net.cpp:399] ip2_ip2_0_split -> ip2_ip2_0_split_0
I0707 11:39:05.729893  3724 net.cpp:399] ip2_ip2_0_split -> ip2_ip2_0_split_1
I0707 11:39:05.729915  3724 net.cpp:141] Setting up ip2_ip2_0_split
I0707 11:39:05.729923  3724 net.cpp:148] Top shape: 512 2 (1024)
I0707 11:39:05.729928  3724 net.cpp:148] Top shape: 512 2 (1024)
I0707 11:39:05.729931  3724 net.cpp:156] Memory required for data: 678369280
I0707 11:39:05.729935  3724 layer_factory.hpp:77] Creating layer accuracy
I0707 11:39:05.729949  3724 net.cpp:91] Creating Layer accuracy
I0707 11:39:05.729954  3724 net.cpp:425] accuracy <- ip2_ip2_0_split_0
I0707 11:39:05.729959  3724 net.cpp:425] accuracy <- label_testing_cells_1_split_0
I0707 11:39:05.729965  3724 net.cpp:399] accuracy -> accuracy
…
