…
I0711 13:05:14.610954 14425 net.cpp:313] The NetState phase (0) differed from the phase (1) specified by a rule in layer accuracy
I0711 13:05:14.611029 14425 net.cpp:49] Initializing net from parameters: 
name: "fish_filter"
state {
  phase: TRAIN
}
layer {
  name: "training_cells"
  type: "Python"
  top: "image"
  top: "label"
  include {
    phase: TRAIN
  }
  python_param {
    module: "fisherman.caffe_layers"
    layer: "DataMapLayer"
    param_str: "{\'tops\': [\'image\', \'label\'], \'data_dir\': \'/home/sam/code/fisherman/data/dense_labelling_k149/\', \'split\': \'train\', \'samples_per_class\': 256, \'kernel\': 149}"
  }
}
layer {
  name: "conv1"
  type: "Convolution"
  bottom: "image"
  top: "conv1"
  param {
    lr_mult: 1
  }
  param {
    lr_mult: 2
  }
  convolution_param {
    num_output: 15
    kernel_size: 15
    stride: 1
    weight_filler {
      type: "xavier"
    }
    bias_filler {
      type: "constant"
    }
  }
}
layer {
  name: "pool1"
  type: "Pooling"
  bottom: "conv1"
  top: "pool1"
  pooling_param {
    pool: MAX
    kernel_size: 5
    stride: 5
  }
}
layer {
  name: "conv2"
  type: "Convolution"
  bottom: "pool1"
  top: "conv2"
  param {
    lr_mult: 1
  }
  param {
    lr_mult: 2
  }
  convolution_param {
    num_output: 5
    kernel_size: 7
    stride: 1
    weight_filler {
      type: "xavier"
    }
    bias_filler {
      type: "constant"
    }
  }
}
layer {
  name: "pool2"
  type: "Pooling"
  bottom: "conv2"
  top: "pool2"
  pooling_param {
    pool: MAX
    kernel_size: 3
    stride: 3
  }
}
layer {
  name: "ip1"
  type: "InnerProduct"
  bottom: "pool2"
  top: "ip1"
  param {
    lr_mult: 1
  }
  param {
    lr_mult: 2
  }
  inner_product_param {
    num_output: 32
    weight_filler {
      type: "xavier"
    }
    bias_filler {
      type: "constant"
    }
  }
}
layer {
  name: "relu1"
  type: "ReLU"
  bottom: "ip1"
  top: "ip1"
}
layer {
  name: "drop1"
  type: "Dropout"
  bottom: "ip1"
  top: "ip1"
  include {
    phase: TRAIN
  }
  dropout_param {
    dropout_ratio: 0.5
  }
}
layer {
  name: "ip2"
  type: "InnerProduct"
  bottom: "ip1"
  top: "ip2"
  param {
    lr_mult: 1
  }
  param {
    lr_mult: 2
  }
  inner_product_param {
    num_output: 2
    weight_filler {
      type: "xavier"
    }
    bias_filler {
      type: "constant"
    }
  }
}
layer {
  name: "loss"
  type: "SoftmaxWithLoss"
  bottom: "ip2"
  bottom: "label"
  top: "loss"
}
I0711 13:05:14.611345 14425 layer_factory.hpp:77] Creating layer training_cells
I0711 13:05:15.499284 14425 net.cpp:91] Creating Layer training_cells
I0711 13:05:15.499325 14425 net.cpp:399] training_cells -> image
I0711 13:05:15.499356 14425 net.cpp:399] training_cells -> label
I0711 13:07:05.529181 14425 net.cpp:141] Setting up training_cells
I0711 13:07:05.529265 14425 net.cpp:148] Top shape: 512 2 149 149 (22733824)
I0711 13:07:05.529274 14425 net.cpp:148] Top shape: 512 (512)
I0711 13:07:05.529279 14425 net.cpp:156] Memory required for data: 90937344
I0711 13:07:05.529289 14425 layer_factory.hpp:77] Creating layer conv1
I0711 13:07:05.529312 14425 net.cpp:91] Creating Layer conv1
I0711 13:07:05.529319 14425 net.cpp:425] conv1 <- image
I0711 13:07:05.529332 14425 net.cpp:399] conv1 -> conv1
I0711 13:07:05.529734 14425 net.cpp:141] Setting up conv1
I0711 13:07:05.529747 14425 net.cpp:148] Top shape: 512 15 135 135 (139968000)
I0711 13:07:05.529752 14425 net.cpp:156] Memory required for data: 650809344
I0711 13:07:05.529765 14425 layer_factory.hpp:77] Creating layer pool1
I0711 13:07:05.529775 14425 net.cpp:91] Creating Layer pool1
I0711 13:07:05.529780 14425 net.cpp:425] pool1 <- conv1
I0711 13:07:05.529786 14425 net.cpp:399] pool1 -> pool1
I0711 13:07:05.529814 14425 net.cpp:141] Setting up pool1
I0711 13:07:05.529819 14425 net.cpp:148] Top shape: 512 15 27 27 (5598720)
I0711 13:07:05.529824 14425 net.cpp:156] Memory required for data: 673204224
I0711 13:07:05.529827 14425 layer_factory.hpp:77] Creating layer conv2
I0711 13:07:05.529836 14425 net.cpp:91] Creating Layer conv2
I0711 13:07:05.529841 14425 net.cpp:425] conv2 <- pool1
I0711 13:07:05.529849 14425 net.cpp:399] conv2 -> conv2
I0711 13:07:05.529887 14425 net.cpp:141] Setting up conv2
I0711 13:07:05.529894 14425 net.cpp:148] Top shape: 512 5 21 21 (1128960)
I0711 13:07:05.529898 14425 net.cpp:156] Memory required for data: 677720064
I0711 13:07:05.529906 14425 layer_factory.hpp:77] Creating layer pool2
I0711 13:07:05.529924 14425 net.cpp:91] Creating Layer pool2
I0711 13:07:05.529929 14425 net.cpp:425] pool2 <- conv2
I0711 13:07:05.529935 14425 net.cpp:399] pool2 -> pool2
I0711 13:07:05.529943 14425 net.cpp:141] Setting up pool2
I0711 13:07:05.529949 14425 net.cpp:148] Top shape: 512 5 7 7 (125440)
I0711 13:07:05.529953 14425 net.cpp:156] Memory required for data: 678221824
I0711 13:07:05.529958 14425 layer_factory.hpp:77] Creating layer ip1
I0711 13:07:05.529974 14425 net.cpp:91] Creating Layer ip1
I0711 13:07:05.529978 14425 net.cpp:425] ip1 <- pool2
I0711 13:07:05.529984 14425 net.cpp:399] ip1 -> ip1
I0711 13:07:05.530040 14425 net.cpp:141] Setting up ip1
I0711 13:07:05.530045 14425 net.cpp:148] Top shape: 512 32 (16384)
I0711 13:07:05.530050 14425 net.cpp:156] Memory required for data: 678287360
I0711 13:07:05.530057 14425 layer_factory.hpp:77] Creating layer relu1
I0711 13:07:05.530063 14425 net.cpp:91] Creating Layer relu1
I0711 13:07:05.530067 14425 net.cpp:425] relu1 <- ip1
I0711 13:07:05.530073 14425 net.cpp:386] relu1 -> ip1 (in-place)
I0711 13:07:05.530081 14425 net.cpp:141] Setting up relu1
I0711 13:07:05.530086 14425 net.cpp:148] Top shape: 512 32 (16384)
I0711 13:07:05.530089 14425 net.cpp:156] Memory required for data: 678352896
I0711 13:07:05.530093 14425 layer_factory.hpp:77] Creating layer drop1
I0711 13:07:05.530103 14425 net.cpp:91] Creating Layer drop1
I0711 13:07:05.530108 14425 net.cpp:425] drop1 <- ip1
I0711 13:07:05.530113 14425 net.cpp:386] drop1 -> ip1 (in-place)
I0711 13:07:05.530133 14425 net.cpp:141] Setting up drop1
I0711 13:07:05.530138 14425 net.cpp:148] Top shape: 512 32 (16384)
I0711 13:07:05.530143 14425 net.cpp:156] Memory required for data: 678418432
I0711 13:07:05.530148 14425 layer_factory.hpp:77] Creating layer ip2
I0711 13:07:05.530164 14425 net.cpp:91] Creating Layer ip2
I0711 13:07:05.530169 14425 net.cpp:425] ip2 <- ip1
I0711 13:07:05.530174 14425 net.cpp:399] ip2 -> ip2
I0711 13:07:05.530185 14425 net.cpp:141] Setting up ip2
I0711 13:07:05.530191 14425 net.cpp:148] Top shape: 512 2 (1024)
I0711 13:07:05.530195 14425 net.cpp:156] Memory required for data: 678422528
I0711 13:07:05.530201 14425 layer_factory.hpp:77] Creating layer loss
I0711 13:07:05.530208 14425 net.cpp:91] Creating Layer loss
I0711 13:07:05.530213 14425 net.cpp:425] loss <- ip2
I0711 13:07:05.530218 14425 net.cpp:425] loss <- label
I0711 13:07:05.530225 14425 net.cpp:399] loss -> loss
I0711 13:07:05.530236 14425 layer_factory.hpp:77] Creating layer loss
…
I0711 13:07:05.530705 14425 net.cpp:313] The NetState phase (1) differed from the phase (0) specified by a rule in layer drop1
I0711 13:07:05.530804 14425 net.cpp:49] Initializing net from parameters: 
name: "fish_filter"
state {
  phase: TEST
}
layer {
  name: "testing_cells"
  type: "Python"
  top: "image"
  top: "label"
  include {
    phase: TEST
  }
  python_param {
    module: "fisherman.caffe_layers"
    layer: "DataMapLayer"
    param_str: "{\'tops\': [\'image\', \'label\'], \'data_dir\': \'/home/sam/code/fisherman/data/dense_labelling_k149/\', \'split\': \'test\', \'samples_per_class\': 256, \'kernel\': 149}"
  }
}
layer {
  name: "conv1"
  type: "Convolution"
  bottom: "image"
  top: "conv1"
  param {
    lr_mult: 1
  }
  param {
    lr_mult: 2
  }
  convolution_param {
    num_output: 15
    kernel_size: 15
    stride: 1
    weight_filler {
      type: "xavier"
    }
    bias_filler {
      type: "constant"
    }
  }
}
layer {
  name: "pool1"
  type: "Pooling"
  bottom: "conv1"
  top: "pool1"
  pooling_param {
    pool: MAX
    kernel_size: 5
    stride: 5
  }
}
layer {
  name: "conv2"
  type: "Convolution"
  bottom: "pool1"
  top: "conv2"
  param {
    lr_mult: 1
  }
  param {
    lr_mult: 2
  }
  convolution_param {
    num_output: 5
    kernel_size: 7
    stride: 1
    weight_filler {
      type: "xavier"
    }
    bias_filler {
      type: "constant"
    }
  }
}
layer {
  name: "pool2"
  type: "Pooling"
  bottom: "conv2"
  top: "pool2"
  pooling_param {
    pool: MAX
    kernel_size: 3
    stride: 3
  }
}
layer {
  name: "ip1"
  type: "InnerProduct"
  bottom: "pool2"
  top: "ip1"
  param {
    lr_mult: 1
  }
  param {
    lr_mult: 2
  }
  inner_product_param {
    num_output: 32
    weight_filler {
      type: "xavier"
    }
    bias_filler {
      type: "constant"
    }
  }
}
layer {
  name: "relu1"
  type: "ReLU"
  bottom: "ip1"
  top: "ip1"
}
layer {
  name: "ip2"
  type: "InnerProduct"
  bottom: "ip1"
  top: "ip2"
  param {
    lr_mult: 1
  }
  param {
    lr_mult: 2
  }
  inner_product_param {
    num_output: 2
    weight_filler {
      type: "xavier"
    }
    bias_filler {
      type: "constant"
    }
  }
}
layer {
  name: "accuracy"
  type: "Accuracy"
  bottom: "ip2"
  bottom: "label"
  top: "accuracy"
  include {
    phase: TEST
  }
}
layer {
  name: "loss"
  type: "SoftmaxWithLoss"
  bottom: "ip2"
  bottom: "label"
  top: "loss"
}
I0711 13:07:05.531124 14425 layer_factory.hpp:77] Creating layer testing_cells
I0711 13:07:05.531157 14425 net.cpp:91] Creating Layer testing_cells
I0711 13:07:05.531164 14425 net.cpp:399] testing_cells -> image
I0711 13:07:05.531196 14425 net.cpp:399] testing_cells -> label
I0711 13:07:57.336839 14425 net.cpp:141] Setting up testing_cells
I0711 13:07:57.336940 14425 net.cpp:148] Top shape: 512 2 149 149 (22733824)
I0711 13:07:57.336948 14425 net.cpp:148] Top shape: 512 (512)
I0711 13:07:57.336953 14425 net.cpp:156] Memory required for data: 90937344
I0711 13:07:57.336961 14425 layer_factory.hpp:77] Creating layer label_testing_cells_1_split
I0711 13:07:57.336979 14425 net.cpp:91] Creating Layer label_testing_cells_1_split
I0711 13:07:57.336985 14425 net.cpp:425] label_testing_cells_1_split <- label
I0711 13:07:57.336994 14425 net.cpp:399] label_testing_cells_1_split -> label_testing_cells_1_split_0
I0711 13:07:57.337007 14425 net.cpp:399] label_testing_cells_1_split -> label_testing_cells_1_split_1
I0711 13:07:57.337018 14425 net.cpp:141] Setting up label_testing_cells_1_split
I0711 13:07:57.337023 14425 net.cpp:148] Top shape: 512 (512)
I0711 13:07:57.337028 14425 net.cpp:148] Top shape: 512 (512)
I0711 13:07:57.337033 14425 net.cpp:156] Memory required for data: 90941440
I0711 13:07:57.337038 14425 layer_factory.hpp:77] Creating layer conv1
I0711 13:07:57.337050 14425 net.cpp:91] Creating Layer conv1
I0711 13:07:57.337055 14425 net.cpp:425] conv1 <- image
I0711 13:07:57.337062 14425 net.cpp:399] conv1 -> conv1
I0711 13:07:57.337137 14425 net.cpp:141] Setting up conv1
I0711 13:07:57.337146 14425 net.cpp:148] Top shape: 512 15 135 135 (139968000)
I0711 13:07:57.337149 14425 net.cpp:156] Memory required for data: 650813440
I0711 13:07:57.337159 14425 layer_factory.hpp:77] Creating layer pool1
I0711 13:07:57.337174 14425 net.cpp:91] Creating Layer pool1
I0711 13:07:57.337179 14425 net.cpp:425] pool1 <- conv1
I0711 13:07:57.337185 14425 net.cpp:399] pool1 -> pool1
I0711 13:07:57.337194 14425 net.cpp:141] Setting up pool1
I0711 13:07:57.337200 14425 net.cpp:148] Top shape: 512 15 27 27 (5598720)
I0711 13:07:57.337205 14425 net.cpp:156] Memory required for data: 673208320
I0711 13:07:57.337209 14425 layer_factory.hpp:77] Creating layer conv2
I0711 13:07:57.337218 14425 net.cpp:91] Creating Layer conv2
I0711 13:07:57.337222 14425 net.cpp:425] conv2 <- pool1
I0711 13:07:57.337229 14425 net.cpp:399] conv2 -> conv2
I0711 13:07:57.337265 14425 net.cpp:141] Setting up conv2
I0711 13:07:57.337272 14425 net.cpp:148] Top shape: 512 5 21 21 (1128960)
I0711 13:07:57.337276 14425 net.cpp:156] Memory required for data: 677724160
I0711 13:07:57.337285 14425 layer_factory.hpp:77] Creating layer pool2
I0711 13:07:57.337291 14425 net.cpp:91] Creating Layer pool2
I0711 13:07:57.337296 14425 net.cpp:425] pool2 <- conv2
I0711 13:07:57.337301 14425 net.cpp:399] pool2 -> pool2
I0711 13:07:57.337309 14425 net.cpp:141] Setting up pool2
I0711 13:07:57.337316 14425 net.cpp:148] Top shape: 512 5 7 7 (125440)
I0711 13:07:57.337319 14425 net.cpp:156] Memory required for data: 678225920
I0711 13:07:57.337323 14425 layer_factory.hpp:77] Creating layer ip1
I0711 13:07:57.337332 14425 net.cpp:91] Creating Layer ip1
I0711 13:07:57.337337 14425 net.cpp:425] ip1 <- pool2
I0711 13:07:57.337342 14425 net.cpp:399] ip1 -> ip1
I0711 13:07:57.337398 14425 net.cpp:141] Setting up ip1
I0711 13:07:57.337404 14425 net.cpp:148] Top shape: 512 32 (16384)
I0711 13:07:57.337409 14425 net.cpp:156] Memory required for data: 678291456
I0711 13:07:57.337416 14425 layer_factory.hpp:77] Creating layer relu1
I0711 13:07:57.337422 14425 net.cpp:91] Creating Layer relu1
I0711 13:07:57.337427 14425 net.cpp:425] relu1 <- ip1
I0711 13:07:57.337432 14425 net.cpp:386] relu1 -> ip1 (in-place)
I0711 13:07:57.337440 14425 net.cpp:141] Setting up relu1
I0711 13:07:57.337445 14425 net.cpp:148] Top shape: 512 32 (16384)
I0711 13:07:57.337448 14425 net.cpp:156] Memory required for data: 678356992
I0711 13:07:57.337452 14425 layer_factory.hpp:77] Creating layer ip2
I0711 13:07:57.337460 14425 net.cpp:91] Creating Layer ip2
I0711 13:07:57.337466 14425 net.cpp:425] ip2 <- ip1
I0711 13:07:57.337471 14425 net.cpp:399] ip2 -> ip2
I0711 13:07:57.337483 14425 net.cpp:141] Setting up ip2
I0711 13:07:57.337489 14425 net.cpp:148] Top shape: 512 2 (1024)
I0711 13:07:57.337493 14425 net.cpp:156] Memory required for data: 678361088
I0711 13:07:57.337499 14425 layer_factory.hpp:77] Creating layer ip2_ip2_0_split
I0711 13:07:57.337534 14425 net.cpp:91] Creating Layer ip2_ip2_0_split
I0711 13:07:57.337539 14425 net.cpp:425] ip2_ip2_0_split <- ip2
I0711 13:07:57.337545 14425 net.cpp:399] ip2_ip2_0_split -> ip2_ip2_0_split_0
I0711 13:07:57.337553 14425 net.cpp:399] ip2_ip2_0_split -> ip2_ip2_0_split_1
I0711 13:07:57.337560 14425 net.cpp:141] Setting up ip2_ip2_0_split
I0711 13:07:57.337566 14425 net.cpp:148] Top shape: 512 2 (1024)
I0711 13:07:57.337571 14425 net.cpp:148] Top shape: 512 2 (1024)
I0711 13:07:57.337575 14425 net.cpp:156] Memory required for data: 678369280
I0711 13:07:57.337580 14425 layer_factory.hpp:77] Creating layer accuracy
I0711 13:07:57.337589 14425 net.cpp:91] Creating Layer accuracy
I0711 13:07:57.337594 14425 net.cpp:425] accuracy <- ip2_ip2_0_split_0
I0711 13:07:57.337599 14425 net.cpp:425] accuracy <- label_testing_cells_1_split_0
I0711 13:07:57.337605 14425 net.cpp:399] accuracy -> accuracy
…
