…
I0712 10:22:30.371572 25232 net.cpp:313] The NetState phase (0) differed from the phase (1) specified by a rule in layer accuracy
I0712 10:22:30.371640 25232 net.cpp:49] Initializing net from parameters: 
name: "fish_filter"
state {
  phase: TRAIN
}
layer {
  name: "training_cells"
  type: "Python"
  top: "image"
  top: "label"
  include {
    phase: TRAIN
  }
  python_param {
    module: "fisherman.caffe_layers"
    layer: "DataMapLayer"
    param_str: "{\'tops\': [\'image\', \'label\'], \'data_dir\': \'/home/sam/code/fisherman/data/dense_labelling_k149/\', \'split\': \'train\', \'samples_per_class\': 256, \'kernel\': 149}"
  }
}
layer {
  name: "conv1"
  type: "Convolution"
  bottom: "image"
  top: "conv1"
  param {
    lr_mult: 1
  }
  param {
    lr_mult: 2
  }
  convolution_param {
    num_output: 15
    kernel_size: 15
    stride: 1
    weight_filler {
      type: "xavier"
    }
    bias_filler {
      type: "constant"
    }
  }
}
layer {
  name: "pool1"
  type: "Pooling"
  bottom: "conv1"
  top: "pool1"
  pooling_param {
    pool: MAX
    kernel_size: 5
    stride: 5
  }
}
layer {
  name: "conv2"
  type: "Convolution"
  bottom: "pool1"
  top: "conv2"
  param {
    lr_mult: 1
  }
  param {
    lr_mult: 2
  }
  convolution_param {
    num_output: 5
    kernel_size: 7
    stride: 1
    weight_filler {
      type: "xavier"
    }
    bias_filler {
      type: "constant"
    }
  }
}
layer {
  name: "pool2"
  type: "Pooling"
  bottom: "conv2"
  top: "pool2"
  pooling_param {
    pool: MAX
    kernel_size: 3
    stride: 3
  }
}
layer {
  name: "ip1"
  type: "InnerProduct"
  bottom: "pool2"
  top: "ip1"
  param {
    lr_mult: 1
  }
  param {
    lr_mult: 2
  }
  inner_product_param {
    num_output: 32
    weight_filler {
      type: "xavier"
    }
    bias_filler {
      type: "constant"
    }
  }
}
layer {
  name: "relu1"
  type: "ReLU"
  bottom: "ip1"
  top: "ip1"
}
layer {
  name: "drop1"
  type: "Dropout"
  bottom: "ip1"
  top: "ip1"
  include {
    phase: TRAIN
  }
  dropout_param {
    dropout_ratio: 0.5
  }
}
layer {
  name: "ip2"
  type: "InnerProduct"
  bottom: "ip1"
  top: "ip2"
  param {
    lr_mult: 1
  }
  param {
    lr_mult: 2
  }
  inner_product_param {
    num_output: 2
    weight_filler {
      type: "xavier"
    }
    bias_filler {
      type: "constant"
    }
  }
}
layer {
  name: "loss"
  type: "SoftmaxWithLoss"
  bottom: "ip2"
  bottom: "label"
  top: "loss"
}
I0712 10:22:30.371958 25232 layer_factory.hpp:77] Creating layer training_cells
I0712 10:22:31.190616 25232 net.cpp:91] Creating Layer training_cells
I0712 10:22:31.190659 25232 net.cpp:399] training_cells -> image
I0712 10:22:31.190696 25232 net.cpp:399] training_cells -> label
I0712 10:24:07.938773 25232 net.cpp:141] Setting up training_cells
I0712 10:24:07.938846 25232 net.cpp:148] Top shape: 512 2 149 149 (22733824)
I0712 10:24:07.938854 25232 net.cpp:148] Top shape: 512 (512)
I0712 10:24:07.938859 25232 net.cpp:156] Memory required for data: 90937344
I0712 10:24:07.938869 25232 layer_factory.hpp:77] Creating layer conv1
I0712 10:24:07.938902 25232 net.cpp:91] Creating Layer conv1
I0712 10:24:07.938913 25232 net.cpp:425] conv1 <- image
I0712 10:24:07.938926 25232 net.cpp:399] conv1 -> conv1
I0712 10:24:07.947051 25232 net.cpp:141] Setting up conv1
I0712 10:24:07.947064 25232 net.cpp:148] Top shape: 512 15 135 135 (139968000)
I0712 10:24:07.947069 25232 net.cpp:156] Memory required for data: 650809344
I0712 10:24:07.947088 25232 layer_factory.hpp:77] Creating layer pool1
I0712 10:24:07.947098 25232 net.cpp:91] Creating Layer pool1
I0712 10:24:07.947103 25232 net.cpp:425] pool1 <- conv1
I0712 10:24:07.947108 25232 net.cpp:399] pool1 -> pool1
I0712 10:24:07.947149 25232 net.cpp:141] Setting up pool1
I0712 10:24:07.947155 25232 net.cpp:148] Top shape: 512 15 27 27 (5598720)
I0712 10:24:07.947160 25232 net.cpp:156] Memory required for data: 673204224
I0712 10:24:07.947165 25232 layer_factory.hpp:77] Creating layer conv2
I0712 10:24:07.947173 25232 net.cpp:91] Creating Layer conv2
I0712 10:24:07.947178 25232 net.cpp:425] conv2 <- pool1
I0712 10:24:07.947185 25232 net.cpp:399] conv2 -> conv2
I0712 10:24:07.953660 25232 net.cpp:141] Setting up conv2
I0712 10:24:07.953672 25232 net.cpp:148] Top shape: 512 5 21 21 (1128960)
I0712 10:24:07.953677 25232 net.cpp:156] Memory required for data: 677720064
I0712 10:24:07.953685 25232 layer_factory.hpp:77] Creating layer pool2
I0712 10:24:07.953693 25232 net.cpp:91] Creating Layer pool2
I0712 10:24:07.953698 25232 net.cpp:425] pool2 <- conv2
I0712 10:24:07.953703 25232 net.cpp:399] pool2 -> pool2
I0712 10:24:07.953728 25232 net.cpp:141] Setting up pool2
I0712 10:24:07.953735 25232 net.cpp:148] Top shape: 512 5 7 7 (125440)
I0712 10:24:07.953739 25232 net.cpp:156] Memory required for data: 678221824
I0712 10:24:07.953743 25232 layer_factory.hpp:77] Creating layer ip1
I0712 10:24:07.953758 25232 net.cpp:91] Creating Layer ip1
I0712 10:24:07.953763 25232 net.cpp:425] ip1 <- pool2
I0712 10:24:07.953769 25232 net.cpp:399] ip1 -> ip1
I0712 10:24:07.953876 25232 net.cpp:141] Setting up ip1
I0712 10:24:07.953883 25232 net.cpp:148] Top shape: 512 32 (16384)
I0712 10:24:07.953887 25232 net.cpp:156] Memory required for data: 678287360
I0712 10:24:07.953896 25232 layer_factory.hpp:77] Creating layer relu1
I0712 10:24:07.953902 25232 net.cpp:91] Creating Layer relu1
I0712 10:24:07.953907 25232 net.cpp:425] relu1 <- ip1
I0712 10:24:07.953912 25232 net.cpp:386] relu1 -> ip1 (in-place)
I0712 10:24:07.953923 25232 net.cpp:141] Setting up relu1
I0712 10:24:07.953929 25232 net.cpp:148] Top shape: 512 32 (16384)
I0712 10:24:07.953933 25232 net.cpp:156] Memory required for data: 678352896
I0712 10:24:07.953938 25232 layer_factory.hpp:77] Creating layer drop1
I0712 10:24:07.953948 25232 net.cpp:91] Creating Layer drop1
I0712 10:24:07.953953 25232 net.cpp:425] drop1 <- ip1
I0712 10:24:07.953959 25232 net.cpp:386] drop1 -> ip1 (in-place)
I0712 10:24:07.953981 25232 net.cpp:141] Setting up drop1
I0712 10:24:07.953987 25232 net.cpp:148] Top shape: 512 32 (16384)
I0712 10:24:07.953992 25232 net.cpp:156] Memory required for data: 678418432
I0712 10:24:07.953996 25232 layer_factory.hpp:77] Creating layer ip2
I0712 10:24:07.954004 25232 net.cpp:91] Creating Layer ip2
I0712 10:24:07.954008 25232 net.cpp:425] ip2 <- ip1
I0712 10:24:07.954015 25232 net.cpp:399] ip2 -> ip2
I0712 10:24:07.954066 25232 net.cpp:141] Setting up ip2
I0712 10:24:07.954071 25232 net.cpp:148] Top shape: 512 2 (1024)
I0712 10:24:07.954076 25232 net.cpp:156] Memory required for data: 678422528
I0712 10:24:07.954082 25232 layer_factory.hpp:77] Creating layer loss
I0712 10:24:07.954092 25232 net.cpp:91] Creating Layer loss
I0712 10:24:07.954097 25232 net.cpp:425] loss <- ip2
I0712 10:24:07.954102 25232 net.cpp:425] loss <- label
I0712 10:24:07.954108 25232 net.cpp:399] loss -> loss
I0712 10:24:07.954133 25232 layer_factory.hpp:77] Creating layer loss
…
I0712 10:24:07.954646 25232 net.cpp:313] The NetState phase (1) differed from the phase (0) specified by a rule in layer drop1
I0712 10:24:07.954711 25232 net.cpp:49] Initializing net from parameters: 
name: "fish_filter"
state {
  phase: TEST
}
layer {
  name: "testing_cells"
  type: "Python"
  top: "image"
  top: "label"
  include {
    phase: TEST
  }
  python_param {
    module: "fisherman.caffe_layers"
    layer: "DataMapLayer"
    param_str: "{\'tops\': [\'image\', \'label\'], \'data_dir\': \'/home/sam/code/fisherman/data/dense_labelling_k149/\', \'split\': \'test\', \'samples_per_class\': 256, \'kernel\': 149}"
  }
}
layer {
  name: "conv1"
  type: "Convolution"
  bottom: "image"
  top: "conv1"
  param {
    lr_mult: 1
  }
  param {
    lr_mult: 2
  }
  convolution_param {
    num_output: 15
    kernel_size: 15
    stride: 1
    weight_filler {
      type: "xavier"
    }
    bias_filler {
      type: "constant"
    }
  }
}
layer {
  name: "pool1"
  type: "Pooling"
  bottom: "conv1"
  top: "pool1"
  pooling_param {
    pool: MAX
    kernel_size: 5
    stride: 5
  }
}
layer {
  name: "conv2"
  type: "Convolution"
  bottom: "pool1"
  top: "conv2"
  param {
    lr_mult: 1
  }
  param {
    lr_mult: 2
  }
  convolution_param {
    num_output: 5
    kernel_size: 7
    stride: 1
    weight_filler {
      type: "xavier"
    }
    bias_filler {
      type: "constant"
    }
  }
}
layer {
  name: "pool2"
  type: "Pooling"
  bottom: "conv2"
  top: "pool2"
  pooling_param {
    pool: MAX
    kernel_size: 3
    stride: 3
  }
}
layer {
  name: "ip1"
  type: "InnerProduct"
  bottom: "pool2"
  top: "ip1"
  param {
    lr_mult: 1
  }
  param {
    lr_mult: 2
  }
  inner_product_param {
    num_output: 32
    weight_filler {
      type: "xavier"
    }
    bias_filler {
      type: "constant"
    }
  }
}
layer {
  name: "relu1"
  type: "ReLU"
  bottom: "ip1"
  top: "ip1"
}
layer {
  name: "ip2"
  type: "InnerProduct"
  bottom: "ip1"
  top: "ip2"
  param {
    lr_mult: 1
  }
  param {
    lr_mult: 2
  }
  inner_product_param {
    num_output: 2
    weight_filler {
      type: "xavier"
    }
    bias_filler {
      type: "constant"
    }
  }
}
layer {
  name: "accuracy"
  type: "Accuracy"
  bottom: "ip2"
  bottom: "label"
  top: "accuracy"
  include {
    phase: TEST
  }
}
layer {
  name: "loss"
  type: "SoftmaxWithLoss"
  bottom: "ip2"
  bottom: "label"
  top: "loss"
}
I0712 10:24:07.955032 25232 layer_factory.hpp:77] Creating layer testing_cells
I0712 10:24:07.955071 25232 net.cpp:91] Creating Layer testing_cells
I0712 10:24:07.955080 25232 net.cpp:399] testing_cells -> image
I0712 10:24:07.955111 25232 net.cpp:399] testing_cells -> label
I0712 10:24:54.863880 25232 net.cpp:141] Setting up testing_cells
I0712 10:24:54.863968 25232 net.cpp:148] Top shape: 512 2 149 149 (22733824)
I0712 10:24:54.863979 25232 net.cpp:148] Top shape: 512 (512)
I0712 10:24:54.863986 25232 net.cpp:156] Memory required for data: 90937344
I0712 10:24:54.863996 25232 layer_factory.hpp:77] Creating layer label_testing_cells_1_split
I0712 10:24:54.866091 25232 net.cpp:91] Creating Layer label_testing_cells_1_split
I0712 10:24:54.866104 25232 net.cpp:425] label_testing_cells_1_split <- label
I0712 10:24:54.866117 25232 net.cpp:399] label_testing_cells_1_split -> label_testing_cells_1_split_0
I0712 10:24:54.866133 25232 net.cpp:399] label_testing_cells_1_split -> label_testing_cells_1_split_1
I0712 10:24:54.866292 25232 net.cpp:141] Setting up label_testing_cells_1_split
I0712 10:24:54.866307 25232 net.cpp:148] Top shape: 512 (512)
I0712 10:24:54.866317 25232 net.cpp:148] Top shape: 512 (512)
I0712 10:24:54.866324 25232 net.cpp:156] Memory required for data: 90941440
I0712 10:24:54.866331 25232 layer_factory.hpp:77] Creating layer conv1
I0712 10:24:54.866353 25232 net.cpp:91] Creating Layer conv1
I0712 10:24:54.866361 25232 net.cpp:425] conv1 <- image
I0712 10:24:54.866374 25232 net.cpp:399] conv1 -> conv1
I0712 10:24:54.866629 25232 net.cpp:141] Setting up conv1
I0712 10:24:54.866643 25232 net.cpp:148] Top shape: 512 15 135 135 (139968000)
I0712 10:24:54.866652 25232 net.cpp:156] Memory required for data: 650813440
I0712 10:24:54.866669 25232 layer_factory.hpp:77] Creating layer pool1
I0712 10:24:54.866683 25232 net.cpp:91] Creating Layer pool1
I0712 10:24:54.866691 25232 net.cpp:425] pool1 <- conv1
I0712 10:24:54.866701 25232 net.cpp:399] pool1 -> pool1
I0712 10:24:54.866739 25232 net.cpp:141] Setting up pool1
I0712 10:24:54.866749 25232 net.cpp:148] Top shape: 512 15 27 27 (5598720)
I0712 10:24:54.866755 25232 net.cpp:156] Memory required for data: 673208320
I0712 10:24:54.866763 25232 layer_factory.hpp:77] Creating layer conv2
I0712 10:24:54.866777 25232 net.cpp:91] Creating Layer conv2
I0712 10:24:54.866785 25232 net.cpp:425] conv2 <- pool1
I0712 10:24:54.866796 25232 net.cpp:399] conv2 -> conv2
I0712 10:24:54.867004 25232 net.cpp:141] Setting up conv2
I0712 10:24:54.867017 25232 net.cpp:148] Top shape: 512 5 21 21 (1128960)
I0712 10:24:54.867024 25232 net.cpp:156] Memory required for data: 677724160
I0712 10:24:54.867038 25232 layer_factory.hpp:77] Creating layer pool2
I0712 10:24:54.867048 25232 net.cpp:91] Creating Layer pool2
I0712 10:24:54.867055 25232 net.cpp:425] pool2 <- conv2
I0712 10:24:54.867064 25232 net.cpp:399] pool2 -> pool2
I0712 10:24:54.867100 25232 net.cpp:141] Setting up pool2
I0712 10:24:54.867112 25232 net.cpp:148] Top shape: 512 5 7 7 (125440)
I0712 10:24:54.867120 25232 net.cpp:156] Memory required for data: 678225920
I0712 10:24:54.867127 25232 layer_factory.hpp:77] Creating layer ip1
I0712 10:24:54.867139 25232 net.cpp:91] Creating Layer ip1
I0712 10:24:54.867146 25232 net.cpp:425] ip1 <- pool2
I0712 10:24:54.867156 25232 net.cpp:399] ip1 -> ip1
I0712 10:24:54.867298 25232 net.cpp:141] Setting up ip1
I0712 10:24:54.867310 25232 net.cpp:148] Top shape: 512 32 (16384)
I0712 10:24:54.867317 25232 net.cpp:156] Memory required for data: 678291456
I0712 10:24:54.867331 25232 layer_factory.hpp:77] Creating layer relu1
I0712 10:24:54.867341 25232 net.cpp:91] Creating Layer relu1
I0712 10:24:54.867349 25232 net.cpp:425] relu1 <- ip1
I0712 10:24:54.867358 25232 net.cpp:386] relu1 -> ip1 (in-place)
I0712 10:24:54.867368 25232 net.cpp:141] Setting up relu1
I0712 10:24:54.867375 25232 net.cpp:148] Top shape: 512 32 (16384)
I0712 10:24:54.867382 25232 net.cpp:156] Memory required for data: 678356992
I0712 10:24:54.867388 25232 layer_factory.hpp:77] Creating layer ip2
I0712 10:24:54.867398 25232 net.cpp:91] Creating Layer ip2
I0712 10:24:54.867404 25232 net.cpp:425] ip2 <- ip1
I0712 10:24:54.867414 25232 net.cpp:399] ip2 -> ip2
I0712 10:24:54.867492 25232 net.cpp:141] Setting up ip2
I0712 10:24:54.867502 25232 net.cpp:148] Top shape: 512 2 (1024)
I0712 10:24:54.867509 25232 net.cpp:156] Memory required for data: 678361088
I0712 10:24:54.867519 25232 layer_factory.hpp:77] Creating layer ip2_ip2_0_split
I0712 10:24:54.867558 25232 net.cpp:91] Creating Layer ip2_ip2_0_split
I0712 10:24:54.867566 25232 net.cpp:425] ip2_ip2_0_split <- ip2
I0712 10:24:54.867575 25232 net.cpp:399] ip2_ip2_0_split -> ip2_ip2_0_split_0
I0712 10:24:54.867588 25232 net.cpp:399] ip2_ip2_0_split -> ip2_ip2_0_split_1
I0712 10:24:54.867622 25232 net.cpp:141] Setting up ip2_ip2_0_split
I0712 10:24:54.867633 25232 net.cpp:148] Top shape: 512 2 (1024)
I0712 10:24:54.867642 25232 net.cpp:148] Top shape: 512 2 (1024)
I0712 10:24:54.867650 25232 net.cpp:156] Memory required for data: 678369280
I0712 10:24:54.867656 25232 layer_factory.hpp:77] Creating layer accuracy
I0712 10:24:54.867807 25232 net.cpp:91] Creating Layer accuracy
I0712 10:24:54.867820 25232 net.cpp:425] accuracy <- ip2_ip2_0_split_0
I0712 10:24:54.867828 25232 net.cpp:425] accuracy <- label_testing_cells_1_split_0
I0712 10:24:54.867837 25232 net.cpp:399] accuracy -> accuracy
…
