…
I0705 14:29:45.136593 29545 net.cpp:49] Initializing net from parameters: 
name: "fish_filter"
state {
  phase: TRAIN
}
layer {
  name: "training_cells"
  type: "Python"
  top: "image"
  top: "label"
  include {
    phase: TRAIN
  }
  python_param {
    module: "fisherman.caffe_layers"
    layer: "ChunkingFishFovDataLayer"
    param_str: "{\'tops\': [\'image\', \'label\'], \'seed\': 1337, \'data_dir\': \'/home/sam/code/fisherman/data/dense_labelling_same_res/\', \'split\': \'train\', \'n_samples\': 20, \'chunker_params\': {\'chunk_size\': 254, \'window_size\': 1}}"
  }
}
layer {
  name: "conv1"
  type: "Convolution"
  bottom: "image"
  top: "conv1"
  param {
    lr_mult: 1
  }
  param {
    lr_mult: 2
  }
  convolution_param {
    num_output: 15
    kernel_size: 15
    stride: 1
    weight_filler {
      type: "xavier"
    }
    bias_filler {
      type: "constant"
    }
  }
}
layer {
  name: "pool1"
  type: "Pooling"
  bottom: "conv1"
  top: "pool1"
  pooling_param {
    pool: MAX
    kernel_size: 5
    stride: 5
  }
}
layer {
  name: "conv2"
  type: "Convolution"
  bottom: "pool1"
  top: "conv2"
  param {
    lr_mult: 1
  }
  param {
    lr_mult: 2
  }
  convolution_param {
    num_output: 5
    kernel_size: 7
    stride: 1
    weight_filler {
      type: "xavier"
    }
    bias_filler {
      type: "constant"
    }
  }
}
layer {
  name: "pool2"
  type: "Pooling"
  bottom: "conv2"
  top: "pool2"
  pooling_param {
    pool: MAX
    kernel_size: 3
    stride: 3
  }
}
layer {
  name: "ip_conv1"
  type: "Convolution"
  bottom: "pool2"
  top: "ip_conv_1"
  param {
    lr_mult: 1
  }
  param {
    lr_mult: 2
  }
  convolution_param {
    num_output: 32
    kernel_size: 7
    stride: 1
    weight_filler {
      type: "xavier"
    }
    bias_filler {
      type: "constant"
    }
  }
}
layer {
  name: "relu1"
  type: "ReLU"
  bottom: "ip_conv_1"
  top: "ip_conv_1"
}
layer {
  name: "drop1"
  type: "Dropout"
  bottom: "ip_conv_1"
  top: "ip_conv_1"
  dropout_param {
    dropout_ratio: 0.5
  }
}
layer {
  name: "ip_conv2"
  type: "Convolution"
  bottom: "ip_conv_1"
  top: "ip_conv2"
  param {
    lr_mult: 1
  }
  param {
    lr_mult: 2
  }
  convolution_param {
    num_output: 2
    kernel_size: 1
    stride: 1
    weight_filler {
      type: "xavier"
    }
    bias_filler {
      type: "constant"
    }
  }
}
layer {
  name: "upsample"
  type: "Deconvolution"
  bottom: "ip_conv2"
  top: "upsample"
  param {
    lr_mult: 1
  }
  convolution_param {
    num_output: 2
    bias_term: false
    kernel_size: 149
    stride: 15
  }
}
layer {
  name: "loss"
  type: "InfogainSoftmaxLoss"
  bottom: "upsample"
  bottom: "label"
  top: "loss"
  loss_param {
    normalize: true
  }
  infogain_loss_param {
    source: "/home/sam/code/fisherman/infogainH.binaryproto"
  }
  softmax_param {
    axis: 1
  }
}
I0705 14:29:45.136934 29545 layer_factory.hpp:77] Creating layer training_cells
I0705 14:29:45.929180 29545 net.cpp:91] Creating Layer training_cells
I0705 14:29:45.929236 29545 net.cpp:399] training_cells -> image
I0705 14:29:45.929256 29545 net.cpp:399] training_cells -> label
I0705 14:29:46.048162 29545 net.cpp:141] Setting up training_cells
I0705 14:29:46.048199 29545 net.cpp:148] Top shape: 20 2 254 254 (2580640)
I0705 14:29:46.048269 29545 net.cpp:148] Top shape: 20 1 254 254 (1290320)
I0705 14:29:46.048275 29545 net.cpp:156] Memory required for data: 15483840
I0705 14:29:46.048288 29545 layer_factory.hpp:77] Creating layer conv1
I0705 14:29:46.048312 29545 net.cpp:91] Creating Layer conv1
I0705 14:29:46.048321 29545 net.cpp:425] conv1 <- image
I0705 14:29:46.048336 29545 net.cpp:399] conv1 -> conv1
I0705 14:29:46.049648 29545 net.cpp:141] Setting up conv1
I0705 14:29:46.049675 29545 net.cpp:148] Top shape: 20 15 240 240 (17280000)
I0705 14:29:46.049680 29545 net.cpp:156] Memory required for data: 84603840
I0705 14:29:46.049695 29545 layer_factory.hpp:77] Creating layer pool1
I0705 14:29:46.049708 29545 net.cpp:91] Creating Layer pool1
I0705 14:29:46.049713 29545 net.cpp:425] pool1 <- conv1
I0705 14:29:46.049721 29545 net.cpp:399] pool1 -> pool1
I0705 14:29:46.049760 29545 net.cpp:141] Setting up pool1
I0705 14:29:46.049768 29545 net.cpp:148] Top shape: 20 15 48 48 (691200)
I0705 14:29:46.049772 29545 net.cpp:156] Memory required for data: 87368640
I0705 14:29:46.049777 29545 layer_factory.hpp:77] Creating layer conv2
I0705 14:29:46.049787 29545 net.cpp:91] Creating Layer conv2
I0705 14:29:46.049793 29545 net.cpp:425] conv2 <- pool1
I0705 14:29:46.049799 29545 net.cpp:399] conv2 -> conv2
I0705 14:29:46.050300 29545 net.cpp:141] Setting up conv2
I0705 14:29:46.050314 29545 net.cpp:148] Top shape: 20 5 42 42 (176400)
I0705 14:29:46.050319 29545 net.cpp:156] Memory required for data: 88074240
I0705 14:29:46.050329 29545 layer_factory.hpp:77] Creating layer pool2
I0705 14:29:46.050338 29545 net.cpp:91] Creating Layer pool2
I0705 14:29:46.050343 29545 net.cpp:425] pool2 <- conv2
I0705 14:29:46.050349 29545 net.cpp:399] pool2 -> pool2
I0705 14:29:46.050375 29545 net.cpp:141] Setting up pool2
I0705 14:29:46.050382 29545 net.cpp:148] Top shape: 20 5 14 14 (19600)
I0705 14:29:46.050386 29545 net.cpp:156] Memory required for data: 88152640
I0705 14:29:46.050390 29545 layer_factory.hpp:77] Creating layer ip_conv1
I0705 14:29:46.050400 29545 net.cpp:91] Creating Layer ip_conv1
I0705 14:29:46.050405 29545 net.cpp:425] ip_conv1 <- pool2
I0705 14:29:46.050412 29545 net.cpp:399] ip_conv1 -> ip_conv_1
I0705 14:29:46.050611 29545 net.cpp:141] Setting up ip_conv1
I0705 14:29:46.050619 29545 net.cpp:148] Top shape: 20 32 8 8 (40960)
I0705 14:29:46.050623 29545 net.cpp:156] Memory required for data: 88316480
I0705 14:29:46.050631 29545 layer_factory.hpp:77] Creating layer relu1
I0705 14:29:46.050639 29545 net.cpp:91] Creating Layer relu1
I0705 14:29:46.050644 29545 net.cpp:425] relu1 <- ip_conv_1
I0705 14:29:46.050649 29545 net.cpp:386] relu1 -> ip_conv_1 (in-place)
I0705 14:29:46.050658 29545 net.cpp:141] Setting up relu1
I0705 14:29:46.050663 29545 net.cpp:148] Top shape: 20 32 8 8 (40960)
I0705 14:29:46.050668 29545 net.cpp:156] Memory required for data: 88480320
I0705 14:29:46.050673 29545 layer_factory.hpp:77] Creating layer drop1
I0705 14:29:46.050681 29545 net.cpp:91] Creating Layer drop1
I0705 14:29:46.050686 29545 net.cpp:425] drop1 <- ip_conv_1
I0705 14:29:46.050693 29545 net.cpp:386] drop1 -> ip_conv_1 (in-place)
I0705 14:29:46.050709 29545 net.cpp:141] Setting up drop1
I0705 14:29:46.050715 29545 net.cpp:148] Top shape: 20 32 8 8 (40960)
I0705 14:29:46.050720 29545 net.cpp:156] Memory required for data: 88644160
I0705 14:29:46.050724 29545 layer_factory.hpp:77] Creating layer ip_conv2
I0705 14:29:46.050734 29545 net.cpp:91] Creating Layer ip_conv2
I0705 14:29:46.050740 29545 net.cpp:425] ip_conv2 <- ip_conv_1
I0705 14:29:46.050746 29545 net.cpp:399] ip_conv2 -> ip_conv2
I0705 14:29:46.050874 29545 net.cpp:141] Setting up ip_conv2
I0705 14:29:46.050881 29545 net.cpp:148] Top shape: 20 2 8 8 (2560)
I0705 14:29:46.050885 29545 net.cpp:156] Memory required for data: 88654400
I0705 14:29:46.050892 29545 layer_factory.hpp:77] Creating layer upsample
I0705 14:29:46.050901 29545 net.cpp:91] Creating Layer upsample
I0705 14:29:46.050906 29545 net.cpp:425] upsample <- ip_conv2
I0705 14:29:46.050914 29545 net.cpp:399] upsample -> upsample
I0705 14:29:46.051450 29545 net.cpp:141] Setting up upsample
I0705 14:29:46.051463 29545 net.cpp:148] Top shape: 20 2 254 254 (2580640)
I0705 14:29:46.051468 29545 net.cpp:156] Memory required for data: 98976960
I0705 14:29:46.051476 29545 layer_factory.hpp:77] Creating layer loss
I0705 14:29:46.051487 29545 net.cpp:91] Creating Layer loss
I0705 14:29:46.051492 29545 net.cpp:425] loss <- upsample
I0705 14:29:46.051497 29545 net.cpp:425] loss <- label
I0705 14:29:46.051504 29545 net.cpp:399] loss -> loss
I0705 14:29:46.051519 29545 layer_factory.hpp:77] Creating layer loss
…
I0705 14:29:46.057646 29545 net.cpp:49] Initializing net from parameters: 
name: "fish_filter"
state {
  phase: TEST
}
layer {
  name: "testing_cells"
  type: "Python"
  top: "image"
  top: "label"
  include {
    phase: TEST
  }
  python_param {
    module: "fisherman.caffe_layers"
    layer: "ChunkingFishFovDataLayer"
    param_str: "{\'tops\': [\'image\', \'label\'], \'seed\': 1337, \'data_dir\': \'/home/sam/code/fisherman/data/dense_labelling_same_res/\', \'split\': \'test\', \'n_samples\': 5, \'chunker_params\': {\'chunk_size\': 254, \'window_size\': 1}}"
  }
}
layer {
  name: "conv1"
  type: "Convolution"
  bottom: "image"
  top: "conv1"
  param {
    lr_mult: 1
  }
  param {
    lr_mult: 2
  }
  convolution_param {
    num_output: 15
    kernel_size: 15
    stride: 1
    weight_filler {
      type: "xavier"
    }
    bias_filler {
      type: "constant"
    }
  }
}
layer {
  name: "pool1"
  type: "Pooling"
  bottom: "conv1"
  top: "pool1"
  pooling_param {
    pool: MAX
    kernel_size: 5
    stride: 5
  }
}
layer {
  name: "conv2"
  type: "Convolution"
  bottom: "pool1"
  top: "conv2"
  param {
    lr_mult: 1
  }
  param {
    lr_mult: 2
  }
  convolution_param {
    num_output: 5
    kernel_size: 7
    stride: 1
    weight_filler {
      type: "xavier"
    }
    bias_filler {
      type: "constant"
    }
  }
}
layer {
  name: "pool2"
  type: "Pooling"
  bottom: "conv2"
  top: "pool2"
  pooling_param {
    pool: MAX
    kernel_size: 3
    stride: 3
  }
}
layer {
  name: "ip_conv1"
  type: "Convolution"
  bottom: "pool2"
  top: "ip_conv_1"
  param {
    lr_mult: 1
  }
  param {
    lr_mult: 2
  }
  convolution_param {
    num_output: 32
    kernel_size: 7
    stride: 1
    weight_filler {
      type: "xavier"
    }
    bias_filler {
      type: "constant"
    }
  }
}
layer {
  name: "relu1"
  type: "ReLU"
  bottom: "ip_conv_1"
  top: "ip_conv_1"
}
layer {
  name: "drop1"
  type: "Dropout"
  bottom: "ip_conv_1"
  top: "ip_conv_1"
  dropout_param {
    dropout_ratio: 0.5
  }
}
layer {
  name: "ip_conv2"
  type: "Convolution"
  bottom: "ip_conv_1"
  top: "ip_conv2"
  param {
    lr_mult: 1
  }
  param {
    lr_mult: 2
  }
  convolution_param {
    num_output: 2
    kernel_size: 1
    stride: 1
    weight_filler {
      type: "xavier"
    }
    bias_filler {
      type: "constant"
    }
  }
}
layer {
  name: "upsample"
  type: "Deconvolution"
  bottom: "ip_conv2"
  top: "upsample"
  param {
    lr_mult: 1
  }
  convolution_param {
    num_output: 2
    bias_term: false
    kernel_size: 149
    stride: 15
  }
}
layer {
  name: "accuracy"
  type: "Accuracy"
  bottom: "upsample"
  bottom: "label"
  top: "accuracy"
  include {
    phase: TEST
  }
}
layer {
  name: "loss"
  type: "InfogainSoftmaxLoss"
  bottom: "upsample"
  bottom: "label"
  top: "loss"
  loss_param {
    normalize: true
  }
  infogain_loss_param {
    source: "/home/sam/code/fisherman/infogainH.binaryproto"
  }
  softmax_param {
    axis: 1
  }
}
I0705 14:29:46.058071 29545 layer_factory.hpp:77] Creating layer testing_cells
I0705 14:29:46.058125 29545 net.cpp:91] Creating Layer testing_cells
I0705 14:29:46.058135 29545 net.cpp:399] testing_cells -> image
I0705 14:29:46.058145 29545 net.cpp:399] testing_cells -> label
I0705 14:29:46.085492 29545 net.cpp:141] Setting up testing_cells
I0705 14:29:46.085536 29545 net.cpp:148] Top shape: 5 2 254 254 (645160)
I0705 14:29:46.085544 29545 net.cpp:148] Top shape: 5 1 254 254 (322580)
I0705 14:29:46.085548 29545 net.cpp:156] Memory required for data: 3870960
I0705 14:29:46.085557 29545 layer_factory.hpp:77] Creating layer label_testing_cells_1_split
I0705 14:29:46.085573 29545 net.cpp:91] Creating Layer label_testing_cells_1_split
I0705 14:29:46.085579 29545 net.cpp:425] label_testing_cells_1_split <- label
I0705 14:29:46.085587 29545 net.cpp:399] label_testing_cells_1_split -> label_testing_cells_1_split_0
I0705 14:29:46.085597 29545 net.cpp:399] label_testing_cells_1_split -> label_testing_cells_1_split_1
I0705 14:29:46.085623 29545 net.cpp:141] Setting up label_testing_cells_1_split
I0705 14:29:46.085629 29545 net.cpp:148] Top shape: 5 1 254 254 (322580)
I0705 14:29:46.085634 29545 net.cpp:148] Top shape: 5 1 254 254 (322580)
I0705 14:29:46.085639 29545 net.cpp:156] Memory required for data: 6451600
I0705 14:29:46.085644 29545 layer_factory.hpp:77] Creating layer conv1
I0705 14:29:46.085656 29545 net.cpp:91] Creating Layer conv1
I0705 14:29:46.085661 29545 net.cpp:425] conv1 <- image
I0705 14:29:46.085667 29545 net.cpp:399] conv1 -> conv1
I0705 14:29:46.085885 29545 net.cpp:141] Setting up conv1
I0705 14:29:46.085906 29545 net.cpp:148] Top shape: 5 15 240 240 (4320000)
I0705 14:29:46.085911 29545 net.cpp:156] Memory required for data: 23731600
I0705 14:29:46.085932 29545 layer_factory.hpp:77] Creating layer pool1
I0705 14:29:46.085939 29545 net.cpp:91] Creating Layer pool1
I0705 14:29:46.085944 29545 net.cpp:425] pool1 <- conv1
I0705 14:29:46.085950 29545 net.cpp:399] pool1 -> pool1
I0705 14:29:46.085984 29545 net.cpp:141] Setting up pool1
I0705 14:29:46.085991 29545 net.cpp:148] Top shape: 5 15 48 48 (172800)
I0705 14:29:46.085995 29545 net.cpp:156] Memory required for data: 24422800
I0705 14:29:46.085999 29545 layer_factory.hpp:77] Creating layer conv2
I0705 14:29:46.086009 29545 net.cpp:91] Creating Layer conv2
I0705 14:29:46.086014 29545 net.cpp:425] conv2 <- pool1
I0705 14:29:46.086019 29545 net.cpp:399] conv2 -> conv2
I0705 14:29:46.086179 29545 net.cpp:141] Setting up conv2
I0705 14:29:46.086187 29545 net.cpp:148] Top shape: 5 5 42 42 (44100)
I0705 14:29:46.086192 29545 net.cpp:156] Memory required for data: 24599200
I0705 14:29:46.086200 29545 layer_factory.hpp:77] Creating layer pool2
I0705 14:29:46.086206 29545 net.cpp:91] Creating Layer pool2
I0705 14:29:46.086220 29545 net.cpp:425] pool2 <- conv2
I0705 14:29:46.086226 29545 net.cpp:399] pool2 -> pool2
I0705 14:29:46.086249 29545 net.cpp:141] Setting up pool2
I0705 14:29:46.086256 29545 net.cpp:148] Top shape: 5 5 14 14 (4900)
I0705 14:29:46.086259 29545 net.cpp:156] Memory required for data: 24618800
I0705 14:29:46.086318 29545 layer_factory.hpp:77] Creating layer ip_conv1
I0705 14:29:46.086328 29545 net.cpp:91] Creating Layer ip_conv1
I0705 14:29:46.086333 29545 net.cpp:425] ip_conv1 <- pool2
I0705 14:29:46.086338 29545 net.cpp:399] ip_conv1 -> ip_conv_1
I0705 14:29:46.086552 29545 net.cpp:141] Setting up ip_conv1
I0705 14:29:46.086561 29545 net.cpp:148] Top shape: 5 32 8 8 (10240)
I0705 14:29:46.086566 29545 net.cpp:156] Memory required for data: 24659760
I0705 14:29:46.086575 29545 layer_factory.hpp:77] Creating layer relu1
I0705 14:29:46.086581 29545 net.cpp:91] Creating Layer relu1
I0705 14:29:46.086585 29545 net.cpp:425] relu1 <- ip_conv_1
I0705 14:29:46.086591 29545 net.cpp:386] relu1 -> ip_conv_1 (in-place)
I0705 14:29:46.086597 29545 net.cpp:141] Setting up relu1
I0705 14:29:46.086603 29545 net.cpp:148] Top shape: 5 32 8 8 (10240)
I0705 14:29:46.086607 29545 net.cpp:156] Memory required for data: 24700720
I0705 14:29:46.086611 29545 layer_factory.hpp:77] Creating layer drop1
I0705 14:29:46.086619 29545 net.cpp:91] Creating Layer drop1
I0705 14:29:46.086623 29545 net.cpp:425] drop1 <- ip_conv_1
I0705 14:29:46.086629 29545 net.cpp:386] drop1 -> ip_conv_1 (in-place)
I0705 14:29:46.086645 29545 net.cpp:141] Setting up drop1
I0705 14:29:46.086652 29545 net.cpp:148] Top shape: 5 32 8 8 (10240)
I0705 14:29:46.086655 29545 net.cpp:156] Memory required for data: 24741680
I0705 14:29:46.086660 29545 layer_factory.hpp:77] Creating layer ip_conv2
I0705 14:29:46.086668 29545 net.cpp:91] Creating Layer ip_conv2
I0705 14:29:46.086673 29545 net.cpp:425] ip_conv2 <- ip_conv_1
I0705 14:29:46.086678 29545 net.cpp:399] ip_conv2 -> ip_conv2
I0705 14:29:46.086803 29545 net.cpp:141] Setting up ip_conv2
I0705 14:29:46.086810 29545 net.cpp:148] Top shape: 5 2 8 8 (640)
I0705 14:29:46.086814 29545 net.cpp:156] Memory required for data: 24744240
I0705 14:29:46.086822 29545 layer_factory.hpp:77] Creating layer upsample
I0705 14:29:46.086828 29545 net.cpp:91] Creating Layer upsample
I0705 14:29:46.086833 29545 net.cpp:425] upsample <- ip_conv2
I0705 14:29:46.086839 29545 net.cpp:399] upsample -> upsample
I0705 14:29:46.087002 29545 net.cpp:141] Setting up upsample
I0705 14:29:46.087009 29545 net.cpp:148] Top shape: 5 2 254 254 (645160)
I0705 14:29:46.087014 29545 net.cpp:156] Memory required for data: 27324880
I0705 14:29:46.087021 29545 layer_factory.hpp:77] Creating layer upsample_upsample_0_split
I0705 14:29:46.087028 29545 net.cpp:91] Creating Layer upsample_upsample_0_split
I0705 14:29:46.087033 29545 net.cpp:425] upsample_upsample_0_split <- upsample
I0705 14:29:46.087038 29545 net.cpp:399] upsample_upsample_0_split -> upsample_upsample_0_split_0
I0705 14:29:46.087044 29545 net.cpp:399] upsample_upsample_0_split -> upsample_upsample_0_split_1
I0705 14:29:46.087066 29545 net.cpp:141] Setting up upsample_upsample_0_split
I0705 14:29:46.087072 29545 net.cpp:148] Top shape: 5 2 254 254 (645160)
I0705 14:29:46.087079 29545 net.cpp:148] Top shape: 5 2 254 254 (645160)
I0705 14:29:46.087082 29545 net.cpp:156] Memory required for data: 32486160
I0705 14:29:46.087086 29545 layer_factory.hpp:77] Creating layer accuracy
I0705 14:29:46.087095 29545 net.cpp:91] Creating Layer accuracy
I0705 14:29:46.087100 29545 net.cpp:425] accuracy <- upsample_upsample_0_split_0
I0705 14:29:46.087105 29545 net.cpp:425] accuracy <- label_testing_cells_1_split_0
I0705 14:29:46.087111 29545 net.cpp:399] accuracy -> accuracy
…
