…
I0707 09:39:20.766597  1460 net.cpp:313] The NetState phase (0) differed from the phase (1) specified by a rule in layer accuracy
I0707 09:39:20.766669  1460 net.cpp:49] Initializing net from parameters: 
name: "fish_filter"
state {
  phase: TRAIN
}
layer {
  name: "training_cells"
  type: "Python"
  top: "image"
  top: "label"
  include {
    phase: TRAIN
  }
  python_param {
    module: "fisherman.caffe_layers"
    layer: "DataMapLayer"
    param_str: "{\'tops\': [\'image\', \'label\'], \'data_dir\': \'/home/sam/code/fisherman/data/dense_labelling_k149/\', \'split\': \'train\', \'samples_per_class\': 256, \'kernel\': 149}"
  }
}
layer {
  name: "conv1"
  type: "Convolution"
  bottom: "image"
  top: "conv1"
  param {
    lr_mult: 1
  }
  param {
    lr_mult: 2
  }
  convolution_param {
    num_output: 15
    kernel_size: 15
    stride: 1
    weight_filler {
      type: "xavier"
    }
    bias_filler {
      type: "constant"
    }
  }
}
layer {
  name: "pool1"
  type: "Pooling"
  bottom: "conv1"
  top: "pool1"
  pooling_param {
    pool: MAX
    kernel_size: 5
    stride: 5
  }
}
layer {
  name: "conv2"
  type: "Convolution"
  bottom: "pool1"
  top: "conv2"
  param {
    lr_mult: 1
  }
  param {
    lr_mult: 2
  }
  convolution_param {
    num_output: 5
    kernel_size: 7
    stride: 1
    weight_filler {
      type: "xavier"
    }
    bias_filler {
      type: "constant"
    }
  }
}
layer {
  name: "pool2"
  type: "Pooling"
  bottom: "conv2"
  top: "pool2"
  pooling_param {
    pool: MAX
    kernel_size: 3
    stride: 3
  }
}
layer {
  name: "ip1"
  type: "InnerProduct"
  bottom: "pool2"
  top: "ip1"
  param {
    lr_mult: 1
  }
  param {
    lr_mult: 2
  }
  inner_product_param {
    num_output: 32
    weight_filler {
      type: "xavier"
    }
    bias_filler {
      type: "constant"
    }
  }
}
layer {
  name: "relu1"
  type: "ReLU"
  bottom: "ip1"
  top: "ip1"
}
layer {
  name: "drop1"
  type: "Dropout"
  bottom: "ip1"
  top: "ip1"
  include {
    phase: TRAIN
  }
  dropout_param {
    dropout_ratio: 0.5
  }
}
layer {
  name: "ip2"
  type: "InnerProduct"
  bottom: "ip1"
  top: "ip2"
  param {
    lr_mult: 1
  }
  param {
    lr_mult: 2
  }
  inner_product_param {
    num_output: 2
    weight_filler {
      type: "xavier"
    }
    bias_filler {
      type: "constant"
    }
  }
}
layer {
  name: "loss"
  type: "SoftmaxWithLoss"
  bottom: "ip2"
  bottom: "label"
  top: "loss"
}
I0707 09:39:20.766968  1460 layer_factory.hpp:77] Creating layer training_cells
I0707 09:39:21.527240  1460 net.cpp:91] Creating Layer training_cells
I0707 09:39:21.528967  1460 net.cpp:399] training_cells -> image
I0707 09:39:21.528996  1460 net.cpp:399] training_cells -> label
I0707 09:41:01.423861  1460 net.cpp:141] Setting up training_cells
I0707 09:41:01.423938  1460 net.cpp:148] Top shape: 512 2 149 149 (22733824)
I0707 09:41:01.423949  1460 net.cpp:148] Top shape: 512 (512)
I0707 09:41:01.423954  1460 net.cpp:156] Memory required for data: 90937344
I0707 09:41:01.423964  1460 layer_factory.hpp:77] Creating layer conv1
I0707 09:41:01.423985  1460 net.cpp:91] Creating Layer conv1
I0707 09:41:01.423991  1460 net.cpp:425] conv1 <- image
I0707 09:41:01.424002  1460 net.cpp:399] conv1 -> conv1
I0707 09:41:01.426524  1460 net.cpp:141] Setting up conv1
I0707 09:41:01.426539  1460 net.cpp:148] Top shape: 512 15 135 135 (139968000)
I0707 09:41:01.426545  1460 net.cpp:156] Memory required for data: 650809344
I0707 09:41:01.426559  1460 layer_factory.hpp:77] Creating layer pool1
I0707 09:41:01.426568  1460 net.cpp:91] Creating Layer pool1
I0707 09:41:01.426573  1460 net.cpp:425] pool1 <- conv1
I0707 09:41:01.426578  1460 net.cpp:399] pool1 -> pool1
I0707 09:41:01.426614  1460 net.cpp:141] Setting up pool1
I0707 09:41:01.426620  1460 net.cpp:148] Top shape: 512 15 27 27 (5598720)
I0707 09:41:01.426625  1460 net.cpp:156] Memory required for data: 673204224
I0707 09:41:01.426630  1460 layer_factory.hpp:77] Creating layer conv2
I0707 09:41:01.426637  1460 net.cpp:91] Creating Layer conv2
I0707 09:41:01.426642  1460 net.cpp:425] conv2 <- pool1
I0707 09:41:01.426648  1460 net.cpp:399] conv2 -> conv2
I0707 09:41:01.427392  1460 net.cpp:141] Setting up conv2
I0707 09:41:01.427407  1460 net.cpp:148] Top shape: 512 5 21 21 (1128960)
I0707 09:41:01.427412  1460 net.cpp:156] Memory required for data: 677720064
I0707 09:41:01.427420  1460 layer_factory.hpp:77] Creating layer pool2
I0707 09:41:01.427428  1460 net.cpp:91] Creating Layer pool2
I0707 09:41:01.427443  1460 net.cpp:425] pool2 <- conv2
I0707 09:41:01.427449  1460 net.cpp:399] pool2 -> pool2
I0707 09:41:01.427476  1460 net.cpp:141] Setting up pool2
I0707 09:41:01.427484  1460 net.cpp:148] Top shape: 512 5 7 7 (125440)
I0707 09:41:01.427487  1460 net.cpp:156] Memory required for data: 678221824
I0707 09:41:01.427492  1460 layer_factory.hpp:77] Creating layer ip1
I0707 09:41:01.427500  1460 net.cpp:91] Creating Layer ip1
I0707 09:41:01.427505  1460 net.cpp:425] ip1 <- pool2
I0707 09:41:01.427511  1460 net.cpp:399] ip1 -> ip1
I0707 09:41:01.427620  1460 net.cpp:141] Setting up ip1
I0707 09:41:01.427628  1460 net.cpp:148] Top shape: 512 32 (16384)
I0707 09:41:01.427634  1460 net.cpp:156] Memory required for data: 678287360
I0707 09:41:01.427640  1460 layer_factory.hpp:77] Creating layer relu1
I0707 09:41:01.427647  1460 net.cpp:91] Creating Layer relu1
I0707 09:41:01.427652  1460 net.cpp:425] relu1 <- ip1
I0707 09:41:01.427657  1460 net.cpp:386] relu1 -> ip1 (in-place)
I0707 09:41:01.427665  1460 net.cpp:141] Setting up relu1
I0707 09:41:01.427670  1460 net.cpp:148] Top shape: 512 32 (16384)
I0707 09:41:01.427675  1460 net.cpp:156] Memory required for data: 678352896
I0707 09:41:01.427678  1460 layer_factory.hpp:77] Creating layer drop1
I0707 09:41:01.427693  1460 net.cpp:91] Creating Layer drop1
I0707 09:41:01.427698  1460 net.cpp:425] drop1 <- ip1
I0707 09:41:01.427705  1460 net.cpp:386] drop1 -> ip1 (in-place)
I0707 09:41:01.427723  1460 net.cpp:141] Setting up drop1
I0707 09:41:01.427729  1460 net.cpp:148] Top shape: 512 32 (16384)
I0707 09:41:01.427734  1460 net.cpp:156] Memory required for data: 678418432
I0707 09:41:01.427738  1460 layer_factory.hpp:77] Creating layer ip2
I0707 09:41:01.427747  1460 net.cpp:91] Creating Layer ip2
I0707 09:41:01.427752  1460 net.cpp:425] ip2 <- ip1
I0707 09:41:01.427758  1460 net.cpp:399] ip2 -> ip2
I0707 09:41:01.427814  1460 net.cpp:141] Setting up ip2
I0707 09:41:01.427820  1460 net.cpp:148] Top shape: 512 2 (1024)
I0707 09:41:01.427825  1460 net.cpp:156] Memory required for data: 678422528
I0707 09:41:01.427831  1460 layer_factory.hpp:77] Creating layer loss
I0707 09:41:01.427839  1460 net.cpp:91] Creating Layer loss
I0707 09:41:01.427842  1460 net.cpp:425] loss <- ip2
I0707 09:41:01.427847  1460 net.cpp:425] loss <- label
I0707 09:41:01.427853  1460 net.cpp:399] loss -> loss
I0707 09:41:01.427865  1460 layer_factory.hpp:77] Creating layer loss
…
I0707 09:41:01.428386  1460 net.cpp:313] The NetState phase (1) differed from the phase (0) specified by a rule in layer drop1
I0707 09:41:01.428457  1460 net.cpp:49] Initializing net from parameters: 
name: "fish_filter"
state {
  phase: TEST
}
layer {
  name: "testing_cells"
  type: "Python"
  top: "image"
  top: "label"
  include {
    phase: TEST
  }
  python_param {
    module: "fisherman.caffe_layers"
    layer: "DataMapLayer"
    param_str: "{\'tops\': [\'image\', \'label\'], \'data_dir\': \'/home/sam/code/fisherman/data/dense_labelling_k149/\', \'split\': \'test\', \'samples_per_class\': 256, \'kernel\': 149}"
  }
}
layer {
  name: "conv1"
  type: "Convolution"
  bottom: "image"
  top: "conv1"
  param {
    lr_mult: 1
  }
  param {
    lr_mult: 2
  }
  convolution_param {
    num_output: 15
    kernel_size: 15
    stride: 1
    weight_filler {
      type: "xavier"
    }
    bias_filler {
      type: "constant"
    }
  }
}
layer {
  name: "pool1"
  type: "Pooling"
  bottom: "conv1"
  top: "pool1"
  pooling_param {
    pool: MAX
    kernel_size: 5
    stride: 5
  }
}
layer {
  name: "conv2"
  type: "Convolution"
  bottom: "pool1"
  top: "conv2"
  param {
    lr_mult: 1
  }
  param {
    lr_mult: 2
  }
  convolution_param {
    num_output: 5
    kernel_size: 7
    stride: 1
    weight_filler {
      type: "xavier"
    }
    bias_filler {
      type: "constant"
    }
  }
}
layer {
  name: "pool2"
  type: "Pooling"
  bottom: "conv2"
  top: "pool2"
  pooling_param {
    pool: MAX
    kernel_size: 3
    stride: 3
  }
}
layer {
  name: "ip1"
  type: "InnerProduct"
  bottom: "pool2"
  top: "ip1"
  param {
    lr_mult: 1
  }
  param {
    lr_mult: 2
  }
  inner_product_param {
    num_output: 32
    weight_filler {
      type: "xavier"
    }
    bias_filler {
      type: "constant"
    }
  }
}
layer {
  name: "relu1"
  type: "ReLU"
  bottom: "ip1"
  top: "ip1"
}
layer {
  name: "ip2"
  type: "InnerProduct"
  bottom: "ip1"
  top: "ip2"
  param {
    lr_mult: 1
  }
  param {
    lr_mult: 2
  }
  inner_product_param {
    num_output: 2
    weight_filler {
      type: "xavier"
    }
    bias_filler {
      type: "constant"
    }
  }
}
layer {
  name: "accuracy"
  type: "Accuracy"
  bottom: "ip2"
  bottom: "label"
  top: "accuracy"
  include {
    phase: TEST
  }
}
layer {
  name: "loss"
  type: "SoftmaxWithLoss"
  bottom: "ip2"
  bottom: "label"
  top: "loss"
}
I0707 09:41:01.428762  1460 layer_factory.hpp:77] Creating layer testing_cells
I0707 09:41:01.428812  1460 net.cpp:91] Creating Layer testing_cells
I0707 09:41:01.428822  1460 net.cpp:399] testing_cells -> image
I0707 09:41:01.428856  1460 net.cpp:399] testing_cells -> label
I0707 09:41:49.406829  1460 net.cpp:141] Setting up testing_cells
I0707 09:41:49.406931  1460 net.cpp:148] Top shape: 512 2 149 149 (22733824)
I0707 09:41:49.406939  1460 net.cpp:148] Top shape: 512 (512)
I0707 09:41:49.406944  1460 net.cpp:156] Memory required for data: 90937344
I0707 09:41:49.406951  1460 layer_factory.hpp:77] Creating layer label_testing_cells_1_split
I0707 09:41:49.406965  1460 net.cpp:91] Creating Layer label_testing_cells_1_split
I0707 09:41:49.406971  1460 net.cpp:425] label_testing_cells_1_split <- label
I0707 09:41:49.406980  1460 net.cpp:399] label_testing_cells_1_split -> label_testing_cells_1_split_0
I0707 09:41:49.406991  1460 net.cpp:399] label_testing_cells_1_split -> label_testing_cells_1_split_1
I0707 09:41:49.407021  1460 net.cpp:141] Setting up label_testing_cells_1_split
I0707 09:41:49.407027  1460 net.cpp:148] Top shape: 512 (512)
I0707 09:41:49.407033  1460 net.cpp:148] Top shape: 512 (512)
I0707 09:41:49.407037  1460 net.cpp:156] Memory required for data: 90941440
I0707 09:41:49.407042  1460 layer_factory.hpp:77] Creating layer conv1
I0707 09:41:49.407055  1460 net.cpp:91] Creating Layer conv1
I0707 09:41:49.407060  1460 net.cpp:425] conv1 <- image
I0707 09:41:49.407068  1460 net.cpp:399] conv1 -> conv1
I0707 09:41:49.407269  1460 net.cpp:141] Setting up conv1
I0707 09:41:49.407289  1460 net.cpp:148] Top shape: 512 15 135 135 (139968000)
I0707 09:41:49.407294  1460 net.cpp:156] Memory required for data: 650813440
I0707 09:41:49.407305  1460 layer_factory.hpp:77] Creating layer pool1
I0707 09:41:49.407313  1460 net.cpp:91] Creating Layer pool1
I0707 09:41:49.407318  1460 net.cpp:425] pool1 <- conv1
I0707 09:41:49.407325  1460 net.cpp:399] pool1 -> pool1
I0707 09:41:49.407351  1460 net.cpp:141] Setting up pool1
I0707 09:41:49.407358  1460 net.cpp:148] Top shape: 512 15 27 27 (5598720)
I0707 09:41:49.407363  1460 net.cpp:156] Memory required for data: 673208320
I0707 09:41:49.407367  1460 layer_factory.hpp:77] Creating layer conv2
I0707 09:41:49.407377  1460 net.cpp:91] Creating Layer conv2
I0707 09:41:49.407382  1460 net.cpp:425] conv2 <- pool1
I0707 09:41:49.407387  1460 net.cpp:399] conv2 -> conv2
I0707 09:41:49.407541  1460 net.cpp:141] Setting up conv2
I0707 09:41:49.407549  1460 net.cpp:148] Top shape: 512 5 21 21 (1128960)
I0707 09:41:49.407564  1460 net.cpp:156] Memory required for data: 677724160
I0707 09:41:49.407572  1460 layer_factory.hpp:77] Creating layer pool2
I0707 09:41:49.407579  1460 net.cpp:91] Creating Layer pool2
I0707 09:41:49.407584  1460 net.cpp:425] pool2 <- conv2
I0707 09:41:49.407589  1460 net.cpp:399] pool2 -> pool2
I0707 09:41:49.407613  1460 net.cpp:141] Setting up pool2
I0707 09:41:49.407619  1460 net.cpp:148] Top shape: 512 5 7 7 (125440)
I0707 09:41:49.407624  1460 net.cpp:156] Memory required for data: 678225920
I0707 09:41:49.407629  1460 layer_factory.hpp:77] Creating layer ip1
I0707 09:41:49.407637  1460 net.cpp:91] Creating Layer ip1
I0707 09:41:49.407641  1460 net.cpp:425] ip1 <- pool2
I0707 09:41:49.407647  1460 net.cpp:399] ip1 -> ip1
I0707 09:41:49.407781  1460 net.cpp:141] Setting up ip1
I0707 09:41:49.407789  1460 net.cpp:148] Top shape: 512 32 (16384)
I0707 09:41:49.407804  1460 net.cpp:156] Memory required for data: 678291456
I0707 09:41:49.407812  1460 layer_factory.hpp:77] Creating layer relu1
I0707 09:41:49.407819  1460 net.cpp:91] Creating Layer relu1
I0707 09:41:49.407824  1460 net.cpp:425] relu1 <- ip1
I0707 09:41:49.407829  1460 net.cpp:386] relu1 -> ip1 (in-place)
I0707 09:41:49.407835  1460 net.cpp:141] Setting up relu1
I0707 09:41:49.407840  1460 net.cpp:148] Top shape: 512 32 (16384)
I0707 09:41:49.407845  1460 net.cpp:156] Memory required for data: 678356992
I0707 09:41:49.407850  1460 layer_factory.hpp:77] Creating layer ip2
I0707 09:41:49.407857  1460 net.cpp:91] Creating Layer ip2
I0707 09:41:49.407861  1460 net.cpp:425] ip2 <- ip1
I0707 09:41:49.407867  1460 net.cpp:399] ip2 -> ip2
I0707 09:41:49.407930  1460 net.cpp:141] Setting up ip2
I0707 09:41:49.407938  1460 net.cpp:148] Top shape: 512 2 (1024)
I0707 09:41:49.407953  1460 net.cpp:156] Memory required for data: 678361088
I0707 09:41:49.407958  1460 layer_factory.hpp:77] Creating layer ip2_ip2_0_split
I0707 09:41:49.407992  1460 net.cpp:91] Creating Layer ip2_ip2_0_split
I0707 09:41:49.407999  1460 net.cpp:425] ip2_ip2_0_split <- ip2
I0707 09:41:49.408004  1460 net.cpp:399] ip2_ip2_0_split -> ip2_ip2_0_split_0
I0707 09:41:49.408011  1460 net.cpp:399] ip2_ip2_0_split -> ip2_ip2_0_split_1
I0707 09:41:49.408033  1460 net.cpp:141] Setting up ip2_ip2_0_split
I0707 09:41:49.408041  1460 net.cpp:148] Top shape: 512 2 (1024)
I0707 09:41:49.408046  1460 net.cpp:148] Top shape: 512 2 (1024)
I0707 09:41:49.408051  1460 net.cpp:156] Memory required for data: 678369280
I0707 09:41:49.408056  1460 layer_factory.hpp:77] Creating layer accuracy
I0707 09:41:49.408068  1460 net.cpp:91] Creating Layer accuracy
I0707 09:41:49.408073  1460 net.cpp:425] accuracy <- ip2_ip2_0_split_0
I0707 09:41:49.408078  1460 net.cpp:425] accuracy <- label_testing_cells_1_split_0
I0707 09:41:49.408085  1460 net.cpp:399] accuracy -> accuracy
…
