…
I0707 12:22:07.120193  4782 net.cpp:313] The NetState phase (0) differed from the phase (1) specified by a rule in layer accuracy
I0707 12:22:07.120321  4782 net.cpp:49] Initializing net from parameters: 
name: "fish_filter"
state {
  phase: TRAIN
}
layer {
  name: "training_cells"
  type: "Python"
  top: "image"
  top: "label"
  include {
    phase: TRAIN
  }
  python_param {
    module: "fisherman.caffe_layers"
    layer: "DataMapLayer"
    param_str: "{\'tops\': [\'image\', \'label\'], \'data_dir\': \'/home/sam/code/fisherman/data/dense_labelling_k149/\', \'split\': \'train\', \'samples_per_class\': 256, \'kernel\': 149}"
  }
}
layer {
  name: "conv1"
  type: "Convolution"
  bottom: "image"
  top: "conv1"
  param {
    lr_mult: 1
  }
  param {
    lr_mult: 2
  }
  convolution_param {
    num_output: 15
    kernel_size: 15
    stride: 1
    weight_filler {
      type: "xavier"
    }
    bias_filler {
      type: "constant"
    }
  }
}
layer {
  name: "pool1"
  type: "Pooling"
  bottom: "conv1"
  top: "pool1"
  pooling_param {
    pool: MAX
    kernel_size: 5
    stride: 5
  }
}
layer {
  name: "conv2"
  type: "Convolution"
  bottom: "pool1"
  top: "conv2"
  param {
    lr_mult: 1
  }
  param {
    lr_mult: 2
  }
  convolution_param {
    num_output: 5
    kernel_size: 7
    stride: 1
    weight_filler {
      type: "xavier"
    }
    bias_filler {
      type: "constant"
    }
  }
}
layer {
  name: "pool2"
  type: "Pooling"
  bottom: "conv2"
  top: "pool2"
  pooling_param {
    pool: MAX
    kernel_size: 3
    stride: 3
  }
}
layer {
  name: "ip1"
  type: "InnerProduct"
  bottom: "pool2"
  top: "ip1"
  param {
    lr_mult: 1
  }
  param {
    lr_mult: 2
  }
  inner_product_param {
    num_output: 32
    weight_filler {
      type: "xavier"
    }
    bias_filler {
      type: "constant"
    }
  }
}
layer {
  name: "relu1"
  type: "ReLU"
  bottom: "ip1"
  top: "ip1"
}
layer {
  name: "drop1"
  type: "Dropout"
  bottom: "ip1"
  top: "ip1"
  include {
    phase: TRAIN
  }
  dropout_param {
    dropout_ratio: 0.5
  }
}
layer {
  name: "ip2"
  type: "InnerProduct"
  bottom: "ip1"
  top: "ip2"
  param {
    lr_mult: 1
  }
  param {
    lr_mult: 2
  }
  inner_product_param {
    num_output: 2
    weight_filler {
      type: "xavier"
    }
    bias_filler {
      type: "constant"
    }
  }
}
layer {
  name: "loss"
  type: "SoftmaxWithLoss"
  bottom: "ip2"
  bottom: "label"
  top: "loss"
}
I0707 12:22:07.120748  4782 layer_factory.hpp:77] Creating layer training_cells
I0707 12:22:08.039312  4782 net.cpp:91] Creating Layer training_cells
I0707 12:22:08.039356  4782 net.cpp:399] training_cells -> image
I0707 12:22:08.039376  4782 net.cpp:399] training_cells -> label
I0707 12:23:51.824422  4782 net.cpp:141] Setting up training_cells
I0707 12:23:51.824512  4782 net.cpp:148] Top shape: 512 2 149 149 (22733824)
I0707 12:23:51.824519  4782 net.cpp:148] Top shape: 512 (512)
I0707 12:23:51.824524  4782 net.cpp:156] Memory required for data: 90937344
I0707 12:23:51.824535  4782 layer_factory.hpp:77] Creating layer conv1
I0707 12:23:51.824558  4782 net.cpp:91] Creating Layer conv1
I0707 12:23:51.824564  4782 net.cpp:425] conv1 <- image
I0707 12:23:51.824578  4782 net.cpp:399] conv1 -> conv1
I0707 12:23:51.825788  4782 net.cpp:141] Setting up conv1
I0707 12:23:51.825803  4782 net.cpp:148] Top shape: 512 15 135 135 (139968000)
I0707 12:23:51.825809  4782 net.cpp:156] Memory required for data: 650809344
I0707 12:23:51.825824  4782 layer_factory.hpp:77] Creating layer pool1
I0707 12:23:51.825834  4782 net.cpp:91] Creating Layer pool1
I0707 12:23:51.825839  4782 net.cpp:425] pool1 <- conv1
I0707 12:23:51.825845  4782 net.cpp:399] pool1 -> pool1
I0707 12:23:51.825882  4782 net.cpp:141] Setting up pool1
I0707 12:23:51.825889  4782 net.cpp:148] Top shape: 512 15 27 27 (5598720)
I0707 12:23:51.825894  4782 net.cpp:156] Memory required for data: 673204224
I0707 12:23:51.825898  4782 layer_factory.hpp:77] Creating layer conv2
I0707 12:23:51.825907  4782 net.cpp:91] Creating Layer conv2
I0707 12:23:51.825912  4782 net.cpp:425] conv2 <- pool1
I0707 12:23:51.825918  4782 net.cpp:399] conv2 -> conv2
I0707 12:23:51.828666  4782 net.cpp:141] Setting up conv2
I0707 12:23:51.828680  4782 net.cpp:148] Top shape: 512 5 21 21 (1128960)
I0707 12:23:51.828686  4782 net.cpp:156] Memory required for data: 677720064
I0707 12:23:51.828696  4782 layer_factory.hpp:77] Creating layer pool2
I0707 12:23:51.828703  4782 net.cpp:91] Creating Layer pool2
I0707 12:23:51.828708  4782 net.cpp:425] pool2 <- conv2
I0707 12:23:51.828714  4782 net.cpp:399] pool2 -> pool2
I0707 12:23:51.828742  4782 net.cpp:141] Setting up pool2
I0707 12:23:51.828750  4782 net.cpp:148] Top shape: 512 5 7 7 (125440)
I0707 12:23:51.828754  4782 net.cpp:156] Memory required for data: 678221824
I0707 12:23:51.828758  4782 layer_factory.hpp:77] Creating layer ip1
I0707 12:23:51.828768  4782 net.cpp:91] Creating Layer ip1
I0707 12:23:51.828773  4782 net.cpp:425] ip1 <- pool2
I0707 12:23:51.828778  4782 net.cpp:399] ip1 -> ip1
I0707 12:23:51.828892  4782 net.cpp:141] Setting up ip1
I0707 12:23:51.828899  4782 net.cpp:148] Top shape: 512 32 (16384)
I0707 12:23:51.828904  4782 net.cpp:156] Memory required for data: 678287360
I0707 12:23:51.828912  4782 layer_factory.hpp:77] Creating layer relu1
I0707 12:23:51.828919  4782 net.cpp:91] Creating Layer relu1
I0707 12:23:51.828924  4782 net.cpp:425] relu1 <- ip1
I0707 12:23:51.828930  4782 net.cpp:386] relu1 -> ip1 (in-place)
I0707 12:23:51.828938  4782 net.cpp:141] Setting up relu1
I0707 12:23:51.828944  4782 net.cpp:148] Top shape: 512 32 (16384)
I0707 12:23:51.828951  4782 net.cpp:156] Memory required for data: 678352896
I0707 12:23:51.828959  4782 layer_factory.hpp:77] Creating layer drop1
I0707 12:23:51.828974  4782 net.cpp:91] Creating Layer drop1
I0707 12:23:51.828980  4782 net.cpp:425] drop1 <- ip1
I0707 12:23:51.828990  4782 net.cpp:386] drop1 -> ip1 (in-place)
I0707 12:23:51.829020  4782 net.cpp:141] Setting up drop1
I0707 12:23:51.829032  4782 net.cpp:148] Top shape: 512 32 (16384)
I0707 12:23:51.829041  4782 net.cpp:156] Memory required for data: 678418432
I0707 12:23:51.829048  4782 layer_factory.hpp:77] Creating layer ip2
I0707 12:23:51.829061  4782 net.cpp:91] Creating Layer ip2
I0707 12:23:51.829069  4782 net.cpp:425] ip2 <- ip1
I0707 12:23:51.829079  4782 net.cpp:399] ip2 -> ip2
I0707 12:23:51.829174  4782 net.cpp:141] Setting up ip2
I0707 12:23:51.829190  4782 net.cpp:148] Top shape: 512 2 (1024)
I0707 12:23:51.829197  4782 net.cpp:156] Memory required for data: 678422528
I0707 12:23:51.829208  4782 layer_factory.hpp:77] Creating layer loss
I0707 12:23:51.829221  4782 net.cpp:91] Creating Layer loss
I0707 12:23:51.829229  4782 net.cpp:425] loss <- ip2
I0707 12:23:51.829238  4782 net.cpp:425] loss <- label
I0707 12:23:51.829251  4782 net.cpp:399] loss -> loss
I0707 12:23:51.829268  4782 layer_factory.hpp:77] Creating layer loss
…
I0707 12:23:51.829989  4782 net.cpp:313] The NetState phase (1) differed from the phase (0) specified by a rule in layer drop1
I0707 12:23:51.830102  4782 net.cpp:49] Initializing net from parameters: 
name: "fish_filter"
state {
  phase: TEST
}
layer {
  name: "testing_cells"
  type: "Python"
  top: "image"
  top: "label"
  include {
    phase: TEST
  }
  python_param {
    module: "fisherman.caffe_layers"
    layer: "DataMapLayer"
    param_str: "{\'tops\': [\'image\', \'label\'], \'data_dir\': \'/home/sam/code/fisherman/data/dense_labelling_k149/\', \'split\': \'test\', \'samples_per_class\': 256, \'kernel\': 149}"
  }
}
layer {
  name: "conv1"
  type: "Convolution"
  bottom: "image"
  top: "conv1"
  param {
    lr_mult: 1
  }
  param {
    lr_mult: 2
  }
  convolution_param {
    num_output: 15
    kernel_size: 15
    stride: 1
    weight_filler {
      type: "xavier"
    }
    bias_filler {
      type: "constant"
    }
  }
}
layer {
  name: "pool1"
  type: "Pooling"
  bottom: "conv1"
  top: "pool1"
  pooling_param {
    pool: MAX
    kernel_size: 5
    stride: 5
  }
}
layer {
  name: "conv2"
  type: "Convolution"
  bottom: "pool1"
  top: "conv2"
  param {
    lr_mult: 1
  }
  param {
    lr_mult: 2
  }
  convolution_param {
    num_output: 5
    kernel_size: 7
    stride: 1
    weight_filler {
      type: "xavier"
    }
    bias_filler {
      type: "constant"
    }
  }
}
layer {
  name: "pool2"
  type: "Pooling"
  bottom: "conv2"
  top: "pool2"
  pooling_param {
    pool: MAX
    kernel_size: 3
    stride: 3
  }
}
layer {
  name: "ip1"
  type: "InnerProduct"
  bottom: "pool2"
  top: "ip1"
  param {
    lr_mult: 1
  }
  param {
    lr_mult: 2
  }
  inner_product_param {
    num_output: 32
    weight_filler {
      type: "xavier"
    }
    bias_filler {
      type: "constant"
    }
  }
}
layer {
  name: "relu1"
  type: "ReLU"
  bottom: "ip1"
  top: "ip1"
}
layer {
  name: "ip2"
  type: "InnerProduct"
  bottom: "ip1"
  top: "ip2"
  param {
    lr_mult: 1
  }
  param {
    lr_mult: 2
  }
  inner_product_param {
    num_output: 2
    weight_filler {
      type: "xavier"
    }
    bias_filler {
      type: "constant"
    }
  }
}
layer {
  name: "accuracy"
  type: "Accuracy"
  bottom: "ip2"
  bottom: "label"
  top: "accuracy"
  include {
    phase: TEST
  }
}
layer {
  name: "loss"
  type: "SoftmaxWithLoss"
  bottom: "ip2"
  bottom: "label"
  top: "loss"
}
I0707 12:23:51.830482  4782 layer_factory.hpp:77] Creating layer testing_cells
I0707 12:23:51.830533  4782 net.cpp:91] Creating Layer testing_cells
I0707 12:23:51.830541  4782 net.cpp:399] testing_cells -> image
I0707 12:23:51.830576  4782 net.cpp:399] testing_cells -> label
I0707 12:24:42.337370  4782 net.cpp:141] Setting up testing_cells
I0707 12:24:42.337461  4782 net.cpp:148] Top shape: 512 2 149 149 (22733824)
I0707 12:24:42.337471  4782 net.cpp:148] Top shape: 512 (512)
I0707 12:24:42.337476  4782 net.cpp:156] Memory required for data: 90937344
I0707 12:24:42.337484  4782 layer_factory.hpp:77] Creating layer label_testing_cells_1_split
I0707 12:24:42.337503  4782 net.cpp:91] Creating Layer label_testing_cells_1_split
I0707 12:24:42.337509  4782 net.cpp:425] label_testing_cells_1_split <- label
I0707 12:24:42.337517  4782 net.cpp:399] label_testing_cells_1_split -> label_testing_cells_1_split_0
I0707 12:24:42.337528  4782 net.cpp:399] label_testing_cells_1_split -> label_testing_cells_1_split_1
I0707 12:24:42.337556  4782 net.cpp:141] Setting up label_testing_cells_1_split
I0707 12:24:42.337563  4782 net.cpp:148] Top shape: 512 (512)
I0707 12:24:42.337568  4782 net.cpp:148] Top shape: 512 (512)
I0707 12:24:42.337573  4782 net.cpp:156] Memory required for data: 90941440
I0707 12:24:42.337576  4782 layer_factory.hpp:77] Creating layer conv1
I0707 12:24:42.337589  4782 net.cpp:91] Creating Layer conv1
I0707 12:24:42.337594  4782 net.cpp:425] conv1 <- image
I0707 12:24:42.337601  4782 net.cpp:399] conv1 -> conv1
I0707 12:24:42.337795  4782 net.cpp:141] Setting up conv1
I0707 12:24:42.337803  4782 net.cpp:148] Top shape: 512 15 135 135 (139968000)
I0707 12:24:42.337808  4782 net.cpp:156] Memory required for data: 650813440
I0707 12:24:42.337818  4782 layer_factory.hpp:77] Creating layer pool1
I0707 12:24:42.337827  4782 net.cpp:91] Creating Layer pool1
I0707 12:24:42.337831  4782 net.cpp:425] pool1 <- conv1
I0707 12:24:42.337837  4782 net.cpp:399] pool1 -> pool1
I0707 12:24:42.337862  4782 net.cpp:141] Setting up pool1
I0707 12:24:42.337868  4782 net.cpp:148] Top shape: 512 15 27 27 (5598720)
I0707 12:24:42.337873  4782 net.cpp:156] Memory required for data: 673208320
I0707 12:24:42.337877  4782 layer_factory.hpp:77] Creating layer conv2
I0707 12:24:42.337887  4782 net.cpp:91] Creating Layer conv2
I0707 12:24:42.337891  4782 net.cpp:425] conv2 <- pool1
I0707 12:24:42.337898  4782 net.cpp:399] conv2 -> conv2
I0707 12:24:42.338043  4782 net.cpp:141] Setting up conv2
I0707 12:24:42.338050  4782 net.cpp:148] Top shape: 512 5 21 21 (1128960)
I0707 12:24:42.338055  4782 net.cpp:156] Memory required for data: 677724160
I0707 12:24:42.338063  4782 layer_factory.hpp:77] Creating layer pool2
I0707 12:24:42.338069  4782 net.cpp:91] Creating Layer pool2
I0707 12:24:42.338074  4782 net.cpp:425] pool2 <- conv2
I0707 12:24:42.338079  4782 net.cpp:399] pool2 -> pool2
I0707 12:24:42.338102  4782 net.cpp:141] Setting up pool2
I0707 12:24:42.338109  4782 net.cpp:148] Top shape: 512 5 7 7 (125440)
I0707 12:24:42.338114  4782 net.cpp:156] Memory required for data: 678225920
I0707 12:24:42.338117  4782 layer_factory.hpp:77] Creating layer ip1
I0707 12:24:42.338125  4782 net.cpp:91] Creating Layer ip1
I0707 12:24:42.338129  4782 net.cpp:425] ip1 <- pool2
I0707 12:24:42.338135  4782 net.cpp:399] ip1 -> ip1
I0707 12:24:42.338281  4782 net.cpp:141] Setting up ip1
I0707 12:24:42.338289  4782 net.cpp:148] Top shape: 512 32 (16384)
I0707 12:24:42.338292  4782 net.cpp:156] Memory required for data: 678291456
I0707 12:24:42.338300  4782 layer_factory.hpp:77] Creating layer relu1
I0707 12:24:42.338307  4782 net.cpp:91] Creating Layer relu1
I0707 12:24:42.338311  4782 net.cpp:425] relu1 <- ip1
I0707 12:24:42.338317  4782 net.cpp:386] relu1 -> ip1 (in-place)
I0707 12:24:42.338323  4782 net.cpp:141] Setting up relu1
I0707 12:24:42.338328  4782 net.cpp:148] Top shape: 512 32 (16384)
I0707 12:24:42.338332  4782 net.cpp:156] Memory required for data: 678356992
I0707 12:24:42.338336  4782 layer_factory.hpp:77] Creating layer ip2
I0707 12:24:42.338345  4782 net.cpp:91] Creating Layer ip2
I0707 12:24:42.338348  4782 net.cpp:425] ip2 <- ip1
I0707 12:24:42.338354  4782 net.cpp:399] ip2 -> ip2
I0707 12:24:42.338407  4782 net.cpp:141] Setting up ip2
I0707 12:24:42.338413  4782 net.cpp:148] Top shape: 512 2 (1024)
I0707 12:24:42.338418  4782 net.cpp:156] Memory required for data: 678361088
I0707 12:24:42.338423  4782 layer_factory.hpp:77] Creating layer ip2_ip2_0_split
I0707 12:24:42.338455  4782 net.cpp:91] Creating Layer ip2_ip2_0_split
I0707 12:24:42.338460  4782 net.cpp:425] ip2_ip2_0_split <- ip2
I0707 12:24:42.338466  4782 net.cpp:399] ip2_ip2_0_split -> ip2_ip2_0_split_0
I0707 12:24:42.338472  4782 net.cpp:399] ip2_ip2_0_split -> ip2_ip2_0_split_1
I0707 12:24:42.338495  4782 net.cpp:141] Setting up ip2_ip2_0_split
I0707 12:24:42.338500  4782 net.cpp:148] Top shape: 512 2 (1024)
I0707 12:24:42.338505  4782 net.cpp:148] Top shape: 512 2 (1024)
I0707 12:24:42.338510  4782 net.cpp:156] Memory required for data: 678369280
I0707 12:24:42.338515  4782 layer_factory.hpp:77] Creating layer accuracy
I0707 12:24:42.338523  4782 net.cpp:91] Creating Layer accuracy
I0707 12:24:42.338527  4782 net.cpp:425] accuracy <- ip2_ip2_0_split_0
I0707 12:24:42.338532  4782 net.cpp:425] accuracy <- label_testing_cells_1_split_0
I0707 12:24:42.338538  4782 net.cpp:399] accuracy -> accuracy
…
