…
I0707 14:33:29.910367 11246 net.cpp:313] The NetState phase (0) differed from the phase (1) specified by a rule in layer accuracy
I0707 14:33:29.910437 11246 net.cpp:49] Initializing net from parameters: 
name: "fish_filter"
state {
  phase: TRAIN
}
layer {
  name: "training_cells"
  type: "Python"
  top: "image"
  top: "label"
  include {
    phase: TRAIN
  }
  python_param {
    module: "fisherman.caffe_layers"
    layer: "DataMapLayer"
    param_str: "{\'tops\': [\'image\', \'label\'], \'data_dir\': \'/home/sam/code/fisherman/data/dense_labelling_k149/\', \'split\': \'train\', \'samples_per_class\': 256, \'kernel\': 149}"
  }
}
layer {
  name: "conv1"
  type: "Convolution"
  bottom: "image"
  top: "conv1"
  param {
    lr_mult: 1
  }
  param {
    lr_mult: 2
  }
  convolution_param {
    num_output: 15
    kernel_size: 15
    stride: 1
    weight_filler {
      type: "xavier"
    }
    bias_filler {
      type: "constant"
    }
  }
}
layer {
  name: "pool1"
  type: "Pooling"
  bottom: "conv1"
  top: "pool1"
  pooling_param {
    pool: MAX
    kernel_size: 5
    stride: 5
  }
}
layer {
  name: "conv2"
  type: "Convolution"
  bottom: "pool1"
  top: "conv2"
  param {
    lr_mult: 1
  }
  param {
    lr_mult: 2
  }
  convolution_param {
    num_output: 5
    kernel_size: 7
    stride: 1
    weight_filler {
      type: "xavier"
    }
    bias_filler {
      type: "constant"
    }
  }
}
layer {
  name: "pool2"
  type: "Pooling"
  bottom: "conv2"
  top: "pool2"
  pooling_param {
    pool: MAX
    kernel_size: 3
    stride: 3
  }
}
layer {
  name: "ip1"
  type: "InnerProduct"
  bottom: "pool2"
  top: "ip1"
  param {
    lr_mult: 1
  }
  param {
    lr_mult: 2
  }
  inner_product_param {
    num_output: 32
    weight_filler {
      type: "xavier"
    }
    bias_filler {
      type: "constant"
    }
  }
}
layer {
  name: "relu1"
  type: "ReLU"
  bottom: "ip1"
  top: "ip1"
}
layer {
  name: "drop1"
  type: "Dropout"
  bottom: "ip1"
  top: "ip1"
  include {
    phase: TRAIN
  }
  dropout_param {
    dropout_ratio: 0.5
  }
}
layer {
  name: "ip2"
  type: "InnerProduct"
  bottom: "ip1"
  top: "ip2"
  param {
    lr_mult: 1
  }
  param {
    lr_mult: 2
  }
  inner_product_param {
    num_output: 2
    weight_filler {
      type: "xavier"
    }
    bias_filler {
      type: "constant"
    }
  }
}
layer {
  name: "loss"
  type: "SoftmaxWithLoss"
  bottom: "ip2"
  bottom: "label"
  top: "loss"
}
I0707 14:33:29.910749 11246 layer_factory.hpp:77] Creating layer training_cells
I0707 14:33:30.707355 11246 net.cpp:91] Creating Layer training_cells
I0707 14:33:30.707386 11246 net.cpp:399] training_cells -> image
I0707 14:33:30.707404 11246 net.cpp:399] training_cells -> label
I0707 14:35:24.489621 11246 net.cpp:141] Setting up training_cells
I0707 14:35:24.489711 11246 net.cpp:148] Top shape: 512 2 149 149 (22733824)
I0707 14:35:24.489723 11246 net.cpp:148] Top shape: 512 (512)
I0707 14:35:24.489730 11246 net.cpp:156] Memory required for data: 90937344
I0707 14:35:24.489754 11246 layer_factory.hpp:77] Creating layer conv1
I0707 14:35:24.489781 11246 net.cpp:91] Creating Layer conv1
I0707 14:35:24.489792 11246 net.cpp:425] conv1 <- image
I0707 14:35:24.489809 11246 net.cpp:399] conv1 -> conv1
I0707 14:35:24.491232 11246 net.cpp:141] Setting up conv1
I0707 14:35:24.491255 11246 net.cpp:148] Top shape: 512 15 135 135 (139968000)
I0707 14:35:24.491264 11246 net.cpp:156] Memory required for data: 650809344
I0707 14:35:24.491286 11246 layer_factory.hpp:77] Creating layer pool1
I0707 14:35:24.491302 11246 net.cpp:91] Creating Layer pool1
I0707 14:35:24.491310 11246 net.cpp:425] pool1 <- conv1
I0707 14:35:24.491322 11246 net.cpp:399] pool1 -> pool1
I0707 14:35:24.491377 11246 net.cpp:141] Setting up pool1
I0707 14:35:24.491392 11246 net.cpp:148] Top shape: 512 15 27 27 (5598720)
I0707 14:35:24.491400 11246 net.cpp:156] Memory required for data: 673204224
I0707 14:35:24.491408 11246 layer_factory.hpp:77] Creating layer conv2
I0707 14:35:24.491423 11246 net.cpp:91] Creating Layer conv2
I0707 14:35:24.491432 11246 net.cpp:425] conv2 <- pool1
I0707 14:35:24.491443 11246 net.cpp:399] conv2 -> conv2
I0707 14:35:24.492439 11246 net.cpp:141] Setting up conv2
I0707 14:35:24.492467 11246 net.cpp:148] Top shape: 512 5 21 21 (1128960)
I0707 14:35:24.492486 11246 net.cpp:156] Memory required for data: 677720064
I0707 14:35:24.492501 11246 layer_factory.hpp:77] Creating layer pool2
I0707 14:35:24.492512 11246 net.cpp:91] Creating Layer pool2
I0707 14:35:24.492522 11246 net.cpp:425] pool2 <- conv2
I0707 14:35:24.492533 11246 net.cpp:399] pool2 -> pool2
I0707 14:35:24.492594 11246 net.cpp:141] Setting up pool2
I0707 14:35:24.492607 11246 net.cpp:148] Top shape: 512 5 7 7 (125440)
I0707 14:35:24.492615 11246 net.cpp:156] Memory required for data: 678221824
I0707 14:35:24.492624 11246 layer_factory.hpp:77] Creating layer ip1
I0707 14:35:24.492636 11246 net.cpp:91] Creating Layer ip1
I0707 14:35:24.492645 11246 net.cpp:425] ip1 <- pool2
I0707 14:35:24.492655 11246 net.cpp:399] ip1 -> ip1
I0707 14:35:24.492841 11246 net.cpp:141] Setting up ip1
I0707 14:35:24.492877 11246 net.cpp:148] Top shape: 512 32 (16384)
I0707 14:35:24.492885 11246 net.cpp:156] Memory required for data: 678287360
I0707 14:35:24.492902 11246 layer_factory.hpp:77] Creating layer relu1
I0707 14:35:24.492913 11246 net.cpp:91] Creating Layer relu1
I0707 14:35:24.492923 11246 net.cpp:425] relu1 <- ip1
I0707 14:35:24.492933 11246 net.cpp:386] relu1 -> ip1 (in-place)
I0707 14:35:24.492947 11246 net.cpp:141] Setting up relu1
I0707 14:35:24.492959 11246 net.cpp:148] Top shape: 512 32 (16384)
I0707 14:35:24.492965 11246 net.cpp:156] Memory required for data: 678352896
I0707 14:35:24.492974 11246 layer_factory.hpp:77] Creating layer drop1
I0707 14:35:24.492990 11246 net.cpp:91] Creating Layer drop1
I0707 14:35:24.493000 11246 net.cpp:425] drop1 <- ip1
I0707 14:35:24.493011 11246 net.cpp:386] drop1 -> ip1 (in-place)
I0707 14:35:24.493053 11246 net.cpp:141] Setting up drop1
I0707 14:35:24.493075 11246 net.cpp:148] Top shape: 512 32 (16384)
I0707 14:35:24.493083 11246 net.cpp:156] Memory required for data: 678418432
I0707 14:35:24.493099 11246 layer_factory.hpp:77] Creating layer ip2
I0707 14:35:24.493108 11246 net.cpp:91] Creating Layer ip2
I0707 14:35:24.493113 11246 net.cpp:425] ip2 <- ip1
I0707 14:35:24.493119 11246 net.cpp:399] ip2 -> ip2
I0707 14:35:24.493196 11246 net.cpp:141] Setting up ip2
I0707 14:35:24.493204 11246 net.cpp:148] Top shape: 512 2 (1024)
I0707 14:35:24.493208 11246 net.cpp:156] Memory required for data: 678422528
I0707 14:35:24.493216 11246 layer_factory.hpp:77] Creating layer loss
I0707 14:35:24.493222 11246 net.cpp:91] Creating Layer loss
I0707 14:35:24.493227 11246 net.cpp:425] loss <- ip2
I0707 14:35:24.493232 11246 net.cpp:425] loss <- label
I0707 14:35:24.493239 11246 net.cpp:399] loss -> loss
I0707 14:35:24.493253 11246 layer_factory.hpp:77] Creating layer loss
…
I0707 14:35:24.494076 11246 net.cpp:313] The NetState phase (1) differed from the phase (0) specified by a rule in layer drop1
I0707 14:35:24.494197 11246 net.cpp:49] Initializing net from parameters: 
name: "fish_filter"
state {
  phase: TEST
}
layer {
  name: "testing_cells"
  type: "Python"
  top: "image"
  top: "label"
  include {
    phase: TEST
  }
  python_param {
    module: "fisherman.caffe_layers"
    layer: "DataMapLayer"
    param_str: "{\'tops\': [\'image\', \'label\'], \'data_dir\': \'/home/sam/code/fisherman/data/dense_labelling_k149/\', \'split\': \'test\', \'samples_per_class\': 256, \'kernel\': 149}"
  }
}
layer {
  name: "conv1"
  type: "Convolution"
  bottom: "image"
  top: "conv1"
  param {
    lr_mult: 1
  }
  param {
    lr_mult: 2
  }
  convolution_param {
    num_output: 15
    kernel_size: 15
    stride: 1
    weight_filler {
      type: "xavier"
    }
    bias_filler {
      type: "constant"
    }
  }
}
layer {
  name: "pool1"
  type: "Pooling"
  bottom: "conv1"
  top: "pool1"
  pooling_param {
    pool: MAX
    kernel_size: 5
    stride: 5
  }
}
layer {
  name: "conv2"
  type: "Convolution"
  bottom: "pool1"
  top: "conv2"
  param {
    lr_mult: 1
  }
  param {
    lr_mult: 2
  }
  convolution_param {
    num_output: 5
    kernel_size: 7
    stride: 1
    weight_filler {
      type: "xavier"
    }
    bias_filler {
      type: "constant"
    }
  }
}
layer {
  name: "pool2"
  type: "Pooling"
  bottom: "conv2"
  top: "pool2"
  pooling_param {
    pool: MAX
    kernel_size: 3
    stride: 3
  }
}
layer {
  name: "ip1"
  type: "InnerProduct"
  bottom: "pool2"
  top: "ip1"
  param {
    lr_mult: 1
  }
  param {
    lr_mult: 2
  }
  inner_product_param {
    num_output: 32
    weight_filler {
      type: "xavier"
    }
    bias_filler {
      type: "constant"
    }
  }
}
layer {
  name: "relu1"
  type: "ReLU"
  bottom: "ip1"
  top: "ip1"
}
layer {
  name: "ip2"
  type: "InnerProduct"
  bottom: "ip1"
  top: "ip2"
  param {
    lr_mult: 1
  }
  param {
    lr_mult: 2
  }
  inner_product_param {
    num_output: 2
    weight_filler {
      type: "xavier"
    }
    bias_filler {
      type: "constant"
    }
  }
}
layer {
  name: "accuracy"
  type: "Accuracy"
  bottom: "ip2"
  bottom: "label"
  top: "accuracy"
  include {
    phase: TEST
  }
}
layer {
  name: "loss"
  type: "SoftmaxWithLoss"
  bottom: "ip2"
  bottom: "label"
  top: "loss"
}
I0707 14:35:24.494649 11246 layer_factory.hpp:77] Creating layer testing_cells
I0707 14:35:24.494730 11246 net.cpp:91] Creating Layer testing_cells
I0707 14:35:24.494755 11246 net.cpp:399] testing_cells -> image
I0707 14:35:24.494822 11246 net.cpp:399] testing_cells -> label
I0707 14:36:14.832501 11246 net.cpp:141] Setting up testing_cells
I0707 14:36:14.832604 11246 net.cpp:148] Top shape: 512 2 149 149 (22733824)
I0707 14:36:14.832612 11246 net.cpp:148] Top shape: 512 (512)
I0707 14:36:14.832617 11246 net.cpp:156] Memory required for data: 90937344
I0707 14:36:14.832625 11246 layer_factory.hpp:77] Creating layer label_testing_cells_1_split
I0707 14:36:14.832645 11246 net.cpp:91] Creating Layer label_testing_cells_1_split
I0707 14:36:14.832651 11246 net.cpp:425] label_testing_cells_1_split <- label
I0707 14:36:14.832659 11246 net.cpp:399] label_testing_cells_1_split -> label_testing_cells_1_split_0
I0707 14:36:14.832670 11246 net.cpp:399] label_testing_cells_1_split -> label_testing_cells_1_split_1
I0707 14:36:14.832698 11246 net.cpp:141] Setting up label_testing_cells_1_split
I0707 14:36:14.832705 11246 net.cpp:148] Top shape: 512 (512)
I0707 14:36:14.832710 11246 net.cpp:148] Top shape: 512 (512)
I0707 14:36:14.832715 11246 net.cpp:156] Memory required for data: 90941440
I0707 14:36:14.832720 11246 layer_factory.hpp:77] Creating layer conv1
I0707 14:36:14.832732 11246 net.cpp:91] Creating Layer conv1
I0707 14:36:14.832737 11246 net.cpp:425] conv1 <- image
I0707 14:36:14.832744 11246 net.cpp:399] conv1 -> conv1
I0707 14:36:14.832943 11246 net.cpp:141] Setting up conv1
I0707 14:36:14.832952 11246 net.cpp:148] Top shape: 512 15 135 135 (139968000)
I0707 14:36:14.832957 11246 net.cpp:156] Memory required for data: 650813440
I0707 14:36:14.832967 11246 layer_factory.hpp:77] Creating layer pool1
I0707 14:36:14.832975 11246 net.cpp:91] Creating Layer pool1
I0707 14:36:14.832980 11246 net.cpp:425] pool1 <- conv1
I0707 14:36:14.832986 11246 net.cpp:399] pool1 -> pool1
I0707 14:36:14.833011 11246 net.cpp:141] Setting up pool1
I0707 14:36:14.833019 11246 net.cpp:148] Top shape: 512 15 27 27 (5598720)
I0707 14:36:14.833022 11246 net.cpp:156] Memory required for data: 673208320
I0707 14:36:14.833027 11246 layer_factory.hpp:77] Creating layer conv2
I0707 14:36:14.833036 11246 net.cpp:91] Creating Layer conv2
I0707 14:36:14.833041 11246 net.cpp:425] conv2 <- pool1
I0707 14:36:14.833047 11246 net.cpp:399] conv2 -> conv2
I0707 14:36:14.833212 11246 net.cpp:141] Setting up conv2
I0707 14:36:14.833221 11246 net.cpp:148] Top shape: 512 5 21 21 (1128960)
I0707 14:36:14.833226 11246 net.cpp:156] Memory required for data: 677724160
I0707 14:36:14.833235 11246 layer_factory.hpp:77] Creating layer pool2
I0707 14:36:14.833241 11246 net.cpp:91] Creating Layer pool2
I0707 14:36:14.833246 11246 net.cpp:425] pool2 <- conv2
I0707 14:36:14.833252 11246 net.cpp:399] pool2 -> pool2
I0707 14:36:14.833276 11246 net.cpp:141] Setting up pool2
I0707 14:36:14.833281 11246 net.cpp:148] Top shape: 512 5 7 7 (125440)
I0707 14:36:14.833287 11246 net.cpp:156] Memory required for data: 678225920
I0707 14:36:14.833290 11246 layer_factory.hpp:77] Creating layer ip1
I0707 14:36:14.833298 11246 net.cpp:91] Creating Layer ip1
I0707 14:36:14.833302 11246 net.cpp:425] ip1 <- pool2
I0707 14:36:14.833308 11246 net.cpp:399] ip1 -> ip1
I0707 14:36:14.833416 11246 net.cpp:141] Setting up ip1
I0707 14:36:14.833423 11246 net.cpp:148] Top shape: 512 32 (16384)
I0707 14:36:14.833427 11246 net.cpp:156] Memory required for data: 678291456
I0707 14:36:14.833436 11246 layer_factory.hpp:77] Creating layer relu1
I0707 14:36:14.833442 11246 net.cpp:91] Creating Layer relu1
I0707 14:36:14.833447 11246 net.cpp:425] relu1 <- ip1
I0707 14:36:14.833452 11246 net.cpp:386] relu1 -> ip1 (in-place)
I0707 14:36:14.833459 11246 net.cpp:141] Setting up relu1
I0707 14:36:14.833464 11246 net.cpp:148] Top shape: 512 32 (16384)
I0707 14:36:14.833468 11246 net.cpp:156] Memory required for data: 678356992
I0707 14:36:14.833473 11246 layer_factory.hpp:77] Creating layer ip2
I0707 14:36:14.833480 11246 net.cpp:91] Creating Layer ip2
I0707 14:36:14.833485 11246 net.cpp:425] ip2 <- ip1
I0707 14:36:14.833492 11246 net.cpp:399] ip2 -> ip2
I0707 14:36:14.833546 11246 net.cpp:141] Setting up ip2
I0707 14:36:14.833552 11246 net.cpp:148] Top shape: 512 2 (1024)
I0707 14:36:14.833557 11246 net.cpp:156] Memory required for data: 678361088
I0707 14:36:14.833564 11246 layer_factory.hpp:77] Creating layer ip2_ip2_0_split
I0707 14:36:14.833597 11246 net.cpp:91] Creating Layer ip2_ip2_0_split
I0707 14:36:14.833602 11246 net.cpp:425] ip2_ip2_0_split <- ip2
I0707 14:36:14.833608 11246 net.cpp:399] ip2_ip2_0_split -> ip2_ip2_0_split_0
I0707 14:36:14.833616 11246 net.cpp:399] ip2_ip2_0_split -> ip2_ip2_0_split_1
I0707 14:36:14.833638 11246 net.cpp:141] Setting up ip2_ip2_0_split
I0707 14:36:14.833645 11246 net.cpp:148] Top shape: 512 2 (1024)
I0707 14:36:14.833650 11246 net.cpp:148] Top shape: 512 2 (1024)
I0707 14:36:14.833654 11246 net.cpp:156] Memory required for data: 678369280
I0707 14:36:14.833658 11246 layer_factory.hpp:77] Creating layer accuracy
I0707 14:36:14.833668 11246 net.cpp:91] Creating Layer accuracy
I0707 14:36:14.833673 11246 net.cpp:425] accuracy <- ip2_ip2_0_split_0
I0707 14:36:14.833678 11246 net.cpp:425] accuracy <- label_testing_cells_1_split_0
I0707 14:36:14.833683 11246 net.cpp:399] accuracy -> accuracy
…
