…
I0711 18:54:05.355782 22940 net.cpp:313] The NetState phase (0) differed from the phase (1) specified by a rule in layer accuracy
I0711 18:54:05.355850 22940 net.cpp:49] Initializing net from parameters: 
name: "fish_filter"
state {
  phase: TRAIN
}
layer {
  name: "training_cells"
  type: "Python"
  top: "image"
  top: "label"
  include {
    phase: TRAIN
  }
  python_param {
    module: "fisherman.caffe_layers"
    layer: "DataMapLayer"
    param_str: "{\'tops\': [\'image\', \'label\'], \'data_dir\': \'/home/sam/code/fisherman/data/dense_labelling_k149/\', \'split\': \'train\', \'samples_per_class\': 256, \'kernel\': 149}"
  }
}
layer {
  name: "conv1"
  type: "Convolution"
  bottom: "image"
  top: "conv1"
  param {
    lr_mult: 1
  }
  param {
    lr_mult: 2
  }
  convolution_param {
    num_output: 15
    kernel_size: 15
    stride: 1
    weight_filler {
      type: "xavier"
    }
    bias_filler {
      type: "constant"
    }
  }
}
layer {
  name: "pool1"
  type: "Pooling"
  bottom: "conv1"
  top: "pool1"
  pooling_param {
    pool: MAX
    kernel_size: 5
    stride: 5
  }
}
layer {
  name: "conv2"
  type: "Convolution"
  bottom: "pool1"
  top: "conv2"
  param {
    lr_mult: 1
  }
  param {
    lr_mult: 2
  }
  convolution_param {
    num_output: 5
    kernel_size: 7
    stride: 1
    weight_filler {
      type: "xavier"
    }
    bias_filler {
      type: "constant"
    }
  }
}
layer {
  name: "pool2"
  type: "Pooling"
  bottom: "conv2"
  top: "pool2"
  pooling_param {
    pool: MAX
    kernel_size: 3
    stride: 3
  }
}
layer {
  name: "ip1"
  type: "InnerProduct"
  bottom: "pool2"
  top: "ip1"
  param {
    lr_mult: 1
  }
  param {
    lr_mult: 2
  }
  inner_product_param {
    num_output: 32
    weight_filler {
      type: "xavier"
    }
    bias_filler {
      type: "constant"
    }
  }
}
layer {
  name: "relu1"
  type: "ReLU"
  bottom: "ip1"
  top: "ip1"
}
layer {
  name: "drop1"
  type: "Dropout"
  bottom: "ip1"
  top: "ip1"
  include {
    phase: TRAIN
  }
  dropout_param {
    dropout_ratio: 0.5
  }
}
layer {
  name: "ip2"
  type: "InnerProduct"
  bottom: "ip1"
  top: "ip2"
  param {
    lr_mult: 1
  }
  param {
    lr_mult: 2
  }
  inner_product_param {
    num_output: 2
    weight_filler {
      type: "xavier"
    }
    bias_filler {
      type: "constant"
    }
  }
}
layer {
  name: "loss"
  type: "SoftmaxWithLoss"
  bottom: "ip2"
  bottom: "label"
  top: "loss"
}
I0711 18:54:05.356158 22940 layer_factory.hpp:77] Creating layer training_cells
I0711 18:54:06.534209 22940 net.cpp:91] Creating Layer training_cells
I0711 18:54:06.534240 22940 net.cpp:399] training_cells -> image
I0711 18:54:06.534258 22940 net.cpp:399] training_cells -> label
I0711 18:55:49.827249 22940 net.cpp:141] Setting up training_cells
I0711 18:55:49.828529 22940 net.cpp:148] Top shape: 512 2 149 149 (22733824)
I0711 18:55:49.828634 22940 net.cpp:148] Top shape: 512 (512)
I0711 18:55:49.828719 22940 net.cpp:156] Memory required for data: 90937344
I0711 18:55:49.828820 22940 layer_factory.hpp:77] Creating layer conv1
I0711 18:55:49.828932 22940 net.cpp:91] Creating Layer conv1
I0711 18:55:49.829020 22940 net.cpp:425] conv1 <- image
I0711 18:55:49.829111 22940 net.cpp:399] conv1 -> conv1
I0711 18:55:49.834789 22940 net.cpp:141] Setting up conv1
I0711 18:55:49.834941 22940 net.cpp:148] Top shape: 512 15 135 135 (139968000)
I0711 18:55:49.835032 22940 net.cpp:156] Memory required for data: 650809344
I0711 18:55:49.835136 22940 layer_factory.hpp:77] Creating layer pool1
I0711 18:55:49.835232 22940 net.cpp:91] Creating Layer pool1
I0711 18:55:49.835311 22940 net.cpp:425] pool1 <- conv1
I0711 18:55:49.835397 22940 net.cpp:399] pool1 -> pool1
I0711 18:55:49.835542 22940 net.cpp:141] Setting up pool1
I0711 18:55:49.835628 22940 net.cpp:148] Top shape: 512 15 27 27 (5598720)
I0711 18:55:49.835716 22940 net.cpp:156] Memory required for data: 673204224
I0711 18:55:49.835803 22940 layer_factory.hpp:77] Creating layer conv2
I0711 18:55:49.835896 22940 net.cpp:91] Creating Layer conv2
I0711 18:55:49.835975 22940 net.cpp:425] conv2 <- pool1
I0711 18:55:49.836056 22940 net.cpp:399] conv2 -> conv2
I0711 18:55:49.837846 22940 net.cpp:141] Setting up conv2
I0711 18:55:49.837975 22940 net.cpp:148] Top shape: 512 5 21 21 (1128960)
I0711 18:55:49.838063 22940 net.cpp:156] Memory required for data: 677720064
I0711 18:55:49.838163 22940 layer_factory.hpp:77] Creating layer pool2
I0711 18:55:49.838243 22940 net.cpp:91] Creating Layer pool2
I0711 18:55:49.838256 22940 net.cpp:425] pool2 <- conv2
I0711 18:55:49.838268 22940 net.cpp:399] pool2 -> pool2
I0711 18:55:49.838320 22940 net.cpp:141] Setting up pool2
I0711 18:55:49.838330 22940 net.cpp:148] Top shape: 512 5 7 7 (125440)
I0711 18:55:49.838338 22940 net.cpp:156] Memory required for data: 678221824
I0711 18:55:49.838346 22940 layer_factory.hpp:77] Creating layer ip1
I0711 18:55:49.838359 22940 net.cpp:91] Creating Layer ip1
I0711 18:55:49.838366 22940 net.cpp:425] ip1 <- pool2
I0711 18:55:49.838377 22940 net.cpp:399] ip1 -> ip1
I0711 18:55:49.838706 22940 net.cpp:141] Setting up ip1
I0711 18:55:49.838767 22940 net.cpp:148] Top shape: 512 32 (16384)
I0711 18:55:49.838780 22940 net.cpp:156] Memory required for data: 678287360
I0711 18:55:49.838798 22940 layer_factory.hpp:77] Creating layer relu1
I0711 18:55:49.838809 22940 net.cpp:91] Creating Layer relu1
I0711 18:55:49.838816 22940 net.cpp:425] relu1 <- ip1
I0711 18:55:49.838827 22940 net.cpp:386] relu1 -> ip1 (in-place)
I0711 18:55:49.838840 22940 net.cpp:141] Setting up relu1
I0711 18:55:49.838850 22940 net.cpp:148] Top shape: 512 32 (16384)
I0711 18:55:49.838857 22940 net.cpp:156] Memory required for data: 678352896
I0711 18:55:49.838865 22940 layer_factory.hpp:77] Creating layer drop1
I0711 18:55:49.838876 22940 net.cpp:91] Creating Layer drop1
I0711 18:55:49.838884 22940 net.cpp:425] drop1 <- ip1
I0711 18:55:49.838893 22940 net.cpp:386] drop1 -> ip1 (in-place)
I0711 18:55:49.838927 22940 net.cpp:141] Setting up drop1
I0711 18:55:49.838937 22940 net.cpp:148] Top shape: 512 32 (16384)
I0711 18:55:49.838944 22940 net.cpp:156] Memory required for data: 678418432
I0711 18:55:49.838951 22940 layer_factory.hpp:77] Creating layer ip2
I0711 18:55:49.839004 22940 net.cpp:91] Creating Layer ip2
I0711 18:55:49.839015 22940 net.cpp:425] ip2 <- ip1
I0711 18:55:49.839025 22940 net.cpp:399] ip2 -> ip2
I0711 18:55:49.839112 22940 net.cpp:141] Setting up ip2
I0711 18:55:49.839128 22940 net.cpp:148] Top shape: 512 2 (1024)
I0711 18:55:49.839134 22940 net.cpp:156] Memory required for data: 678422528
I0711 18:55:49.839144 22940 layer_factory.hpp:77] Creating layer loss
I0711 18:55:49.839154 22940 net.cpp:91] Creating Layer loss
I0711 18:55:49.839160 22940 net.cpp:425] loss <- ip2
I0711 18:55:49.839169 22940 net.cpp:425] loss <- label
I0711 18:55:49.839179 22940 net.cpp:399] loss -> loss
I0711 18:55:49.839197 22940 layer_factory.hpp:77] Creating layer loss
…
I0711 18:55:49.840281 22940 net.cpp:313] The NetState phase (1) differed from the phase (0) specified by a rule in layer drop1
I0711 18:55:49.840389 22940 net.cpp:49] Initializing net from parameters: 
name: "fish_filter"
state {
  phase: TEST
}
layer {
  name: "testing_cells"
  type: "Python"
  top: "image"
  top: "label"
  include {
    phase: TEST
  }
  python_param {
    module: "fisherman.caffe_layers"
    layer: "DataMapLayer"
    param_str: "{\'tops\': [\'image\', \'label\'], \'data_dir\': \'/home/sam/code/fisherman/data/dense_labelling_k149/\', \'split\': \'test\', \'samples_per_class\': 256, \'kernel\': 149}"
  }
}
layer {
  name: "conv1"
  type: "Convolution"
  bottom: "image"
  top: "conv1"
  param {
    lr_mult: 1
  }
  param {
    lr_mult: 2
  }
  convolution_param {
    num_output: 15
    kernel_size: 15
    stride: 1
    weight_filler {
      type: "xavier"
    }
    bias_filler {
      type: "constant"
    }
  }
}
layer {
  name: "pool1"
  type: "Pooling"
  bottom: "conv1"
  top: "pool1"
  pooling_param {
    pool: MAX
    kernel_size: 5
    stride: 5
  }
}
layer {
  name: "conv2"
  type: "Convolution"
  bottom: "pool1"
  top: "conv2"
  param {
    lr_mult: 1
  }
  param {
    lr_mult: 2
  }
  convolution_param {
    num_output: 5
    kernel_size: 7
    stride: 1
    weight_filler {
      type: "xavier"
    }
    bias_filler {
      type: "constant"
    }
  }
}
layer {
  name: "pool2"
  type: "Pooling"
  bottom: "conv2"
  top: "pool2"
  pooling_param {
    pool: MAX
    kernel_size: 3
    stride: 3
  }
}
layer {
  name: "ip1"
  type: "InnerProduct"
  bottom: "pool2"
  top: "ip1"
  param {
    lr_mult: 1
  }
  param {
    lr_mult: 2
  }
  inner_product_param {
    num_output: 32
    weight_filler {
      type: "xavier"
    }
    bias_filler {
      type: "constant"
    }
  }
}
layer {
  name: "relu1"
  type: "ReLU"
  bottom: "ip1"
  top: "ip1"
}
layer {
  name: "ip2"
  type: "InnerProduct"
  bottom: "ip1"
  top: "ip2"
  param {
    lr_mult: 1
  }
  param {
    lr_mult: 2
  }
  inner_product_param {
    num_output: 2
    weight_filler {
      type: "xavier"
    }
    bias_filler {
      type: "constant"
    }
  }
}
layer {
  name: "accuracy"
  type: "Accuracy"
  bottom: "ip2"
  bottom: "label"
  top: "accuracy"
  include {
    phase: TEST
  }
}
layer {
  name: "loss"
  type: "SoftmaxWithLoss"
  bottom: "ip2"
  bottom: "label"
  top: "loss"
}
I0711 18:55:49.840884 22940 layer_factory.hpp:77] Creating layer testing_cells
I0711 18:55:49.840952 22940 net.cpp:91] Creating Layer testing_cells
I0711 18:55:49.840966 22940 net.cpp:399] testing_cells -> image
I0711 18:55:49.841022 22940 net.cpp:399] testing_cells -> label
I0711 18:56:44.422816 22940 net.cpp:141] Setting up testing_cells
I0711 18:56:44.422907 22940 net.cpp:148] Top shape: 512 2 149 149 (22733824)
I0711 18:56:44.422915 22940 net.cpp:148] Top shape: 512 (512)
I0711 18:56:44.422920 22940 net.cpp:156] Memory required for data: 90937344
I0711 18:56:44.422929 22940 layer_factory.hpp:77] Creating layer label_testing_cells_1_split
I0711 18:56:44.422942 22940 net.cpp:91] Creating Layer label_testing_cells_1_split
I0711 18:56:44.422950 22940 net.cpp:425] label_testing_cells_1_split <- label
I0711 18:56:44.422956 22940 net.cpp:399] label_testing_cells_1_split -> label_testing_cells_1_split_0
I0711 18:56:44.422968 22940 net.cpp:399] label_testing_cells_1_split -> label_testing_cells_1_split_1
I0711 18:56:44.423002 22940 net.cpp:141] Setting up label_testing_cells_1_split
I0711 18:56:44.423010 22940 net.cpp:148] Top shape: 512 (512)
I0711 18:56:44.423015 22940 net.cpp:148] Top shape: 512 (512)
I0711 18:56:44.423019 22940 net.cpp:156] Memory required for data: 90941440
I0711 18:56:44.423024 22940 layer_factory.hpp:77] Creating layer conv1
I0711 18:56:44.423038 22940 net.cpp:91] Creating Layer conv1
I0711 18:56:44.423043 22940 net.cpp:425] conv1 <- image
I0711 18:56:44.423049 22940 net.cpp:399] conv1 -> conv1
I0711 18:56:44.423254 22940 net.cpp:141] Setting up conv1
I0711 18:56:44.423264 22940 net.cpp:148] Top shape: 512 15 135 135 (139968000)
I0711 18:56:44.423267 22940 net.cpp:156] Memory required for data: 650813440
I0711 18:56:44.423279 22940 layer_factory.hpp:77] Creating layer pool1
I0711 18:56:44.423287 22940 net.cpp:91] Creating Layer pool1
I0711 18:56:44.423292 22940 net.cpp:425] pool1 <- conv1
I0711 18:56:44.423298 22940 net.cpp:399] pool1 -> pool1
I0711 18:56:44.423324 22940 net.cpp:141] Setting up pool1
I0711 18:56:44.423341 22940 net.cpp:148] Top shape: 512 15 27 27 (5598720)
I0711 18:56:44.423344 22940 net.cpp:156] Memory required for data: 673208320
I0711 18:56:44.423348 22940 layer_factory.hpp:77] Creating layer conv2
I0711 18:56:44.423357 22940 net.cpp:91] Creating Layer conv2
I0711 18:56:44.423362 22940 net.cpp:425] conv2 <- pool1
I0711 18:56:44.423378 22940 net.cpp:399] conv2 -> conv2
I0711 18:56:44.423537 22940 net.cpp:141] Setting up conv2
I0711 18:56:44.423545 22940 net.cpp:148] Top shape: 512 5 21 21 (1128960)
I0711 18:56:44.423550 22940 net.cpp:156] Memory required for data: 677724160
I0711 18:56:44.423558 22940 layer_factory.hpp:77] Creating layer pool2
I0711 18:56:44.423564 22940 net.cpp:91] Creating Layer pool2
I0711 18:56:44.423569 22940 net.cpp:425] pool2 <- conv2
I0711 18:56:44.423574 22940 net.cpp:399] pool2 -> pool2
I0711 18:56:44.423598 22940 net.cpp:141] Setting up pool2
I0711 18:56:44.423604 22940 net.cpp:148] Top shape: 512 5 7 7 (125440)
I0711 18:56:44.423607 22940 net.cpp:156] Memory required for data: 678225920
I0711 18:56:44.423612 22940 layer_factory.hpp:77] Creating layer ip1
I0711 18:56:44.423619 22940 net.cpp:91] Creating Layer ip1
I0711 18:56:44.423624 22940 net.cpp:425] ip1 <- pool2
I0711 18:56:44.423630 22940 net.cpp:399] ip1 -> ip1
I0711 18:56:44.423756 22940 net.cpp:141] Setting up ip1
I0711 18:56:44.423763 22940 net.cpp:148] Top shape: 512 32 (16384)
I0711 18:56:44.423768 22940 net.cpp:156] Memory required for data: 678291456
I0711 18:56:44.423775 22940 layer_factory.hpp:77] Creating layer relu1
I0711 18:56:44.423782 22940 net.cpp:91] Creating Layer relu1
I0711 18:56:44.423786 22940 net.cpp:425] relu1 <- ip1
I0711 18:56:44.423792 22940 net.cpp:386] relu1 -> ip1 (in-place)
I0711 18:56:44.423799 22940 net.cpp:141] Setting up relu1
I0711 18:56:44.423804 22940 net.cpp:148] Top shape: 512 32 (16384)
I0711 18:56:44.423807 22940 net.cpp:156] Memory required for data: 678356992
I0711 18:56:44.423811 22940 layer_factory.hpp:77] Creating layer ip2
I0711 18:56:44.423818 22940 net.cpp:91] Creating Layer ip2
I0711 18:56:44.423823 22940 net.cpp:425] ip2 <- ip1
I0711 18:56:44.423830 22940 net.cpp:399] ip2 -> ip2
I0711 18:56:44.423882 22940 net.cpp:141] Setting up ip2
I0711 18:56:44.423889 22940 net.cpp:148] Top shape: 512 2 (1024)
I0711 18:56:44.423893 22940 net.cpp:156] Memory required for data: 678361088
I0711 18:56:44.423899 22940 layer_factory.hpp:77] Creating layer ip2_ip2_0_split
I0711 18:56:44.423933 22940 net.cpp:91] Creating Layer ip2_ip2_0_split
I0711 18:56:44.423938 22940 net.cpp:425] ip2_ip2_0_split <- ip2
I0711 18:56:44.423943 22940 net.cpp:399] ip2_ip2_0_split -> ip2_ip2_0_split_0
I0711 18:56:44.423950 22940 net.cpp:399] ip2_ip2_0_split -> ip2_ip2_0_split_1
I0711 18:56:44.423972 22940 net.cpp:141] Setting up ip2_ip2_0_split
I0711 18:56:44.423979 22940 net.cpp:148] Top shape: 512 2 (1024)
I0711 18:56:44.423985 22940 net.cpp:148] Top shape: 512 2 (1024)
I0711 18:56:44.423988 22940 net.cpp:156] Memory required for data: 678369280
I0711 18:56:44.423992 22940 layer_factory.hpp:77] Creating layer accuracy
I0711 18:56:44.424001 22940 net.cpp:91] Creating Layer accuracy
I0711 18:56:44.424006 22940 net.cpp:425] accuracy <- ip2_ip2_0_split_0
I0711 18:56:44.424011 22940 net.cpp:425] accuracy <- label_testing_cells_1_split_0
I0711 18:56:44.424017 22940 net.cpp:399] accuracy -> accuracy
…
