…
I0630 12:08:34.057916 30262 net.cpp:313] The NetState phase (0) differed from the phase (1) specified by a rule in layer testing_cells
I0630 12:08:34.057945 30262 net.cpp:313] The NetState phase (0) differed from the phase (1) specified by a rule in layer accuracy
I0630 12:08:34.058015 30262 net.cpp:49] Initializing net from parameters: 
name: "fish_filter"
state {
  phase: TRAIN
}
layer {
  name: "training_cells"
  type: "Data"
  top: "image"
  top: "label"
  include {
    phase: TRAIN
  }
  data_param {
    source: "/home/sam/code/fisherman/data/original_and_partial_qc_2_channel_k149_scaled/training_db"
    batch_size: 256
    backend: LMDB
  }
}
layer {
  name: "conv1"
  type: "Convolution"
  bottom: "image"
  top: "conv1"
  param {
    lr_mult: 1
  }
  param {
    lr_mult: 2
  }
  convolution_param {
    num_output: 15
    kernel_size: 15
    stride: 1
    weight_filler {
      type: "xavier"
    }
    bias_filler {
      type: "constant"
    }
  }
}
layer {
  name: "pool1"
  type: "Pooling"
  bottom: "conv1"
  top: "pool1"
  pooling_param {
    pool: MAX
    kernel_size: 5
    stride: 5
  }
}
layer {
  name: "conv2"
  type: "Convolution"
  bottom: "pool1"
  top: "conv2"
  param {
    lr_mult: 1
  }
  param {
    lr_mult: 2
  }
  convolution_param {
    num_output: 5
    kernel_size: 7
    stride: 1
    weight_filler {
      type: "xavier"
    }
    bias_filler {
      type: "constant"
    }
  }
}
layer {
  name: "pool2"
  type: "Pooling"
  bottom: "conv2"
  top: "pool2"
  pooling_param {
    pool: MAX
    kernel_size: 3
    stride: 3
  }
}
layer {
  name: "ip1"
  type: "InnerProduct"
  bottom: "pool2"
  top: "ip1"
  param {
    lr_mult: 1
  }
  param {
    lr_mult: 2
  }
  inner_product_param {
    num_output: 32
    weight_filler {
      type: "xavier"
    }
    bias_filler {
      type: "constant"
    }
  }
}
layer {
  name: "relu1"
  type: "ReLU"
  bottom: "ip1"
  top: "ip1"
}
layer {
  name: "drop1"
  type: "Dropout"
  bottom: "ip1"
  top: "ip1"
  include {
    phase: TRAIN
  }
  dropout_param {
    dropout_ratio: 0.5
  }
}
layer {
  name: "ip2"
  type: "InnerProduct"
  bottom: "ip1"
  top: "ip2"
  param {
    lr_mult: 1
  }
  param {
    lr_mult: 2
  }
  inner_product_param {
    num_output: 2
    weight_filler {
      type: "xavier"
    }
    bias_filler {
      type: "constant"
    }
  }
}
layer {
  name: "loss"
  type: "SoftmaxWithLoss"
  bottom: "ip2"
  bottom: "label"
  top: "loss"
}
I0630 12:08:34.058353 30262 layer_factory.hpp:77] Creating layer training_cells
I0630 12:08:34.058908 30262 net.cpp:91] Creating Layer training_cells
I0630 12:08:34.058922 30262 net.cpp:399] training_cells -> image
I0630 12:08:34.058944 30262 net.cpp:399] training_cells -> label
I0630 12:08:34.061143 30274 db_lmdb.cpp:35] Opened lmdb /home/sam/code/fisherman/data/original_and_partial_qc_2_channel_k149_scaled/training_db
I0630 12:08:34.218713 30262 data_layer.cpp:41] output data size: 256,2,149,149
I0630 12:08:34.308784 30262 net.cpp:141] Setting up training_cells
I0630 12:08:34.308817 30262 net.cpp:148] Top shape: 256 2 149 149 (11366912)
I0630 12:08:34.308826 30262 net.cpp:148] Top shape: 256 (256)
I0630 12:08:34.308831 30262 net.cpp:156] Memory required for data: 45468672
I0630 12:08:34.308842 30262 layer_factory.hpp:77] Creating layer conv1
I0630 12:08:34.308862 30262 net.cpp:91] Creating Layer conv1
I0630 12:08:34.308876 30262 net.cpp:425] conv1 <- image
I0630 12:08:34.308889 30262 net.cpp:399] conv1 -> conv1
I0630 12:08:34.313529 30262 net.cpp:141] Setting up conv1
I0630 12:08:34.313546 30262 net.cpp:148] Top shape: 256 15 135 135 (69984000)
I0630 12:08:34.313552 30262 net.cpp:156] Memory required for data: 325404672
I0630 12:08:34.313567 30262 layer_factory.hpp:77] Creating layer pool1
I0630 12:08:34.313578 30262 net.cpp:91] Creating Layer pool1
I0630 12:08:34.313583 30262 net.cpp:425] pool1 <- conv1
I0630 12:08:34.313591 30262 net.cpp:399] pool1 -> pool1
I0630 12:08:34.326110 30262 net.cpp:141] Setting up pool1
I0630 12:08:34.326130 30262 net.cpp:148] Top shape: 256 15 27 27 (2799360)
I0630 12:08:34.326136 30262 net.cpp:156] Memory required for data: 336602112
I0630 12:08:34.326151 30262 layer_factory.hpp:77] Creating layer conv2
I0630 12:08:34.326166 30262 net.cpp:91] Creating Layer conv2
I0630 12:08:34.326175 30262 net.cpp:425] conv2 <- pool1
I0630 12:08:34.326190 30262 net.cpp:399] conv2 -> conv2
I0630 12:08:34.333232 30262 net.cpp:141] Setting up conv2
I0630 12:08:34.333281 30262 net.cpp:148] Top shape: 256 5 21 21 (564480)
I0630 12:08:34.333286 30262 net.cpp:156] Memory required for data: 338860032
I0630 12:08:34.333300 30262 layer_factory.hpp:77] Creating layer pool2
I0630 12:08:34.333317 30262 net.cpp:91] Creating Layer pool2
I0630 12:08:34.333323 30262 net.cpp:425] pool2 <- conv2
I0630 12:08:34.333333 30262 net.cpp:399] pool2 -> pool2
I0630 12:08:34.333367 30262 net.cpp:141] Setting up pool2
I0630 12:08:34.333375 30262 net.cpp:148] Top shape: 256 5 7 7 (62720)
I0630 12:08:34.333379 30262 net.cpp:156] Memory required for data: 339110912
I0630 12:08:34.333384 30262 layer_factory.hpp:77] Creating layer ip1
I0630 12:08:34.333395 30262 net.cpp:91] Creating Layer ip1
I0630 12:08:34.333400 30262 net.cpp:425] ip1 <- pool2
I0630 12:08:34.333406 30262 net.cpp:399] ip1 -> ip1
I0630 12:08:34.333536 30262 net.cpp:141] Setting up ip1
I0630 12:08:34.333544 30262 net.cpp:148] Top shape: 256 32 (8192)
I0630 12:08:34.333549 30262 net.cpp:156] Memory required for data: 339143680
I0630 12:08:34.333557 30262 layer_factory.hpp:77] Creating layer relu1
I0630 12:08:34.333564 30262 net.cpp:91] Creating Layer relu1
I0630 12:08:34.333570 30262 net.cpp:425] relu1 <- ip1
I0630 12:08:34.333576 30262 net.cpp:386] relu1 -> ip1 (in-place)
I0630 12:08:34.333588 30262 net.cpp:141] Setting up relu1
I0630 12:08:34.333601 30262 net.cpp:148] Top shape: 256 32 (8192)
I0630 12:08:34.333606 30262 net.cpp:156] Memory required for data: 339176448
I0630 12:08:34.333611 30262 layer_factory.hpp:77] Creating layer drop1
I0630 12:08:34.333629 30262 net.cpp:91] Creating Layer drop1
I0630 12:08:34.333636 30262 net.cpp:425] drop1 <- ip1
I0630 12:08:34.333642 30262 net.cpp:386] drop1 -> ip1 (in-place)
I0630 12:08:34.333665 30262 net.cpp:141] Setting up drop1
I0630 12:08:34.333673 30262 net.cpp:148] Top shape: 256 32 (8192)
I0630 12:08:34.333678 30262 net.cpp:156] Memory required for data: 339209216
I0630 12:08:34.333681 30262 layer_factory.hpp:77] Creating layer ip2
I0630 12:08:34.333690 30262 net.cpp:91] Creating Layer ip2
I0630 12:08:34.333695 30262 net.cpp:425] ip2 <- ip1
I0630 12:08:34.333703 30262 net.cpp:399] ip2 -> ip2
I0630 12:08:34.333765 30262 net.cpp:141] Setting up ip2
I0630 12:08:34.333773 30262 net.cpp:148] Top shape: 256 2 (512)
I0630 12:08:34.333777 30262 net.cpp:156] Memory required for data: 339211264
I0630 12:08:34.333784 30262 layer_factory.hpp:77] Creating layer loss
I0630 12:08:34.333791 30262 net.cpp:91] Creating Layer loss
I0630 12:08:34.333797 30262 net.cpp:425] loss <- ip2
I0630 12:08:34.333802 30262 net.cpp:425] loss <- label
I0630 12:08:34.333809 30262 net.cpp:399] loss -> loss
I0630 12:08:34.333823 30262 layer_factory.hpp:77] Creating layer loss
…
I0630 12:08:34.334497 30262 net.cpp:313] The NetState phase (1) differed from the phase (0) specified by a rule in layer training_cells
I0630 12:08:34.334511 30262 net.cpp:313] The NetState phase (1) differed from the phase (0) specified by a rule in layer drop1
I0630 12:08:34.334604 30262 net.cpp:49] Initializing net from parameters: 
name: "fish_filter"
state {
  phase: TEST
}
layer {
  name: "testing_cells"
  type: "Data"
  top: "image"
  top: "label"
  include {
    phase: TEST
  }
  data_param {
    source: "/home/sam/code/fisherman/data/original_and_partial_qc_2_channel_k149_scaled/testing_db"
    batch_size: 256
    backend: LMDB
  }
}
layer {
  name: "conv1"
  type: "Convolution"
  bottom: "image"
  top: "conv1"
  param {
    lr_mult: 1
  }
  param {
    lr_mult: 2
  }
  convolution_param {
    num_output: 15
    kernel_size: 15
    stride: 1
    weight_filler {
      type: "xavier"
    }
    bias_filler {
      type: "constant"
    }
  }
}
layer {
  name: "pool1"
  type: "Pooling"
  bottom: "conv1"
  top: "pool1"
  pooling_param {
    pool: MAX
    kernel_size: 5
    stride: 5
  }
}
layer {
  name: "conv2"
  type: "Convolution"
  bottom: "pool1"
  top: "conv2"
  param {
    lr_mult: 1
  }
  param {
    lr_mult: 2
  }
  convolution_param {
    num_output: 5
    kernel_size: 7
    stride: 1
    weight_filler {
      type: "xavier"
    }
    bias_filler {
      type: "constant"
    }
  }
}
layer {
  name: "pool2"
  type: "Pooling"
  bottom: "conv2"
  top: "pool2"
  pooling_param {
    pool: MAX
    kernel_size: 3
    stride: 3
  }
}
layer {
  name: "ip1"
  type: "InnerProduct"
  bottom: "pool2"
  top: "ip1"
  param {
    lr_mult: 1
  }
  param {
    lr_mult: 2
  }
  inner_product_param {
    num_output: 32
    weight_filler {
      type: "xavier"
    }
    bias_filler {
      type: "constant"
    }
  }
}
layer {
  name: "relu1"
  type: "ReLU"
  bottom: "ip1"
  top: "ip1"
}
layer {
  name: "ip2"
  type: "InnerProduct"
  bottom: "ip1"
  top: "ip2"
  param {
    lr_mult: 1
  }
  param {
    lr_mult: 2
  }
  inner_product_param {
    num_output: 2
    weight_filler {
      type: "xavier"
    }
    bias_filler {
      type: "constant"
    }
  }
}
layer {
  name: "accuracy"
  type: "Accuracy"
  bottom: "ip2"
  bottom: "label"
  top: "accuracy"
  include {
    phase: TEST
  }
}
layer {
  name: "loss"
  type: "SoftmaxWithLoss"
  bottom: "ip2"
  bottom: "label"
  top: "loss"
}
I0630 12:08:34.334915 30262 layer_factory.hpp:77] Creating layer testing_cells
I0630 12:08:34.335108 30262 net.cpp:91] Creating Layer testing_cells
I0630 12:08:34.335117 30262 net.cpp:399] testing_cells -> image
I0630 12:08:34.335129 30262 net.cpp:399] testing_cells -> label
I0630 12:08:34.337000 30276 db_lmdb.cpp:35] Opened lmdb /home/sam/code/fisherman/data/original_and_partial_qc_2_channel_k149_scaled/testing_db
I0630 12:08:34.338943 30262 data_layer.cpp:41] output data size: 256,2,149,149
I0630 12:08:34.490176 30262 net.cpp:141] Setting up testing_cells
I0630 12:08:34.490227 30262 net.cpp:148] Top shape: 256 2 149 149 (11366912)
I0630 12:08:34.490243 30262 net.cpp:148] Top shape: 256 (256)
I0630 12:08:34.490250 30262 net.cpp:156] Memory required for data: 45468672
I0630 12:08:34.490339 30262 layer_factory.hpp:77] Creating layer label_testing_cells_1_split
I0630 12:08:34.490365 30262 net.cpp:91] Creating Layer label_testing_cells_1_split
I0630 12:08:34.490381 30262 net.cpp:425] label_testing_cells_1_split <- label
I0630 12:08:34.490396 30262 net.cpp:399] label_testing_cells_1_split -> label_testing_cells_1_split_0
I0630 12:08:34.490422 30262 net.cpp:399] label_testing_cells_1_split -> label_testing_cells_1_split_1
I0630 12:08:34.490495 30262 net.cpp:141] Setting up label_testing_cells_1_split
I0630 12:08:34.490512 30262 net.cpp:148] Top shape: 256 (256)
I0630 12:08:34.490520 30262 net.cpp:148] Top shape: 256 (256)
I0630 12:08:34.490528 30262 net.cpp:156] Memory required for data: 45470720
I0630 12:08:34.490537 30262 layer_factory.hpp:77] Creating layer conv1
I0630 12:08:34.490566 30262 net.cpp:91] Creating Layer conv1
I0630 12:08:34.490574 30262 net.cpp:425] conv1 <- image
I0630 12:08:34.490586 30262 net.cpp:399] conv1 -> conv1
I0630 12:08:34.490947 30262 net.cpp:141] Setting up conv1
I0630 12:08:34.490968 30262 net.cpp:148] Top shape: 256 15 135 135 (69984000)
I0630 12:08:34.490978 30262 net.cpp:156] Memory required for data: 325406720
I0630 12:08:34.490996 30262 layer_factory.hpp:77] Creating layer pool1
I0630 12:08:34.491016 30262 net.cpp:91] Creating Layer pool1
I0630 12:08:34.491026 30262 net.cpp:425] pool1 <- conv1
I0630 12:08:34.491041 30262 net.cpp:399] pool1 -> pool1
I0630 12:08:34.491108 30262 net.cpp:141] Setting up pool1
I0630 12:08:34.491123 30262 net.cpp:148] Top shape: 256 15 27 27 (2799360)
I0630 12:08:34.491132 30262 net.cpp:156] Memory required for data: 336604160
I0630 12:08:34.491138 30262 layer_factory.hpp:77] Creating layer conv2
I0630 12:08:34.491158 30262 net.cpp:91] Creating Layer conv2
I0630 12:08:34.491170 30262 net.cpp:425] conv2 <- pool1
I0630 12:08:34.491184 30262 net.cpp:399] conv2 -> conv2
I0630 12:08:34.524590 30262 net.cpp:141] Setting up conv2
I0630 12:08:34.526769 30262 net.cpp:148] Top shape: 256 5 21 21 (564480)
I0630 12:08:34.528759 30262 net.cpp:156] Memory required for data: 338862080
I0630 12:08:34.528792 30262 layer_factory.hpp:77] Creating layer pool2
I0630 12:08:34.528811 30262 net.cpp:91] Creating Layer pool2
I0630 12:08:34.528820 30262 net.cpp:425] pool2 <- conv2
I0630 12:08:34.528833 30262 net.cpp:399] pool2 -> pool2
I0630 12:08:34.532500 30262 net.cpp:141] Setting up pool2
I0630 12:08:34.532551 30262 net.cpp:148] Top shape: 256 5 7 7 (62720)
I0630 12:08:34.532559 30262 net.cpp:156] Memory required for data: 339112960
I0630 12:08:34.532568 30262 layer_factory.hpp:77] Creating layer ip1
I0630 12:08:34.532595 30262 net.cpp:91] Creating Layer ip1
I0630 12:08:34.532608 30262 net.cpp:425] ip1 <- pool2
I0630 12:08:34.532631 30262 net.cpp:399] ip1 -> ip1
I0630 12:08:34.534874 30262 net.cpp:141] Setting up ip1
I0630 12:08:34.535001 30262 net.cpp:148] Top shape: 256 32 (8192)
I0630 12:08:34.535058 30262 net.cpp:156] Memory required for data: 339145728
I0630 12:08:34.535122 30262 layer_factory.hpp:77] Creating layer relu1
I0630 12:08:34.535183 30262 net.cpp:91] Creating Layer relu1
I0630 12:08:34.535235 30262 net.cpp:425] relu1 <- ip1
I0630 12:08:34.535286 30262 net.cpp:386] relu1 -> ip1 (in-place)
I0630 12:08:34.535332 30262 net.cpp:141] Setting up relu1
I0630 12:08:34.535374 30262 net.cpp:148] Top shape: 256 32 (8192)
I0630 12:08:34.535413 30262 net.cpp:156] Memory required for data: 339178496
I0630 12:08:34.535450 30262 layer_factory.hpp:77] Creating layer ip2
I0630 12:08:34.535496 30262 net.cpp:91] Creating Layer ip2
I0630 12:08:34.535537 30262 net.cpp:425] ip2 <- ip1
I0630 12:08:34.536901 30262 net.cpp:399] ip2 -> ip2
I0630 12:08:34.537194 30262 net.cpp:141] Setting up ip2
I0630 12:08:34.537261 30262 net.cpp:148] Top shape: 256 2 (512)
I0630 12:08:34.537312 30262 net.cpp:156] Memory required for data: 339180544
I0630 12:08:34.537360 30262 layer_factory.hpp:77] Creating layer ip2_ip2_0_split
I0630 12:08:34.538985 30262 net.cpp:91] Creating Layer ip2_ip2_0_split
I0630 12:08:34.539057 30262 net.cpp:425] ip2_ip2_0_split <- ip2
I0630 12:08:34.539255 30262 net.cpp:399] ip2_ip2_0_split -> ip2_ip2_0_split_0
I0630 12:08:34.539315 30262 net.cpp:399] ip2_ip2_0_split -> ip2_ip2_0_split_1
I0630 12:08:34.539428 30262 net.cpp:141] Setting up ip2_ip2_0_split
I0630 12:08:34.539485 30262 net.cpp:148] Top shape: 256 2 (512)
I0630 12:08:34.539541 30262 net.cpp:148] Top shape: 256 2 (512)
I0630 12:08:34.539588 30262 net.cpp:156] Memory required for data: 339184640
I0630 12:08:34.539636 30262 layer_factory.hpp:77] Creating layer accuracy
I0630 12:08:34.539697 30262 net.cpp:91] Creating Layer accuracy
I0630 12:08:34.539749 30262 net.cpp:425] accuracy <- ip2_ip2_0_split_0
I0630 12:08:34.539799 30262 net.cpp:425] accuracy <- label_testing_cells_1_split_0
I0630 12:08:34.539855 30262 net.cpp:399] accuracy -> accuracy
…
