…
I0702 10:40:47.187665  7772 net.cpp:49] Initializing net from parameters: 
name: "fish_filter"
state {
  phase: TRAIN
}
layer {
  name: "training_cells"
  type: "Python"
  top: "image"
  top: "label"
  include {
    phase: TRAIN
  }
  python_param {
    module: "fisherman.caffe_layers"
    layer: "ChunkingFishFovDataLayer"
    param_str: "{\'tops\': [\'image\', \'label\'], \'seed\': 1337, \'data_dir\': \'/home/sam/code/fisherman/data/dense_labelling_same_res/\', \'split\': \'train\', \'n_samples\': 20, \'chunker_params\': {\'chunk_size\': 254, \'window_size\': 1}}"
  }
}
layer {
  name: "conv1"
  type: "Convolution"
  bottom: "image"
  top: "conv1"
  param {
    lr_mult: 1
  }
  param {
    lr_mult: 2
  }
  convolution_param {
    num_output: 15
    kernel_size: 15
    stride: 1
    weight_filler {
      type: "xavier"
    }
    bias_filler {
      type: "constant"
    }
  }
}
layer {
  name: "pool1"
  type: "Pooling"
  bottom: "conv1"
  top: "pool1"
  pooling_param {
    pool: MAX
    kernel_size: 5
    stride: 5
  }
}
layer {
  name: "conv2"
  type: "Convolution"
  bottom: "pool1"
  top: "conv2"
  param {
    lr_mult: 1
  }
  param {
    lr_mult: 2
  }
  convolution_param {
    num_output: 5
    kernel_size: 7
    stride: 1
    weight_filler {
      type: "xavier"
    }
    bias_filler {
      type: "constant"
    }
  }
}
layer {
  name: "pool2"
  type: "Pooling"
  bottom: "conv2"
  top: "pool2"
  pooling_param {
    pool: MAX
    kernel_size: 3
    stride: 3
  }
}
layer {
  name: "ip_conv1"
  type: "Convolution"
  bottom: "pool2"
  top: "ip_conv_1"
  param {
    lr_mult: 1
  }
  param {
    lr_mult: 2
  }
  convolution_param {
    num_output: 32
    kernel_size: 7
    stride: 1
    weight_filler {
      type: "xavier"
    }
    bias_filler {
      type: "constant"
    }
  }
}
layer {
  name: "relu1"
  type: "ReLU"
  bottom: "ip_conv_1"
  top: "ip_conv_1"
}
layer {
  name: "drop1"
  type: "Dropout"
  bottom: "ip_conv_1"
  top: "ip_conv_1"
  dropout_param {
    dropout_ratio: 0.5
  }
}
layer {
  name: "ip_conv2"
  type: "Convolution"
  bottom: "ip_conv_1"
  top: "ip_conv2"
  param {
    lr_mult: 1
  }
  param {
    lr_mult: 2
  }
  convolution_param {
    num_output: 2
    kernel_size: 1
    stride: 1
    weight_filler {
      type: "xavier"
    }
    bias_filler {
      type: "constant"
    }
  }
}
layer {
  name: "upsample"
  type: "Deconvolution"
  bottom: "ip_conv2"
  top: "upsample"
  param {
    lr_mult: 0
  }
  convolution_param {
    num_output: 2
    bias_term: false
    kernel_size: 149
    stride: 15
  }
}
layer {
  name: "loss"
  type: "InfogainSoftmaxLoss"
  bottom: "upsample"
  bottom: "label"
  top: "loss"
  loss_param {
    normalize: true
  }
  infogain_loss_param {
    source: "/home/sam/code/fisherman/infogainH.binaryproto"
  }
  softmax_param {
    axis: 1
  }
}
I0702 10:40:47.188037  7772 layer_factory.hpp:77] Creating layer training_cells
I0702 10:40:47.994102  7772 net.cpp:91] Creating Layer training_cells
I0702 10:40:47.994132  7772 net.cpp:399] training_cells -> image
I0702 10:40:47.994150  7772 net.cpp:399] training_cells -> label
I0702 10:40:48.069682  7772 net.cpp:141] Setting up training_cells
I0702 10:40:48.069717  7772 net.cpp:148] Top shape: 20 2 254 254 (2580640)
I0702 10:40:48.069783  7772 net.cpp:148] Top shape: 20 1 254 254 (1290320)
I0702 10:40:48.069798  7772 net.cpp:156] Memory required for data: 15483840
I0702 10:40:48.069811  7772 layer_factory.hpp:77] Creating layer conv1
I0702 10:40:48.069835  7772 net.cpp:91] Creating Layer conv1
I0702 10:40:48.069842  7772 net.cpp:425] conv1 <- image
I0702 10:40:48.069855  7772 net.cpp:399] conv1 -> conv1
I0702 10:40:48.072892  7772 net.cpp:141] Setting up conv1
I0702 10:40:48.072917  7772 net.cpp:148] Top shape: 20 15 240 240 (17280000)
I0702 10:40:48.072922  7772 net.cpp:156] Memory required for data: 84603840
I0702 10:40:48.072937  7772 layer_factory.hpp:77] Creating layer pool1
I0702 10:40:48.072948  7772 net.cpp:91] Creating Layer pool1
I0702 10:40:48.072953  7772 net.cpp:425] pool1 <- conv1
I0702 10:40:48.072958  7772 net.cpp:399] pool1 -> pool1
I0702 10:40:48.072996  7772 net.cpp:141] Setting up pool1
I0702 10:40:48.073004  7772 net.cpp:148] Top shape: 20 15 48 48 (691200)
I0702 10:40:48.073009  7772 net.cpp:156] Memory required for data: 87368640
I0702 10:40:48.073014  7772 layer_factory.hpp:77] Creating layer conv2
I0702 10:40:48.073024  7772 net.cpp:91] Creating Layer conv2
I0702 10:40:48.073027  7772 net.cpp:425] conv2 <- pool1
I0702 10:40:48.073035  7772 net.cpp:399] conv2 -> conv2
I0702 10:40:48.075572  7772 net.cpp:141] Setting up conv2
I0702 10:40:48.075597  7772 net.cpp:148] Top shape: 20 5 42 42 (176400)
I0702 10:40:48.075601  7772 net.cpp:156] Memory required for data: 88074240
I0702 10:40:48.075610  7772 layer_factory.hpp:77] Creating layer pool2
I0702 10:40:48.075619  7772 net.cpp:91] Creating Layer pool2
I0702 10:40:48.075624  7772 net.cpp:425] pool2 <- conv2
I0702 10:40:48.075630  7772 net.cpp:399] pool2 -> pool2
I0702 10:40:48.075656  7772 net.cpp:141] Setting up pool2
I0702 10:40:48.075664  7772 net.cpp:148] Top shape: 20 5 14 14 (19600)
I0702 10:40:48.075669  7772 net.cpp:156] Memory required for data: 88152640
I0702 10:40:48.075672  7772 layer_factory.hpp:77] Creating layer ip_conv1
I0702 10:40:48.075682  7772 net.cpp:91] Creating Layer ip_conv1
I0702 10:40:48.075687  7772 net.cpp:425] ip_conv1 <- pool2
I0702 10:40:48.075695  7772 net.cpp:399] ip_conv1 -> ip_conv_1
I0702 10:40:48.075873  7772 net.cpp:141] Setting up ip_conv1
I0702 10:40:48.075882  7772 net.cpp:148] Top shape: 20 32 8 8 (40960)
I0702 10:40:48.075887  7772 net.cpp:156] Memory required for data: 88316480
I0702 10:40:48.075896  7772 layer_factory.hpp:77] Creating layer relu1
I0702 10:40:48.075902  7772 net.cpp:91] Creating Layer relu1
I0702 10:40:48.075906  7772 net.cpp:425] relu1 <- ip_conv_1
I0702 10:40:48.075912  7772 net.cpp:386] relu1 -> ip_conv_1 (in-place)
I0702 10:40:48.075920  7772 net.cpp:141] Setting up relu1
I0702 10:40:48.075927  7772 net.cpp:148] Top shape: 20 32 8 8 (40960)
I0702 10:40:48.075930  7772 net.cpp:156] Memory required for data: 88480320
I0702 10:40:48.075935  7772 layer_factory.hpp:77] Creating layer drop1
I0702 10:40:48.075942  7772 net.cpp:91] Creating Layer drop1
I0702 10:40:48.075947  7772 net.cpp:425] drop1 <- ip_conv_1
I0702 10:40:48.075951  7772 net.cpp:386] drop1 -> ip_conv_1 (in-place)
I0702 10:40:48.075970  7772 net.cpp:141] Setting up drop1
I0702 10:40:48.075978  7772 net.cpp:148] Top shape: 20 32 8 8 (40960)
I0702 10:40:48.075981  7772 net.cpp:156] Memory required for data: 88644160
I0702 10:40:48.075985  7772 layer_factory.hpp:77] Creating layer ip_conv2
I0702 10:40:48.075995  7772 net.cpp:91] Creating Layer ip_conv2
I0702 10:40:48.076000  7772 net.cpp:425] ip_conv2 <- ip_conv_1
I0702 10:40:48.076007  7772 net.cpp:399] ip_conv2 -> ip_conv2
I0702 10:40:48.076146  7772 net.cpp:141] Setting up ip_conv2
I0702 10:40:48.076154  7772 net.cpp:148] Top shape: 20 2 8 8 (2560)
I0702 10:40:48.076159  7772 net.cpp:156] Memory required for data: 88654400
I0702 10:40:48.076164  7772 layer_factory.hpp:77] Creating layer upsample
I0702 10:40:48.076185  7772 net.cpp:91] Creating Layer upsample
I0702 10:40:48.076190  7772 net.cpp:425] upsample <- ip_conv2
I0702 10:40:48.076196  7772 net.cpp:399] upsample -> upsample
I0702 10:40:48.076715  7772 net.cpp:141] Setting up upsample
I0702 10:40:48.076738  7772 net.cpp:148] Top shape: 20 2 254 254 (2580640)
I0702 10:40:48.076745  7772 net.cpp:156] Memory required for data: 98976960
I0702 10:40:48.076752  7772 layer_factory.hpp:77] Creating layer loss
I0702 10:40:48.076764  7772 net.cpp:91] Creating Layer loss
I0702 10:40:48.076769  7772 net.cpp:425] loss <- upsample
I0702 10:40:48.076774  7772 net.cpp:425] loss <- label
I0702 10:40:48.076781  7772 net.cpp:399] loss -> loss
I0702 10:40:48.076797  7772 layer_factory.hpp:77] Creating layer loss
…
I0702 10:40:48.086278  7772 net.cpp:49] Initializing net from parameters: 
name: "fish_filter"
state {
  phase: TEST
}
layer {
  name: "testing_cells"
  type: "Python"
  top: "image"
  top: "label"
  include {
    phase: TEST
  }
  python_param {
    module: "fisherman.caffe_layers"
    layer: "ChunkingFishFovDataLayer"
    param_str: "{\'tops\': [\'image\', \'label\'], \'seed\': 1337, \'data_dir\': \'/home/sam/code/fisherman/data/dense_labelling_same_res/\', \'split\': \'test\', \'n_samples\': 5, \'chunker_params\': {\'chunk_size\': 254, \'window_size\': 1}}"
  }
}
layer {
  name: "conv1"
  type: "Convolution"
  bottom: "image"
  top: "conv1"
  param {
    lr_mult: 1
  }
  param {
    lr_mult: 2
  }
  convolution_param {
    num_output: 15
    kernel_size: 15
    stride: 1
    weight_filler {
      type: "xavier"
    }
    bias_filler {
      type: "constant"
    }
  }
}
layer {
  name: "pool1"
  type: "Pooling"
  bottom: "conv1"
  top: "pool1"
  pooling_param {
    pool: MAX
    kernel_size: 5
    stride: 5
  }
}
layer {
  name: "conv2"
  type: "Convolution"
  bottom: "pool1"
  top: "conv2"
  param {
    lr_mult: 1
  }
  param {
    lr_mult: 2
  }
  convolution_param {
    num_output: 5
    kernel_size: 7
    stride: 1
    weight_filler {
      type: "xavier"
    }
    bias_filler {
      type: "constant"
    }
  }
}
layer {
  name: "pool2"
  type: "Pooling"
  bottom: "conv2"
  top: "pool2"
  pooling_param {
    pool: MAX
    kernel_size: 3
    stride: 3
  }
}
layer {
  name: "ip_conv1"
  type: "Convolution"
  bottom: "pool2"
  top: "ip_conv_1"
  param {
    lr_mult: 1
  }
  param {
    lr_mult: 2
  }
  convolution_param {
    num_output: 32
    kernel_size: 7
    stride: 1
    weight_filler {
      type: "xavier"
    }
    bias_filler {
      type: "constant"
    }
  }
}
layer {
  name: "relu1"
  type: "ReLU"
  bottom: "ip_conv_1"
  top: "ip_conv_1"
}
layer {
  name: "drop1"
  type: "Dropout"
  bottom: "ip_conv_1"
  top: "ip_conv_1"
  dropout_param {
    dropout_ratio: 0.5
  }
}
layer {
  name: "ip_conv2"
  type: "Convolution"
  bottom: "ip_conv_1"
  top: "ip_conv2"
  param {
    lr_mult: 1
  }
  param {
    lr_mult: 2
  }
  convolution_param {
    num_output: 2
    kernel_size: 1
    stride: 1
    weight_filler {
      type: "xavier"
    }
    bias_filler {
      type: "constant"
    }
  }
}
layer {
  name: "upsample"
  type: "Deconvolution"
  bottom: "ip_conv2"
  top: "upsample"
  param {
    lr_mult: 0
  }
  convolution_param {
    num_output: 2
    bias_term: false
    kernel_size: 149
    stride: 15
  }
}
layer {
  name: "accuracy"
  type: "Accuracy"
  bottom: "upsample"
  bottom: "label"
  top: "accuracy"
  include {
    phase: TEST
  }
}
layer {
  name: "loss"
  type: "InfogainSoftmaxLoss"
  bottom: "upsample"
  bottom: "label"
  top: "loss"
  loss_param {
    normalize: true
  }
  infogain_loss_param {
    source: "/home/sam/code/fisherman/infogainH.binaryproto"
  }
  softmax_param {
    axis: 1
  }
}
I0702 10:40:48.086724  7772 layer_factory.hpp:77] Creating layer testing_cells
I0702 10:40:48.086778  7772 net.cpp:91] Creating Layer testing_cells
I0702 10:40:48.086787  7772 net.cpp:399] testing_cells -> image
I0702 10:40:48.086796  7772 net.cpp:399] testing_cells -> label
I0702 10:40:48.104305  7772 net.cpp:141] Setting up testing_cells
I0702 10:40:48.104351  7772 net.cpp:148] Top shape: 5 2 254 254 (645160)
I0702 10:40:48.104357  7772 net.cpp:148] Top shape: 5 1 254 254 (322580)
I0702 10:40:48.104362  7772 net.cpp:156] Memory required for data: 3870960
I0702 10:40:48.104370  7772 layer_factory.hpp:77] Creating layer label_testing_cells_1_split
I0702 10:40:48.104383  7772 net.cpp:91] Creating Layer label_testing_cells_1_split
I0702 10:40:48.104388  7772 net.cpp:425] label_testing_cells_1_split <- label
I0702 10:40:48.104396  7772 net.cpp:399] label_testing_cells_1_split -> label_testing_cells_1_split_0
I0702 10:40:48.104408  7772 net.cpp:399] label_testing_cells_1_split -> label_testing_cells_1_split_1
I0702 10:40:48.104432  7772 net.cpp:141] Setting up label_testing_cells_1_split
I0702 10:40:48.104439  7772 net.cpp:148] Top shape: 5 1 254 254 (322580)
I0702 10:40:48.104444  7772 net.cpp:148] Top shape: 5 1 254 254 (322580)
I0702 10:40:48.104449  7772 net.cpp:156] Memory required for data: 6451600
I0702 10:40:48.104454  7772 layer_factory.hpp:77] Creating layer conv1
I0702 10:40:48.104465  7772 net.cpp:91] Creating Layer conv1
I0702 10:40:48.104470  7772 net.cpp:425] conv1 <- image
I0702 10:40:48.104475  7772 net.cpp:399] conv1 -> conv1
I0702 10:40:48.104691  7772 net.cpp:141] Setting up conv1
I0702 10:40:48.104701  7772 net.cpp:148] Top shape: 5 15 240 240 (4320000)
I0702 10:40:48.104706  7772 net.cpp:156] Memory required for data: 23731600
I0702 10:40:48.104715  7772 layer_factory.hpp:77] Creating layer pool1
I0702 10:40:48.104723  7772 net.cpp:91] Creating Layer pool1
I0702 10:40:48.104728  7772 net.cpp:425] pool1 <- conv1
I0702 10:40:48.104733  7772 net.cpp:399] pool1 -> pool1
I0702 10:40:48.104758  7772 net.cpp:141] Setting up pool1
I0702 10:40:48.104764  7772 net.cpp:148] Top shape: 5 15 48 48 (172800)
I0702 10:40:48.104769  7772 net.cpp:156] Memory required for data: 24422800
I0702 10:40:48.104773  7772 layer_factory.hpp:77] Creating layer conv2
I0702 10:40:48.104782  7772 net.cpp:91] Creating Layer conv2
I0702 10:40:48.104786  7772 net.cpp:425] conv2 <- pool1
I0702 10:40:48.104792  7772 net.cpp:399] conv2 -> conv2
I0702 10:40:48.104966  7772 net.cpp:141] Setting up conv2
I0702 10:40:48.104985  7772 net.cpp:148] Top shape: 5 5 42 42 (44100)
I0702 10:40:48.104990  7772 net.cpp:156] Memory required for data: 24599200
I0702 10:40:48.104998  7772 layer_factory.hpp:77] Creating layer pool2
I0702 10:40:48.105005  7772 net.cpp:91] Creating Layer pool2
I0702 10:40:48.105010  7772 net.cpp:425] pool2 <- conv2
I0702 10:40:48.105015  7772 net.cpp:399] pool2 -> pool2
I0702 10:40:48.105048  7772 net.cpp:141] Setting up pool2
I0702 10:40:48.105054  7772 net.cpp:148] Top shape: 5 5 14 14 (4900)
I0702 10:40:48.105059  7772 net.cpp:156] Memory required for data: 24618800
I0702 10:40:48.105105  7772 layer_factory.hpp:77] Creating layer ip_conv1
I0702 10:40:48.105114  7772 net.cpp:91] Creating Layer ip_conv1
I0702 10:40:48.105119  7772 net.cpp:425] ip_conv1 <- pool2
I0702 10:40:48.105125  7772 net.cpp:399] ip_conv1 -> ip_conv_1
I0702 10:40:48.105361  7772 net.cpp:141] Setting up ip_conv1
I0702 10:40:48.105381  7772 net.cpp:148] Top shape: 5 32 8 8 (10240)
I0702 10:40:48.105386  7772 net.cpp:156] Memory required for data: 24659760
I0702 10:40:48.105394  7772 layer_factory.hpp:77] Creating layer relu1
I0702 10:40:48.105401  7772 net.cpp:91] Creating Layer relu1
I0702 10:40:48.105406  7772 net.cpp:425] relu1 <- ip_conv_1
I0702 10:40:48.105412  7772 net.cpp:386] relu1 -> ip_conv_1 (in-place)
I0702 10:40:48.105418  7772 net.cpp:141] Setting up relu1
I0702 10:40:48.105423  7772 net.cpp:148] Top shape: 5 32 8 8 (10240)
I0702 10:40:48.105427  7772 net.cpp:156] Memory required for data: 24700720
I0702 10:40:48.105432  7772 layer_factory.hpp:77] Creating layer drop1
I0702 10:40:48.105439  7772 net.cpp:91] Creating Layer drop1
I0702 10:40:48.105444  7772 net.cpp:425] drop1 <- ip_conv_1
I0702 10:40:48.105449  7772 net.cpp:386] drop1 -> ip_conv_1 (in-place)
I0702 10:40:48.105465  7772 net.cpp:141] Setting up drop1
I0702 10:40:48.105473  7772 net.cpp:148] Top shape: 5 32 8 8 (10240)
I0702 10:40:48.105476  7772 net.cpp:156] Memory required for data: 24741680
I0702 10:40:48.105480  7772 layer_factory.hpp:77] Creating layer ip_conv2
I0702 10:40:48.105489  7772 net.cpp:91] Creating Layer ip_conv2
I0702 10:40:48.105494  7772 net.cpp:425] ip_conv2 <- ip_conv_1
I0702 10:40:48.105499  7772 net.cpp:399] ip_conv2 -> ip_conv2
I0702 10:40:48.105639  7772 net.cpp:141] Setting up ip_conv2
I0702 10:40:48.105646  7772 net.cpp:148] Top shape: 5 2 8 8 (640)
I0702 10:40:48.105651  7772 net.cpp:156] Memory required for data: 24744240
I0702 10:40:48.105666  7772 layer_factory.hpp:77] Creating layer upsample
I0702 10:40:48.105674  7772 net.cpp:91] Creating Layer upsample
I0702 10:40:48.105679  7772 net.cpp:425] upsample <- ip_conv2
I0702 10:40:48.105684  7772 net.cpp:399] upsample -> upsample
I0702 10:40:48.105955  7772 net.cpp:141] Setting up upsample
I0702 10:40:48.105975  7772 net.cpp:148] Top shape: 5 2 254 254 (645160)
I0702 10:40:48.105980  7772 net.cpp:156] Memory required for data: 27324880
I0702 10:40:48.105988  7772 layer_factory.hpp:77] Creating layer upsample_upsample_0_split
I0702 10:40:48.105995  7772 net.cpp:91] Creating Layer upsample_upsample_0_split
I0702 10:40:48.105999  7772 net.cpp:425] upsample_upsample_0_split <- upsample
I0702 10:40:48.106005  7772 net.cpp:399] upsample_upsample_0_split -> upsample_upsample_0_split_0
I0702 10:40:48.106012  7772 net.cpp:399] upsample_upsample_0_split -> upsample_upsample_0_split_1
I0702 10:40:48.106045  7772 net.cpp:141] Setting up upsample_upsample_0_split
I0702 10:40:48.106051  7772 net.cpp:148] Top shape: 5 2 254 254 (645160)
I0702 10:40:48.106056  7772 net.cpp:148] Top shape: 5 2 254 254 (645160)
I0702 10:40:48.106061  7772 net.cpp:156] Memory required for data: 32486160
I0702 10:40:48.106066  7772 layer_factory.hpp:77] Creating layer accuracy
I0702 10:40:48.106073  7772 net.cpp:91] Creating Layer accuracy
I0702 10:40:48.106078  7772 net.cpp:425] accuracy <- upsample_upsample_0_split_0
I0702 10:40:48.106083  7772 net.cpp:425] accuracy <- label_testing_cells_1_split_0
I0702 10:40:48.106089  7772 net.cpp:399] accuracy -> accuracy
…
