…
I0701 17:08:38.819490 30467 net.cpp:49] Initializing net from parameters: 
name: "fish_filter"
state {
  phase: TRAIN
}
layer {
  name: "training_cells"
  type: "Python"
  top: "image"
  top: "label"
  include {
    phase: TRAIN
  }
  python_param {
    module: "fisherman.caffe_layers"
    layer: "ChunkingFishFovDataLayer"
    param_str: "{\'tops\': [\'image\', \'label\'], \'seed\': 1337, \'data_dir\': \'/home/sam/code/fisherman/data/dense_labelling_same_res/\', \'split\': \'train\', \'n_samples\': 20, \'chunker_params\': {\'chunk_size\': 254, \'window_size\': 1}}"
  }
}
layer {
  name: "conv1"
  type: "Convolution"
  bottom: "image"
  top: "conv1"
  param {
    lr_mult: 1
  }
  param {
    lr_mult: 2
  }
  convolution_param {
    num_output: 15
    kernel_size: 15
    stride: 1
    weight_filler {
      type: "xavier"
    }
    bias_filler {
      type: "constant"
    }
  }
}
layer {
  name: "pool1"
  type: "Pooling"
  bottom: "conv1"
  top: "pool1"
  pooling_param {
    pool: MAX
    kernel_size: 5
    stride: 5
  }
}
layer {
  name: "conv2"
  type: "Convolution"
  bottom: "pool1"
  top: "conv2"
  param {
    lr_mult: 1
  }
  param {
    lr_mult: 2
  }
  convolution_param {
    num_output: 5
    kernel_size: 7
    stride: 1
    weight_filler {
      type: "xavier"
    }
    bias_filler {
      type: "constant"
    }
  }
}
layer {
  name: "pool2"
  type: "Pooling"
  bottom: "conv2"
  top: "pool2"
  pooling_param {
    pool: MAX
    kernel_size: 3
    stride: 3
  }
}
layer {
  name: "ip_conv1"
  type: "Convolution"
  bottom: "pool2"
  top: "ip_conv_1"
  param {
    lr_mult: 1
  }
  param {
    lr_mult: 2
  }
  convolution_param {
    num_output: 32
    kernel_size: 7
    stride: 1
    weight_filler {
      type: "xavier"
    }
    bias_filler {
      type: "constant"
    }
  }
}
layer {
  name: "relu1"
  type: "ReLU"
  bottom: "ip_conv_1"
  top: "ip_conv_1"
}
layer {
  name: "drop1"
  type: "Dropout"
  bottom: "ip_conv_1"
  top: "ip_conv_1"
  dropout_param {
    dropout_ratio: 0.5
  }
}
layer {
  name: "ip_conv2"
  type: "Convolution"
  bottom: "ip_conv_1"
  top: "ip_conv2"
  param {
    lr_mult: 1
  }
  param {
    lr_mult: 2
  }
  convolution_param {
    num_output: 2
    kernel_size: 1
    stride: 1
    weight_filler {
      type: "xavier"
    }
    bias_filler {
      type: "constant"
    }
  }
}
layer {
  name: "upsample"
  type: "Deconvolution"
  bottom: "ip_conv2"
  top: "upsample"
  param {
    lr_mult: 0
  }
  convolution_param {
    num_output: 2
    bias_term: false
    kernel_size: 149
    stride: 15
  }
}
layer {
  name: "loss"
  type: "InfogainSoftmaxLoss"
  bottom: "upsample"
  bottom: "label"
  top: "loss"
  loss_param {
    normalize: true
  }
  infogain_loss_param {
    source: "/home/sam/code/fisherman/infogainH.binaryproto"
  }
  softmax_param {
    axis: 1
  }
}
I0701 17:08:38.820087 30467 layer_factory.hpp:77] Creating layer training_cells
I0701 17:08:39.591253 30467 net.cpp:91] Creating Layer training_cells
I0701 17:08:39.591286 30467 net.cpp:399] training_cells -> image
I0701 17:08:39.591306 30467 net.cpp:399] training_cells -> label
I0701 17:08:39.674891 30467 net.cpp:141] Setting up training_cells
I0701 17:08:39.674931 30467 net.cpp:148] Top shape: 20 2 254 254 (2580640)
I0701 17:08:39.674994 30467 net.cpp:148] Top shape: 20 1 254 254 (1290320)
I0701 17:08:39.675000 30467 net.cpp:156] Memory required for data: 15483840
I0701 17:08:39.675014 30467 layer_factory.hpp:77] Creating layer conv1
I0701 17:08:39.675036 30467 net.cpp:91] Creating Layer conv1
I0701 17:08:39.675043 30467 net.cpp:425] conv1 <- image
I0701 17:08:39.675060 30467 net.cpp:399] conv1 -> conv1
I0701 17:08:39.678023 30467 net.cpp:141] Setting up conv1
I0701 17:08:39.678048 30467 net.cpp:148] Top shape: 20 15 240 240 (17280000)
I0701 17:08:39.678053 30467 net.cpp:156] Memory required for data: 84603840
I0701 17:08:39.678068 30467 layer_factory.hpp:77] Creating layer pool1
I0701 17:08:39.678077 30467 net.cpp:91] Creating Layer pool1
I0701 17:08:39.678082 30467 net.cpp:425] pool1 <- conv1
I0701 17:08:39.678091 30467 net.cpp:399] pool1 -> pool1
I0701 17:08:39.678128 30467 net.cpp:141] Setting up pool1
I0701 17:08:39.678138 30467 net.cpp:148] Top shape: 20 15 48 48 (691200)
I0701 17:08:39.678141 30467 net.cpp:156] Memory required for data: 87368640
I0701 17:08:39.678146 30467 layer_factory.hpp:77] Creating layer conv2
I0701 17:08:39.678156 30467 net.cpp:91] Creating Layer conv2
I0701 17:08:39.678161 30467 net.cpp:425] conv2 <- pool1
I0701 17:08:39.678169 30467 net.cpp:399] conv2 -> conv2
I0701 17:08:39.678622 30467 net.cpp:141] Setting up conv2
I0701 17:08:39.678644 30467 net.cpp:148] Top shape: 20 5 42 42 (176400)
I0701 17:08:39.678649 30467 net.cpp:156] Memory required for data: 88074240
I0701 17:08:39.678658 30467 layer_factory.hpp:77] Creating layer pool2
I0701 17:08:39.678668 30467 net.cpp:91] Creating Layer pool2
I0701 17:08:39.678673 30467 net.cpp:425] pool2 <- conv2
I0701 17:08:39.678678 30467 net.cpp:399] pool2 -> pool2
I0701 17:08:39.678715 30467 net.cpp:141] Setting up pool2
I0701 17:08:39.678731 30467 net.cpp:148] Top shape: 20 5 14 14 (19600)
I0701 17:08:39.678735 30467 net.cpp:156] Memory required for data: 88152640
I0701 17:08:39.678740 30467 layer_factory.hpp:77] Creating layer ip_conv1
I0701 17:08:39.678750 30467 net.cpp:91] Creating Layer ip_conv1
I0701 17:08:39.678766 30467 net.cpp:425] ip_conv1 <- pool2
I0701 17:08:39.678772 30467 net.cpp:399] ip_conv1 -> ip_conv_1
I0701 17:08:39.679003 30467 net.cpp:141] Setting up ip_conv1
I0701 17:08:39.679025 30467 net.cpp:148] Top shape: 20 32 8 8 (40960)
I0701 17:08:39.679030 30467 net.cpp:156] Memory required for data: 88316480
I0701 17:08:39.679039 30467 layer_factory.hpp:77] Creating layer relu1
I0701 17:08:39.679046 30467 net.cpp:91] Creating Layer relu1
I0701 17:08:39.679051 30467 net.cpp:425] relu1 <- ip_conv_1
I0701 17:08:39.679061 30467 net.cpp:386] relu1 -> ip_conv_1 (in-place)
I0701 17:08:39.679069 30467 net.cpp:141] Setting up relu1
I0701 17:08:39.679083 30467 net.cpp:148] Top shape: 20 32 8 8 (40960)
I0701 17:08:39.679088 30467 net.cpp:156] Memory required for data: 88480320
I0701 17:08:39.679092 30467 layer_factory.hpp:77] Creating layer drop1
I0701 17:08:39.679102 30467 net.cpp:91] Creating Layer drop1
I0701 17:08:39.679106 30467 net.cpp:425] drop1 <- ip_conv_1
I0701 17:08:39.679112 30467 net.cpp:386] drop1 -> ip_conv_1 (in-place)
I0701 17:08:39.679131 30467 net.cpp:141] Setting up drop1
I0701 17:08:39.679138 30467 net.cpp:148] Top shape: 20 32 8 8 (40960)
I0701 17:08:39.679143 30467 net.cpp:156] Memory required for data: 88644160
I0701 17:08:39.679147 30467 layer_factory.hpp:77] Creating layer ip_conv2
I0701 17:08:39.679157 30467 net.cpp:91] Creating Layer ip_conv2
I0701 17:08:39.679162 30467 net.cpp:425] ip_conv2 <- ip_conv_1
I0701 17:08:39.679169 30467 net.cpp:399] ip_conv2 -> ip_conv2
I0701 17:08:39.679338 30467 net.cpp:141] Setting up ip_conv2
I0701 17:08:39.679347 30467 net.cpp:148] Top shape: 20 2 8 8 (2560)
I0701 17:08:39.679352 30467 net.cpp:156] Memory required for data: 88654400
I0701 17:08:39.679358 30467 layer_factory.hpp:77] Creating layer upsample
I0701 17:08:39.679368 30467 net.cpp:91] Creating Layer upsample
I0701 17:08:39.679373 30467 net.cpp:425] upsample <- ip_conv2
I0701 17:08:39.679378 30467 net.cpp:399] upsample -> upsample
I0701 17:08:39.681234 30467 net.cpp:141] Setting up upsample
I0701 17:08:39.681248 30467 net.cpp:148] Top shape: 20 2 254 254 (2580640)
I0701 17:08:39.681253 30467 net.cpp:156] Memory required for data: 98976960
I0701 17:08:39.681262 30467 layer_factory.hpp:77] Creating layer loss
I0701 17:08:39.681272 30467 net.cpp:91] Creating Layer loss
I0701 17:08:39.681277 30467 net.cpp:425] loss <- upsample
I0701 17:08:39.681283 30467 net.cpp:425] loss <- label
I0701 17:08:39.681290 30467 net.cpp:399] loss -> loss
I0701 17:08:39.681305 30467 layer_factory.hpp:77] Creating layer loss
…
I0701 17:08:39.688755 30467 net.cpp:49] Initializing net from parameters: 
name: "fish_filter"
state {
  phase: TEST
}
layer {
  name: "testing_cells"
  type: "Python"
  top: "image"
  top: "label"
  include {
    phase: TEST
  }
  python_param {
    module: "fisherman.caffe_layers"
    layer: "ChunkingFishFovDataLayer"
    param_str: "{\'tops\': [\'image\', \'label\'], \'seed\': 1337, \'data_dir\': \'/home/sam/code/fisherman/data/dense_labelling_same_res/\', \'split\': \'test\', \'n_samples\': 5, \'chunker_params\': {\'chunk_size\': 254, \'window_size\': 1}}"
  }
}
layer {
  name: "conv1"
  type: "Convolution"
  bottom: "image"
  top: "conv1"
  param {
    lr_mult: 1
  }
  param {
    lr_mult: 2
  }
  convolution_param {
    num_output: 15
    kernel_size: 15
    stride: 1
    weight_filler {
      type: "xavier"
    }
    bias_filler {
      type: "constant"
    }
  }
}
layer {
  name: "pool1"
  type: "Pooling"
  bottom: "conv1"
  top: "pool1"
  pooling_param {
    pool: MAX
    kernel_size: 5
    stride: 5
  }
}
layer {
  name: "conv2"
  type: "Convolution"
  bottom: "pool1"
  top: "conv2"
  param {
    lr_mult: 1
  }
  param {
    lr_mult: 2
  }
  convolution_param {
    num_output: 5
    kernel_size: 7
    stride: 1
    weight_filler {
      type: "xavier"
    }
    bias_filler {
      type: "constant"
    }
  }
}
layer {
  name: "pool2"
  type: "Pooling"
  bottom: "conv2"
  top: "pool2"
  pooling_param {
    pool: MAX
    kernel_size: 3
    stride: 3
  }
}
layer {
  name: "ip_conv1"
  type: "Convolution"
  bottom: "pool2"
  top: "ip_conv_1"
  param {
    lr_mult: 1
  }
  param {
    lr_mult: 2
  }
  convolution_param {
    num_output: 32
    kernel_size: 7
    stride: 1
    weight_filler {
      type: "xavier"
    }
    bias_filler {
      type: "constant"
    }
  }
}
layer {
  name: "relu1"
  type: "ReLU"
  bottom: "ip_conv_1"
  top: "ip_conv_1"
}
layer {
  name: "drop1"
  type: "Dropout"
  bottom: "ip_conv_1"
  top: "ip_conv_1"
  dropout_param {
    dropout_ratio: 0.5
  }
}
layer {
  name: "ip_conv2"
  type: "Convolution"
  bottom: "ip_conv_1"
  top: "ip_conv2"
  param {
    lr_mult: 1
  }
  param {
    lr_mult: 2
  }
  convolution_param {
    num_output: 2
    kernel_size: 1
    stride: 1
    weight_filler {
      type: "xavier"
    }
    bias_filler {
      type: "constant"
    }
  }
}
layer {
  name: "upsample"
  type: "Deconvolution"
  bottom: "ip_conv2"
  top: "upsample"
  param {
    lr_mult: 0
  }
  convolution_param {
    num_output: 2
    bias_term: false
    kernel_size: 149
    stride: 15
  }
}
layer {
  name: "accuracy"
  type: "Accuracy"
  bottom: "upsample"
  bottom: "label"
  top: "accuracy"
  include {
    phase: TEST
  }
}
layer {
  name: "loss"
  type: "InfogainSoftmaxLoss"
  bottom: "upsample"
  bottom: "label"
  top: "loss"
  loss_param {
    normalize: true
  }
  infogain_loss_param {
    source: "/home/sam/code/fisherman/infogainH.binaryproto"
  }
  softmax_param {
    axis: 1
  }
}
I0701 17:08:39.689208 30467 layer_factory.hpp:77] Creating layer testing_cells
I0701 17:08:39.689265 30467 net.cpp:91] Creating Layer testing_cells
I0701 17:08:39.689275 30467 net.cpp:399] testing_cells -> image
I0701 17:08:39.689285 30467 net.cpp:399] testing_cells -> label
I0701 17:08:39.709645 30467 net.cpp:141] Setting up testing_cells
I0701 17:08:39.709681 30467 net.cpp:148] Top shape: 5 2 254 254 (645160)
I0701 17:08:39.709691 30467 net.cpp:148] Top shape: 5 1 254 254 (322580)
I0701 17:08:39.709697 30467 net.cpp:156] Memory required for data: 3870960
I0701 17:08:39.709705 30467 layer_factory.hpp:77] Creating layer label_testing_cells_1_split
I0701 17:08:39.709723 30467 net.cpp:91] Creating Layer label_testing_cells_1_split
I0701 17:08:39.709730 30467 net.cpp:425] label_testing_cells_1_split <- label
I0701 17:08:39.709738 30467 net.cpp:399] label_testing_cells_1_split -> label_testing_cells_1_split_0
I0701 17:08:39.709750 30467 net.cpp:399] label_testing_cells_1_split -> label_testing_cells_1_split_1
I0701 17:08:39.709787 30467 net.cpp:141] Setting up label_testing_cells_1_split
I0701 17:08:39.709796 30467 net.cpp:148] Top shape: 5 1 254 254 (322580)
I0701 17:08:39.709801 30467 net.cpp:148] Top shape: 5 1 254 254 (322580)
I0701 17:08:39.709806 30467 net.cpp:156] Memory required for data: 6451600
I0701 17:08:39.709811 30467 layer_factory.hpp:77] Creating layer conv1
I0701 17:08:39.709825 30467 net.cpp:91] Creating Layer conv1
I0701 17:08:39.709830 30467 net.cpp:425] conv1 <- image
I0701 17:08:39.709837 30467 net.cpp:399] conv1 -> conv1
I0701 17:08:39.710072 30467 net.cpp:141] Setting up conv1
I0701 17:08:39.710081 30467 net.cpp:148] Top shape: 5 15 240 240 (4320000)
I0701 17:08:39.710086 30467 net.cpp:156] Memory required for data: 23731600
I0701 17:08:39.710096 30467 layer_factory.hpp:77] Creating layer pool1
I0701 17:08:39.710105 30467 net.cpp:91] Creating Layer pool1
I0701 17:08:39.710111 30467 net.cpp:425] pool1 <- conv1
I0701 17:08:39.710117 30467 net.cpp:399] pool1 -> pool1
I0701 17:08:39.710142 30467 net.cpp:141] Setting up pool1
I0701 17:08:39.710150 30467 net.cpp:148] Top shape: 5 15 48 48 (172800)
I0701 17:08:39.710155 30467 net.cpp:156] Memory required for data: 24422800
I0701 17:08:39.710158 30467 layer_factory.hpp:77] Creating layer conv2
I0701 17:08:39.710168 30467 net.cpp:91] Creating Layer conv2
I0701 17:08:39.710173 30467 net.cpp:425] conv2 <- pool1
I0701 17:08:39.710180 30467 net.cpp:399] conv2 -> conv2
I0701 17:08:39.710340 30467 net.cpp:141] Setting up conv2
I0701 17:08:39.710361 30467 net.cpp:148] Top shape: 5 5 42 42 (44100)
I0701 17:08:39.710366 30467 net.cpp:156] Memory required for data: 24599200
I0701 17:08:39.710374 30467 layer_factory.hpp:77] Creating layer pool2
I0701 17:08:39.710382 30467 net.cpp:91] Creating Layer pool2
I0701 17:08:39.710387 30467 net.cpp:425] pool2 <- conv2
I0701 17:08:39.710393 30467 net.cpp:399] pool2 -> pool2
I0701 17:08:39.710417 30467 net.cpp:141] Setting up pool2
I0701 17:08:39.710424 30467 net.cpp:148] Top shape: 5 5 14 14 (4900)
I0701 17:08:39.710429 30467 net.cpp:156] Memory required for data: 24618800
I0701 17:08:39.710474 30467 layer_factory.hpp:77] Creating layer ip_conv1
I0701 17:08:39.710484 30467 net.cpp:91] Creating Layer ip_conv1
I0701 17:08:39.710490 30467 net.cpp:425] ip_conv1 <- pool2
I0701 17:08:39.710497 30467 net.cpp:399] ip_conv1 -> ip_conv_1
I0701 17:08:39.710721 30467 net.cpp:141] Setting up ip_conv1
I0701 17:08:39.710729 30467 net.cpp:148] Top shape: 5 32 8 8 (10240)
I0701 17:08:39.710734 30467 net.cpp:156] Memory required for data: 24659760
I0701 17:08:39.710752 30467 layer_factory.hpp:77] Creating layer relu1
I0701 17:08:39.710759 30467 net.cpp:91] Creating Layer relu1
I0701 17:08:39.710764 30467 net.cpp:425] relu1 <- ip_conv_1
I0701 17:08:39.710769 30467 net.cpp:386] relu1 -> ip_conv_1 (in-place)
I0701 17:08:39.710777 30467 net.cpp:141] Setting up relu1
I0701 17:08:39.710783 30467 net.cpp:148] Top shape: 5 32 8 8 (10240)
I0701 17:08:39.710786 30467 net.cpp:156] Memory required for data: 24700720
I0701 17:08:39.710791 30467 layer_factory.hpp:77] Creating layer drop1
I0701 17:08:39.710809 30467 net.cpp:91] Creating Layer drop1
I0701 17:08:39.710813 30467 net.cpp:425] drop1 <- ip_conv_1
I0701 17:08:39.710819 30467 net.cpp:386] drop1 -> ip_conv_1 (in-place)
I0701 17:08:39.710836 30467 net.cpp:141] Setting up drop1
I0701 17:08:39.710851 30467 net.cpp:148] Top shape: 5 32 8 8 (10240)
I0701 17:08:39.710866 30467 net.cpp:156] Memory required for data: 24741680
I0701 17:08:39.710870 30467 layer_factory.hpp:77] Creating layer ip_conv2
I0701 17:08:39.710880 30467 net.cpp:91] Creating Layer ip_conv2
I0701 17:08:39.710885 30467 net.cpp:425] ip_conv2 <- ip_conv_1
I0701 17:08:39.710899 30467 net.cpp:399] ip_conv2 -> ip_conv2
I0701 17:08:39.711041 30467 net.cpp:141] Setting up ip_conv2
I0701 17:08:39.711048 30467 net.cpp:148] Top shape: 5 2 8 8 (640)
I0701 17:08:39.711053 30467 net.cpp:156] Memory required for data: 24744240
I0701 17:08:39.711061 30467 layer_factory.hpp:77] Creating layer upsample
I0701 17:08:39.711068 30467 net.cpp:91] Creating Layer upsample
I0701 17:08:39.711073 30467 net.cpp:425] upsample <- ip_conv2
I0701 17:08:39.711079 30467 net.cpp:399] upsample -> upsample
I0701 17:08:39.711251 30467 net.cpp:141] Setting up upsample
I0701 17:08:39.711261 30467 net.cpp:148] Top shape: 5 2 254 254 (645160)
I0701 17:08:39.711264 30467 net.cpp:156] Memory required for data: 27324880
I0701 17:08:39.711272 30467 layer_factory.hpp:77] Creating layer upsample_upsample_0_split
I0701 17:08:39.711279 30467 net.cpp:91] Creating Layer upsample_upsample_0_split
I0701 17:08:39.711284 30467 net.cpp:425] upsample_upsample_0_split <- upsample
I0701 17:08:39.711290 30467 net.cpp:399] upsample_upsample_0_split -> upsample_upsample_0_split_0
I0701 17:08:39.711297 30467 net.cpp:399] upsample_upsample_0_split -> upsample_upsample_0_split_1
I0701 17:08:39.711320 30467 net.cpp:141] Setting up upsample_upsample_0_split
I0701 17:08:39.711328 30467 net.cpp:148] Top shape: 5 2 254 254 (645160)
I0701 17:08:39.711333 30467 net.cpp:148] Top shape: 5 2 254 254 (645160)
I0701 17:08:39.711336 30467 net.cpp:156] Memory required for data: 32486160
I0701 17:08:39.711341 30467 layer_factory.hpp:77] Creating layer accuracy
I0701 17:08:39.711352 30467 net.cpp:91] Creating Layer accuracy
I0701 17:08:39.711357 30467 net.cpp:425] accuracy <- upsample_upsample_0_split_0
I0701 17:08:39.711362 30467 net.cpp:425] accuracy <- label_testing_cells_1_split_0
I0701 17:08:39.711369 30467 net.cpp:399] accuracy -> accuracy
…
