…
I0705 14:17:49.476948 28973 net.cpp:49] Initializing net from parameters: 
name: "fish_filter"
state {
  phase: TRAIN
}
layer {
  name: "training_cells"
  type: "Python"
  top: "image"
  top: "label"
  include {
    phase: TRAIN
  }
  python_param {
    module: "fisherman.caffe_layers"
    layer: "ChunkingFishFovDataLayer"
    param_str: "{\'tops\': [\'image\', \'label\'], \'seed\': 1337, \'data_dir\': \'/home/sam/code/fisherman/data/dense_labelling_same_res/\', \'split\': \'train\', \'n_samples\': 20, \'chunker_params\': {\'chunk_size\': 254, \'window_size\': 1}}"
  }
}
layer {
  name: "conv1"
  type: "Convolution"
  bottom: "image"
  top: "conv1"
  param {
    lr_mult: 0
  }
  param {
    lr_mult: 0
  }
  convolution_param {
    num_output: 15
    kernel_size: 15
    stride: 1
    weight_filler {
      type: "xavier"
    }
    bias_filler {
      type: "constant"
    }
  }
}
layer {
  name: "pool1"
  type: "Pooling"
  bottom: "conv1"
  top: "pool1"
  pooling_param {
    pool: MAX
    kernel_size: 5
    stride: 5
  }
}
layer {
  name: "conv2"
  type: "Convolution"
  bottom: "pool1"
  top: "conv2"
  param {
    lr_mult: 0
  }
  param {
    lr_mult: 0
  }
  convolution_param {
    num_output: 5
    kernel_size: 7
    stride: 1
    weight_filler {
      type: "xavier"
    }
    bias_filler {
      type: "constant"
    }
  }
}
layer {
  name: "pool2"
  type: "Pooling"
  bottom: "conv2"
  top: "pool2"
  pooling_param {
    pool: MAX
    kernel_size: 3
    stride: 3
  }
}
layer {
  name: "ip_conv1"
  type: "Convolution"
  bottom: "pool2"
  top: "ip_conv_1"
  param {
    lr_mult: 0
  }
  param {
    lr_mult: 0
  }
  convolution_param {
    num_output: 32
    kernel_size: 7
    stride: 1
    weight_filler {
      type: "xavier"
    }
    bias_filler {
      type: "constant"
    }
  }
}
layer {
  name: "relu1"
  type: "ReLU"
  bottom: "ip_conv_1"
  top: "ip_conv_1"
}
layer {
  name: "drop1"
  type: "Dropout"
  bottom: "ip_conv_1"
  top: "ip_conv_1"
  dropout_param {
    dropout_ratio: 0.5
  }
}
layer {
  name: "ip_conv2"
  type: "Convolution"
  bottom: "ip_conv_1"
  top: "ip_conv2"
  param {
    lr_mult: 0
  }
  param {
    lr_mult: 0
  }
  convolution_param {
    num_output: 2
    kernel_size: 1
    stride: 1
    weight_filler {
      type: "xavier"
    }
    bias_filler {
      type: "constant"
    }
  }
}
layer {
  name: "upsample"
  type: "Deconvolution"
  bottom: "ip_conv2"
  top: "upsample"
  param {
    lr_mult: 1
  }
  convolution_param {
    num_output: 2
    bias_term: false
    kernel_size: 149
    stride: 15
  }
}
layer {
  name: "loss"
  type: "InfogainSoftmaxLoss"
  bottom: "upsample"
  bottom: "label"
  top: "loss"
  loss_param {
    normalize: true
  }
  infogain_loss_param {
    source: "/home/sam/code/fisherman/infogainH.binaryproto"
  }
  softmax_param {
    axis: 1
  }
}
I0705 14:17:49.477557 28973 layer_factory.hpp:77] Creating layer training_cells
I0705 14:17:50.262676 28973 net.cpp:91] Creating Layer training_cells
I0705 14:17:50.262707 28973 net.cpp:399] training_cells -> image
I0705 14:17:50.262725 28973 net.cpp:399] training_cells -> label
I0705 14:17:50.351843 28973 net.cpp:141] Setting up training_cells
I0705 14:17:50.351881 28973 net.cpp:148] Top shape: 20 2 254 254 (2580640)
I0705 14:17:50.351938 28973 net.cpp:148] Top shape: 20 1 254 254 (1290320)
I0705 14:17:50.351944 28973 net.cpp:156] Memory required for data: 15483840
I0705 14:17:50.351956 28973 layer_factory.hpp:77] Creating layer conv1
I0705 14:17:50.351979 28973 net.cpp:91] Creating Layer conv1
I0705 14:17:50.351986 28973 net.cpp:425] conv1 <- image
I0705 14:17:50.352000 28973 net.cpp:399] conv1 -> conv1
I0705 14:17:50.356551 28973 net.cpp:141] Setting up conv1
I0705 14:17:50.356570 28973 net.cpp:148] Top shape: 20 15 240 240 (17280000)
I0705 14:17:50.356575 28973 net.cpp:156] Memory required for data: 84603840
I0705 14:17:50.356590 28973 layer_factory.hpp:77] Creating layer pool1
I0705 14:17:50.356601 28973 net.cpp:91] Creating Layer pool1
I0705 14:17:50.356606 28973 net.cpp:425] pool1 <- conv1
I0705 14:17:50.356614 28973 net.cpp:399] pool1 -> pool1
I0705 14:17:50.356654 28973 net.cpp:141] Setting up pool1
I0705 14:17:50.356662 28973 net.cpp:148] Top shape: 20 15 48 48 (691200)
I0705 14:17:50.356667 28973 net.cpp:156] Memory required for data: 87368640
I0705 14:17:50.356672 28973 layer_factory.hpp:77] Creating layer conv2
I0705 14:17:50.356681 28973 net.cpp:91] Creating Layer conv2
I0705 14:17:50.356686 28973 net.cpp:425] conv2 <- pool1
I0705 14:17:50.356704 28973 net.cpp:399] conv2 -> conv2
I0705 14:17:50.361047 28973 net.cpp:141] Setting up conv2
I0705 14:17:50.361073 28973 net.cpp:148] Top shape: 20 5 42 42 (176400)
I0705 14:17:50.361078 28973 net.cpp:156] Memory required for data: 88074240
I0705 14:17:50.361088 28973 layer_factory.hpp:77] Creating layer pool2
I0705 14:17:50.361098 28973 net.cpp:91] Creating Layer pool2
I0705 14:17:50.361102 28973 net.cpp:425] pool2 <- conv2
I0705 14:17:50.361109 28973 net.cpp:399] pool2 -> pool2
I0705 14:17:50.361135 28973 net.cpp:141] Setting up pool2
I0705 14:17:50.361142 28973 net.cpp:148] Top shape: 20 5 14 14 (19600)
I0705 14:17:50.361147 28973 net.cpp:156] Memory required for data: 88152640
I0705 14:17:50.361151 28973 layer_factory.hpp:77] Creating layer ip_conv1
I0705 14:17:50.361161 28973 net.cpp:91] Creating Layer ip_conv1
I0705 14:17:50.361166 28973 net.cpp:425] ip_conv1 <- pool2
I0705 14:17:50.361182 28973 net.cpp:399] ip_conv1 -> ip_conv_1
I0705 14:17:50.361371 28973 net.cpp:141] Setting up ip_conv1
I0705 14:17:50.361382 28973 net.cpp:148] Top shape: 20 32 8 8 (40960)
I0705 14:17:50.361387 28973 net.cpp:156] Memory required for data: 88316480
I0705 14:17:50.361395 28973 layer_factory.hpp:77] Creating layer relu1
I0705 14:17:50.361404 28973 net.cpp:91] Creating Layer relu1
I0705 14:17:50.361408 28973 net.cpp:425] relu1 <- ip_conv_1
I0705 14:17:50.361414 28973 net.cpp:386] relu1 -> ip_conv_1 (in-place)
I0705 14:17:50.361423 28973 net.cpp:141] Setting up relu1
I0705 14:17:50.361428 28973 net.cpp:148] Top shape: 20 32 8 8 (40960)
I0705 14:17:50.361433 28973 net.cpp:156] Memory required for data: 88480320
I0705 14:17:50.361438 28973 layer_factory.hpp:77] Creating layer drop1
I0705 14:17:50.361449 28973 net.cpp:91] Creating Layer drop1
I0705 14:17:50.361454 28973 net.cpp:425] drop1 <- ip_conv_1
I0705 14:17:50.361459 28973 net.cpp:386] drop1 -> ip_conv_1 (in-place)
I0705 14:17:50.361479 28973 net.cpp:141] Setting up drop1
I0705 14:17:50.361485 28973 net.cpp:148] Top shape: 20 32 8 8 (40960)
I0705 14:17:50.361490 28973 net.cpp:156] Memory required for data: 88644160
I0705 14:17:50.361495 28973 layer_factory.hpp:77] Creating layer ip_conv2
I0705 14:17:50.361505 28973 net.cpp:91] Creating Layer ip_conv2
I0705 14:17:50.361510 28973 net.cpp:425] ip_conv2 <- ip_conv_1
I0705 14:17:50.361516 28973 net.cpp:399] ip_conv2 -> ip_conv2
I0705 14:17:50.361649 28973 net.cpp:141] Setting up ip_conv2
I0705 14:17:50.361656 28973 net.cpp:148] Top shape: 20 2 8 8 (2560)
I0705 14:17:50.361660 28973 net.cpp:156] Memory required for data: 88654400
I0705 14:17:50.361667 28973 layer_factory.hpp:77] Creating layer upsample
I0705 14:17:50.361676 28973 net.cpp:91] Creating Layer upsample
I0705 14:17:50.361681 28973 net.cpp:425] upsample <- ip_conv2
I0705 14:17:50.361688 28973 net.cpp:399] upsample -> upsample
I0705 14:17:50.362262 28973 net.cpp:141] Setting up upsample
I0705 14:17:50.362277 28973 net.cpp:148] Top shape: 20 2 254 254 (2580640)
I0705 14:17:50.362282 28973 net.cpp:156] Memory required for data: 98976960
I0705 14:17:50.362289 28973 layer_factory.hpp:77] Creating layer loss
I0705 14:17:50.362299 28973 net.cpp:91] Creating Layer loss
I0705 14:17:50.362304 28973 net.cpp:425] loss <- upsample
I0705 14:17:50.362309 28973 net.cpp:425] loss <- label
I0705 14:17:50.362318 28973 net.cpp:399] loss -> loss
I0705 14:17:50.362334 28973 layer_factory.hpp:77] Creating layer loss
…
I0705 14:17:50.367880 28973 net.cpp:49] Initializing net from parameters: 
name: "fish_filter"
state {
  phase: TEST
}
layer {
  name: "testing_cells"
  type: "Python"
  top: "image"
  top: "label"
  include {
    phase: TEST
  }
  python_param {
    module: "fisherman.caffe_layers"
    layer: "ChunkingFishFovDataLayer"
    param_str: "{\'tops\': [\'image\', \'label\'], \'seed\': 1337, \'data_dir\': \'/home/sam/code/fisherman/data/dense_labelling_same_res/\', \'split\': \'test\', \'n_samples\': 5, \'chunker_params\': {\'chunk_size\': 254, \'window_size\': 1}}"
  }
}
layer {
  name: "conv1"
  type: "Convolution"
  bottom: "image"
  top: "conv1"
  param {
    lr_mult: 0
  }
  param {
    lr_mult: 0
  }
  convolution_param {
    num_output: 15
    kernel_size: 15
    stride: 1
    weight_filler {
      type: "xavier"
    }
    bias_filler {
      type: "constant"
    }
  }
}
layer {
  name: "pool1"
  type: "Pooling"
  bottom: "conv1"
  top: "pool1"
  pooling_param {
    pool: MAX
    kernel_size: 5
    stride: 5
  }
}
layer {
  name: "conv2"
  type: "Convolution"
  bottom: "pool1"
  top: "conv2"
  param {
    lr_mult: 0
  }
  param {
    lr_mult: 0
  }
  convolution_param {
    num_output: 5
    kernel_size: 7
    stride: 1
    weight_filler {
      type: "xavier"
    }
    bias_filler {
      type: "constant"
    }
  }
}
layer {
  name: "pool2"
  type: "Pooling"
  bottom: "conv2"
  top: "pool2"
  pooling_param {
    pool: MAX
    kernel_size: 3
    stride: 3
  }
}
layer {
  name: "ip_conv1"
  type: "Convolution"
  bottom: "pool2"
  top: "ip_conv_1"
  param {
    lr_mult: 0
  }
  param {
    lr_mult: 0
  }
  convolution_param {
    num_output: 32
    kernel_size: 7
    stride: 1
    weight_filler {
      type: "xavier"
    }
    bias_filler {
      type: "constant"
    }
  }
}
layer {
  name: "relu1"
  type: "ReLU"
  bottom: "ip_conv_1"
  top: "ip_conv_1"
}
layer {
  name: "drop1"
  type: "Dropout"
  bottom: "ip_conv_1"
  top: "ip_conv_1"
  dropout_param {
    dropout_ratio: 0.5
  }
}
layer {
  name: "ip_conv2"
  type: "Convolution"
  bottom: "ip_conv_1"
  top: "ip_conv2"
  param {
    lr_mult: 0
  }
  param {
    lr_mult: 0
  }
  convolution_param {
    num_output: 2
    kernel_size: 1
    stride: 1
    weight_filler {
      type: "xavier"
    }
    bias_filler {
      type: "constant"
    }
  }
}
layer {
  name: "upsample"
  type: "Deconvolution"
  bottom: "ip_conv2"
  top: "upsample"
  param {
    lr_mult: 1
  }
  convolution_param {
    num_output: 2
    bias_term: false
    kernel_size: 149
    stride: 15
  }
}
layer {
  name: "accuracy"
  type: "Accuracy"
  bottom: "upsample"
  bottom: "label"
  top: "accuracy"
  include {
    phase: TEST
  }
}
layer {
  name: "loss"
  type: "InfogainSoftmaxLoss"
  bottom: "upsample"
  bottom: "label"
  top: "loss"
  loss_param {
    normalize: true
  }
  infogain_loss_param {
    source: "/home/sam/code/fisherman/infogainH.binaryproto"
  }
  softmax_param {
    axis: 1
  }
}
I0705 14:17:50.368345 28973 layer_factory.hpp:77] Creating layer testing_cells
I0705 14:17:50.368399 28973 net.cpp:91] Creating Layer testing_cells
I0705 14:17:50.368408 28973 net.cpp:399] testing_cells -> image
I0705 14:17:50.368417 28973 net.cpp:399] testing_cells -> label
I0705 14:17:50.397079 28973 net.cpp:141] Setting up testing_cells
I0705 14:17:50.397111 28973 net.cpp:148] Top shape: 5 2 254 254 (645160)
I0705 14:17:50.397119 28973 net.cpp:148] Top shape: 5 1 254 254 (322580)
I0705 14:17:50.397125 28973 net.cpp:156] Memory required for data: 3870960
I0705 14:17:50.397133 28973 layer_factory.hpp:77] Creating layer label_testing_cells_1_split
I0705 14:17:50.397150 28973 net.cpp:91] Creating Layer label_testing_cells_1_split
I0705 14:17:50.397156 28973 net.cpp:425] label_testing_cells_1_split <- label
I0705 14:17:50.397162 28973 net.cpp:399] label_testing_cells_1_split -> label_testing_cells_1_split_0
I0705 14:17:50.397192 28973 net.cpp:399] label_testing_cells_1_split -> label_testing_cells_1_split_1
I0705 14:17:50.397233 28973 net.cpp:141] Setting up label_testing_cells_1_split
I0705 14:17:50.397240 28973 net.cpp:148] Top shape: 5 1 254 254 (322580)
I0705 14:17:50.397246 28973 net.cpp:148] Top shape: 5 1 254 254 (322580)
I0705 14:17:50.397250 28973 net.cpp:156] Memory required for data: 6451600
I0705 14:17:50.397254 28973 layer_factory.hpp:77] Creating layer conv1
I0705 14:17:50.397266 28973 net.cpp:91] Creating Layer conv1
I0705 14:17:50.397271 28973 net.cpp:425] conv1 <- image
I0705 14:17:50.397277 28973 net.cpp:399] conv1 -> conv1
I0705 14:17:50.397500 28973 net.cpp:141] Setting up conv1
I0705 14:17:50.397511 28973 net.cpp:148] Top shape: 5 15 240 240 (4320000)
I0705 14:17:50.397516 28973 net.cpp:156] Memory required for data: 23731600
I0705 14:17:50.397526 28973 layer_factory.hpp:77] Creating layer pool1
I0705 14:17:50.397533 28973 net.cpp:91] Creating Layer pool1
I0705 14:17:50.397538 28973 net.cpp:425] pool1 <- conv1
I0705 14:17:50.397544 28973 net.cpp:399] pool1 -> pool1
I0705 14:17:50.397569 28973 net.cpp:141] Setting up pool1
I0705 14:17:50.397575 28973 net.cpp:148] Top shape: 5 15 48 48 (172800)
I0705 14:17:50.397580 28973 net.cpp:156] Memory required for data: 24422800
I0705 14:17:50.397584 28973 layer_factory.hpp:77] Creating layer conv2
I0705 14:17:50.397593 28973 net.cpp:91] Creating Layer conv2
I0705 14:17:50.397598 28973 net.cpp:425] conv2 <- pool1
I0705 14:17:50.397603 28973 net.cpp:399] conv2 -> conv2
I0705 14:17:50.397755 28973 net.cpp:141] Setting up conv2
I0705 14:17:50.397763 28973 net.cpp:148] Top shape: 5 5 42 42 (44100)
I0705 14:17:50.397768 28973 net.cpp:156] Memory required for data: 24599200
I0705 14:17:50.397776 28973 layer_factory.hpp:77] Creating layer pool2
I0705 14:17:50.397783 28973 net.cpp:91] Creating Layer pool2
I0705 14:17:50.397788 28973 net.cpp:425] pool2 <- conv2
I0705 14:17:50.397794 28973 net.cpp:399] pool2 -> pool2
I0705 14:17:50.397815 28973 net.cpp:141] Setting up pool2
I0705 14:17:50.397821 28973 net.cpp:148] Top shape: 5 5 14 14 (4900)
I0705 14:17:50.397878 28973 net.cpp:156] Memory required for data: 24618800
I0705 14:17:50.397883 28973 layer_factory.hpp:77] Creating layer ip_conv1
I0705 14:17:50.397892 28973 net.cpp:91] Creating Layer ip_conv1
I0705 14:17:50.397897 28973 net.cpp:425] ip_conv1 <- pool2
I0705 14:17:50.397903 28973 net.cpp:399] ip_conv1 -> ip_conv_1
I0705 14:17:50.398092 28973 net.cpp:141] Setting up ip_conv1
I0705 14:17:50.398111 28973 net.cpp:148] Top shape: 5 32 8 8 (10240)
I0705 14:17:50.398115 28973 net.cpp:156] Memory required for data: 24659760
I0705 14:17:50.398124 28973 layer_factory.hpp:77] Creating layer relu1
I0705 14:17:50.398131 28973 net.cpp:91] Creating Layer relu1
I0705 14:17:50.398135 28973 net.cpp:425] relu1 <- ip_conv_1
I0705 14:17:50.398141 28973 net.cpp:386] relu1 -> ip_conv_1 (in-place)
I0705 14:17:50.398147 28973 net.cpp:141] Setting up relu1
I0705 14:17:50.398154 28973 net.cpp:148] Top shape: 5 32 8 8 (10240)
I0705 14:17:50.398157 28973 net.cpp:156] Memory required for data: 24700720
I0705 14:17:50.398161 28973 layer_factory.hpp:77] Creating layer drop1
I0705 14:17:50.398169 28973 net.cpp:91] Creating Layer drop1
I0705 14:17:50.398174 28973 net.cpp:425] drop1 <- ip_conv_1
I0705 14:17:50.398178 28973 net.cpp:386] drop1 -> ip_conv_1 (in-place)
I0705 14:17:50.398195 28973 net.cpp:141] Setting up drop1
I0705 14:17:50.398202 28973 net.cpp:148] Top shape: 5 32 8 8 (10240)
I0705 14:17:50.398206 28973 net.cpp:156] Memory required for data: 24741680
I0705 14:17:50.398211 28973 layer_factory.hpp:77] Creating layer ip_conv2
I0705 14:17:50.398219 28973 net.cpp:91] Creating Layer ip_conv2
I0705 14:17:50.398223 28973 net.cpp:425] ip_conv2 <- ip_conv_1
I0705 14:17:50.398229 28973 net.cpp:399] ip_conv2 -> ip_conv2
I0705 14:17:50.398356 28973 net.cpp:141] Setting up ip_conv2
I0705 14:17:50.398363 28973 net.cpp:148] Top shape: 5 2 8 8 (640)
I0705 14:17:50.398367 28973 net.cpp:156] Memory required for data: 24744240
I0705 14:17:50.398375 28973 layer_factory.hpp:77] Creating layer upsample
I0705 14:17:50.398381 28973 net.cpp:91] Creating Layer upsample
I0705 14:17:50.398386 28973 net.cpp:425] upsample <- ip_conv2
I0705 14:17:50.398392 28973 net.cpp:399] upsample -> upsample
I0705 14:17:50.398557 28973 net.cpp:141] Setting up upsample
I0705 14:17:50.398578 28973 net.cpp:148] Top shape: 5 2 254 254 (645160)
I0705 14:17:50.398583 28973 net.cpp:156] Memory required for data: 27324880
I0705 14:17:50.398600 28973 layer_factory.hpp:77] Creating layer upsample_upsample_0_split
I0705 14:17:50.398607 28973 net.cpp:91] Creating Layer upsample_upsample_0_split
I0705 14:17:50.398612 28973 net.cpp:425] upsample_upsample_0_split <- upsample
I0705 14:17:50.398617 28973 net.cpp:399] upsample_upsample_0_split -> upsample_upsample_0_split_0
I0705 14:17:50.398624 28973 net.cpp:399] upsample_upsample_0_split -> upsample_upsample_0_split_1
I0705 14:17:50.398645 28973 net.cpp:141] Setting up upsample_upsample_0_split
I0705 14:17:50.398653 28973 net.cpp:148] Top shape: 5 2 254 254 (645160)
I0705 14:17:50.398658 28973 net.cpp:148] Top shape: 5 2 254 254 (645160)
I0705 14:17:50.398661 28973 net.cpp:156] Memory required for data: 32486160
I0705 14:17:50.398666 28973 layer_factory.hpp:77] Creating layer accuracy
I0705 14:17:50.398675 28973 net.cpp:91] Creating Layer accuracy
I0705 14:17:50.398680 28973 net.cpp:425] accuracy <- upsample_upsample_0_split_0
I0705 14:17:50.398686 28973 net.cpp:425] accuracy <- label_testing_cells_1_split_0
I0705 14:17:50.398692 28973 net.cpp:399] accuracy -> accuracy
…
