…
I0630 15:48:44.316046  6523 net.cpp:313] The NetState phase (0) differed from the phase (1) specified by a rule in layer testing_cells
I0630 15:48:44.316076  6523 net.cpp:313] The NetState phase (0) differed from the phase (1) specified by a rule in layer accuracy
I0630 15:48:44.316144  6523 net.cpp:49] Initializing net from parameters: 
name: "fish_filter"
state {
  phase: TRAIN
}
layer {
  name: "training_cells"
  type: "Data"
  top: "image"
  top: "label"
  include {
    phase: TRAIN
  }
  data_param {
    source: "/home/sam/code/fisherman/data/original_and_partial_qc_2_channel_k149_scaled/training_db"
    batch_size: 256
    backend: LMDB
  }
}
layer {
  name: "conv1"
  type: "Convolution"
  bottom: "image"
  top: "conv1"
  param {
    lr_mult: 1
  }
  param {
    lr_mult: 2
  }
  convolution_param {
    num_output: 15
    kernel_size: 15
    stride: 1
    weight_filler {
      type: "xavier"
    }
    bias_filler {
      type: "constant"
    }
  }
}
layer {
  name: "pool1"
  type: "Pooling"
  bottom: "conv1"
  top: "pool1"
  pooling_param {
    pool: MAX
    kernel_size: 5
    stride: 5
  }
}
layer {
  name: "conv2"
  type: "Convolution"
  bottom: "pool1"
  top: "conv2"
  param {
    lr_mult: 1
  }
  param {
    lr_mult: 2
  }
  convolution_param {
    num_output: 5
    kernel_size: 7
    stride: 1
    weight_filler {
      type: "xavier"
    }
    bias_filler {
      type: "constant"
    }
  }
}
layer {
  name: "pool2"
  type: "Pooling"
  bottom: "conv2"
  top: "pool2"
  pooling_param {
    pool: MAX
    kernel_size: 3
    stride: 3
  }
}
layer {
  name: "ip1"
  type: "InnerProduct"
  bottom: "pool2"
  top: "ip1"
  param {
    lr_mult: 1
  }
  param {
    lr_mult: 2
  }
  inner_product_param {
    num_output: 32
    weight_filler {
      type: "xavier"
    }
    bias_filler {
      type: "constant"
    }
  }
}
layer {
  name: "relu1"
  type: "ReLU"
  bottom: "ip1"
  top: "ip1"
}
layer {
  name: "drop1"
  type: "Dropout"
  bottom: "ip1"
  top: "ip1"
  include {
    phase: TRAIN
  }
  dropout_param {
    dropout_ratio: 0.5
  }
}
layer {
  name: "ip2"
  type: "InnerProduct"
  bottom: "ip1"
  top: "ip2"
  param {
    lr_mult: 1
  }
  param {
    lr_mult: 2
  }
  inner_product_param {
    num_output: 2
    weight_filler {
      type: "xavier"
    }
    bias_filler {
      type: "constant"
    }
  }
}
layer {
  name: "loss"
  type: "SoftmaxWithLoss"
  bottom: "ip2"
  bottom: "label"
  top: "loss"
}
I0630 15:48:44.316452  6523 layer_factory.hpp:77] Creating layer training_cells
I0630 15:48:44.317504  6523 net.cpp:91] Creating Layer training_cells
I0630 15:48:44.317528  6523 net.cpp:399] training_cells -> image
I0630 15:48:44.317550  6523 net.cpp:399] training_cells -> label
I0630 15:48:44.318163  6535 db_lmdb.cpp:35] Opened lmdb /home/sam/code/fisherman/data/original_and_partial_qc_2_channel_k149_scaled/training_db
I0630 15:48:44.318455  6523 data_layer.cpp:41] output data size: 256,2,149,149
I0630 15:48:44.334108  6523 net.cpp:141] Setting up training_cells
I0630 15:48:44.334147  6523 net.cpp:148] Top shape: 256 2 149 149 (11366912)
I0630 15:48:44.334153  6523 net.cpp:148] Top shape: 256 (256)
I0630 15:48:44.334158  6523 net.cpp:156] Memory required for data: 45468672
I0630 15:48:44.334170  6523 layer_factory.hpp:77] Creating layer conv1
I0630 15:48:44.334197  6523 net.cpp:91] Creating Layer conv1
I0630 15:48:44.334203  6523 net.cpp:425] conv1 <- image
I0630 15:48:44.334218  6523 net.cpp:399] conv1 -> conv1
I0630 15:48:44.334331  6523 net.cpp:141] Setting up conv1
I0630 15:48:44.334339  6523 net.cpp:148] Top shape: 256 15 135 135 (69984000)
I0630 15:48:44.334393  6523 net.cpp:156] Memory required for data: 325404672
I0630 15:48:44.334408  6523 layer_factory.hpp:77] Creating layer pool1
I0630 15:48:44.334419  6523 net.cpp:91] Creating Layer pool1
I0630 15:48:44.334424  6523 net.cpp:425] pool1 <- conv1
I0630 15:48:44.334430  6523 net.cpp:399] pool1 -> pool1
I0630 15:48:44.334447  6523 net.cpp:141] Setting up pool1
I0630 15:48:44.334455  6523 net.cpp:148] Top shape: 256 15 27 27 (2799360)
I0630 15:48:44.334458  6523 net.cpp:156] Memory required for data: 336602112
I0630 15:48:44.334472  6523 layer_factory.hpp:77] Creating layer conv2
I0630 15:48:44.334481  6523 net.cpp:91] Creating Layer conv2
I0630 15:48:44.334486  6523 net.cpp:425] conv2 <- pool1
I0630 15:48:44.334494  6523 net.cpp:399] conv2 -> conv2
I0630 15:48:44.334544  6523 net.cpp:141] Setting up conv2
I0630 15:48:44.334552  6523 net.cpp:148] Top shape: 256 5 21 21 (564480)
I0630 15:48:44.334555  6523 net.cpp:156] Memory required for data: 338860032
I0630 15:48:44.334563  6523 layer_factory.hpp:77] Creating layer pool2
I0630 15:48:44.334570  6523 net.cpp:91] Creating Layer pool2
I0630 15:48:44.334575  6523 net.cpp:425] pool2 <- conv2
I0630 15:48:44.334580  6523 net.cpp:399] pool2 -> pool2
I0630 15:48:44.334589  6523 net.cpp:141] Setting up pool2
I0630 15:48:44.334594  6523 net.cpp:148] Top shape: 256 5 7 7 (62720)
I0630 15:48:44.334597  6523 net.cpp:156] Memory required for data: 339110912
I0630 15:48:44.334601  6523 layer_factory.hpp:77] Creating layer ip1
I0630 15:48:44.334609  6523 net.cpp:91] Creating Layer ip1
I0630 15:48:44.334614  6523 net.cpp:425] ip1 <- pool2
I0630 15:48:44.334620  6523 net.cpp:399] ip1 -> ip1
I0630 15:48:44.334677  6523 net.cpp:141] Setting up ip1
I0630 15:48:44.334684  6523 net.cpp:148] Top shape: 256 32 (8192)
I0630 15:48:44.334688  6523 net.cpp:156] Memory required for data: 339143680
I0630 15:48:44.334697  6523 layer_factory.hpp:77] Creating layer relu1
I0630 15:48:44.334702  6523 net.cpp:91] Creating Layer relu1
I0630 15:48:44.334707  6523 net.cpp:425] relu1 <- ip1
I0630 15:48:44.334712  6523 net.cpp:386] relu1 -> ip1 (in-place)
I0630 15:48:44.334718  6523 net.cpp:141] Setting up relu1
I0630 15:48:44.334723  6523 net.cpp:148] Top shape: 256 32 (8192)
I0630 15:48:44.334728  6523 net.cpp:156] Memory required for data: 339176448
I0630 15:48:44.334731  6523 layer_factory.hpp:77] Creating layer drop1
I0630 15:48:44.334743  6523 net.cpp:91] Creating Layer drop1
I0630 15:48:44.334748  6523 net.cpp:425] drop1 <- ip1
I0630 15:48:44.334753  6523 net.cpp:386] drop1 -> ip1 (in-place)
I0630 15:48:44.334761  6523 net.cpp:141] Setting up drop1
I0630 15:48:44.334766  6523 net.cpp:148] Top shape: 256 32 (8192)
I0630 15:48:44.334770  6523 net.cpp:156] Memory required for data: 339209216
I0630 15:48:44.334775  6523 layer_factory.hpp:77] Creating layer ip2
I0630 15:48:44.334784  6523 net.cpp:91] Creating Layer ip2
I0630 15:48:44.334789  6523 net.cpp:425] ip2 <- ip1
I0630 15:48:44.334794  6523 net.cpp:399] ip2 -> ip2
I0630 15:48:44.334805  6523 net.cpp:141] Setting up ip2
I0630 15:48:44.334811  6523 net.cpp:148] Top shape: 256 2 (512)
I0630 15:48:44.334815  6523 net.cpp:156] Memory required for data: 339211264
I0630 15:48:44.334820  6523 layer_factory.hpp:77] Creating layer loss
I0630 15:48:44.334827  6523 net.cpp:91] Creating Layer loss
I0630 15:48:44.334831  6523 net.cpp:425] loss <- ip2
I0630 15:48:44.334836  6523 net.cpp:425] loss <- label
I0630 15:48:44.334841  6523 net.cpp:399] loss -> loss
I0630 15:48:44.334852  6523 layer_factory.hpp:77] Creating layer loss
…
I0630 15:48:44.335314  6523 net.cpp:313] The NetState phase (1) differed from the phase (0) specified by a rule in layer training_cells
I0630 15:48:44.335324  6523 net.cpp:313] The NetState phase (1) differed from the phase (0) specified by a rule in layer drop1
I0630 15:48:44.335397  6523 net.cpp:49] Initializing net from parameters: 
name: "fish_filter"
state {
  phase: TEST
}
layer {
  name: "testing_cells"
  type: "Data"
  top: "image"
  top: "label"
  include {
    phase: TEST
  }
  data_param {
    source: "/home/sam/code/fisherman/data/original_and_partial_qc_2_channel_k149_scaled/testing_db"
    batch_size: 256
    backend: LMDB
  }
}
layer {
  name: "conv1"
  type: "Convolution"
  bottom: "image"
  top: "conv1"
  param {
    lr_mult: 1
  }
  param {
    lr_mult: 2
  }
  convolution_param {
    num_output: 15
    kernel_size: 15
    stride: 1
    weight_filler {
      type: "xavier"
    }
    bias_filler {
      type: "constant"
    }
  }
}
layer {
  name: "pool1"
  type: "Pooling"
  bottom: "conv1"
  top: "pool1"
  pooling_param {
    pool: MAX
    kernel_size: 5
    stride: 5
  }
}
layer {
  name: "conv2"
  type: "Convolution"
  bottom: "pool1"
  top: "conv2"
  param {
    lr_mult: 1
  }
  param {
    lr_mult: 2
  }
  convolution_param {
    num_output: 5
    kernel_size: 7
    stride: 1
    weight_filler {
      type: "xavier"
    }
    bias_filler {
      type: "constant"
    }
  }
}
layer {
  name: "pool2"
  type: "Pooling"
  bottom: "conv2"
  top: "pool2"
  pooling_param {
    pool: MAX
    kernel_size: 3
    stride: 3
  }
}
layer {
  name: "ip1"
  type: "InnerProduct"
  bottom: "pool2"
  top: "ip1"
  param {
    lr_mult: 1
  }
  param {
    lr_mult: 2
  }
  inner_product_param {
    num_output: 32
    weight_filler {
      type: "xavier"
    }
    bias_filler {
      type: "constant"
    }
  }
}
layer {
  name: "relu1"
  type: "ReLU"
  bottom: "ip1"
  top: "ip1"
}
layer {
  name: "ip2"
  type: "InnerProduct"
  bottom: "ip1"
  top: "ip2"
  param {
    lr_mult: 1
  }
  param {
    lr_mult: 2
  }
  inner_product_param {
    num_output: 2
    weight_filler {
      type: "xavier"
    }
    bias_filler {
      type: "constant"
    }
  }
}
layer {
  name: "accuracy"
  type: "Accuracy"
  bottom: "ip2"
  bottom: "label"
  top: "accuracy"
  include {
    phase: TEST
  }
}
layer {
  name: "loss"
  type: "SoftmaxWithLoss"
  bottom: "ip2"
  bottom: "label"
  top: "loss"
}
I0630 15:48:44.335753  6523 layer_factory.hpp:77] Creating layer testing_cells
I0630 15:48:44.335938  6523 net.cpp:91] Creating Layer testing_cells
I0630 15:48:44.335960  6523 net.cpp:399] testing_cells -> image
I0630 15:48:44.335971  6523 net.cpp:399] testing_cells -> label
I0630 15:48:44.336617  6537 db_lmdb.cpp:35] Opened lmdb /home/sam/code/fisherman/data/original_and_partial_qc_2_channel_k149_scaled/testing_db
I0630 15:48:44.336962  6523 data_layer.cpp:41] output data size: 256,2,149,149
I0630 15:48:44.353520  6536 blocking_queue.cpp:50] Waiting for data
I0630 15:48:44.359522  6523 net.cpp:141] Setting up testing_cells
I0630 15:48:44.359565  6523 net.cpp:148] Top shape: 256 2 149 149 (11366912)
I0630 15:48:44.359572  6523 net.cpp:148] Top shape: 256 (256)
I0630 15:48:44.359577  6523 net.cpp:156] Memory required for data: 45468672
I0630 15:48:44.359650  6523 layer_factory.hpp:77] Creating layer label_testing_cells_1_split
I0630 15:48:44.359675  6523 net.cpp:91] Creating Layer label_testing_cells_1_split
I0630 15:48:44.359683  6523 net.cpp:425] label_testing_cells_1_split <- label
I0630 15:48:44.359694  6523 net.cpp:399] label_testing_cells_1_split -> label_testing_cells_1_split_0
I0630 15:48:44.359706  6523 net.cpp:399] label_testing_cells_1_split -> label_testing_cells_1_split_1
I0630 15:48:44.359720  6523 net.cpp:141] Setting up label_testing_cells_1_split
I0630 15:48:44.359727  6523 net.cpp:148] Top shape: 256 (256)
I0630 15:48:44.359732  6523 net.cpp:148] Top shape: 256 (256)
I0630 15:48:44.359736  6523 net.cpp:156] Memory required for data: 45470720
I0630 15:48:44.359741  6523 layer_factory.hpp:77] Creating layer conv1
I0630 15:48:44.359753  6523 net.cpp:91] Creating Layer conv1
I0630 15:48:44.359758  6523 net.cpp:425] conv1 <- image
I0630 15:48:44.359771  6523 net.cpp:399] conv1 -> conv1
I0630 15:48:44.359866  6523 net.cpp:141] Setting up conv1
I0630 15:48:44.359875  6523 net.cpp:148] Top shape: 256 15 135 135 (69984000)
I0630 15:48:44.359879  6523 net.cpp:156] Memory required for data: 325406720
I0630 15:48:44.359890  6523 layer_factory.hpp:77] Creating layer pool1
I0630 15:48:44.359910  6523 net.cpp:91] Creating Layer pool1
I0630 15:48:44.359916  6523 net.cpp:425] pool1 <- conv1
I0630 15:48:44.359923  6523 net.cpp:399] pool1 -> pool1
I0630 15:48:44.359940  6523 net.cpp:141] Setting up pool1
I0630 15:48:44.359949  6523 net.cpp:148] Top shape: 256 15 27 27 (2799360)
I0630 15:48:44.359956  6523 net.cpp:156] Memory required for data: 336604160
I0630 15:48:44.359963  6523 layer_factory.hpp:77] Creating layer conv2
I0630 15:48:44.359978  6523 net.cpp:91] Creating Layer conv2
I0630 15:48:44.359987  6523 net.cpp:425] conv2 <- pool1
I0630 15:48:44.359997  6523 net.cpp:399] conv2 -> conv2
I0630 15:48:44.360055  6523 net.cpp:141] Setting up conv2
I0630 15:48:44.360066  6523 net.cpp:148] Top shape: 256 5 21 21 (564480)
I0630 15:48:44.360074  6523 net.cpp:156] Memory required for data: 338862080
I0630 15:48:44.360085  6523 layer_factory.hpp:77] Creating layer pool2
I0630 15:48:44.360095  6523 net.cpp:91] Creating Layer pool2
I0630 15:48:44.360100  6523 net.cpp:425] pool2 <- conv2
I0630 15:48:44.360105  6523 net.cpp:399] pool2 -> pool2
I0630 15:48:44.360113  6523 net.cpp:141] Setting up pool2
I0630 15:48:44.360118  6523 net.cpp:148] Top shape: 256 5 7 7 (62720)
I0630 15:48:44.360122  6523 net.cpp:156] Memory required for data: 339112960
I0630 15:48:44.360127  6523 layer_factory.hpp:77] Creating layer ip1
I0630 15:48:44.360134  6523 net.cpp:91] Creating Layer ip1
I0630 15:48:44.360139  6523 net.cpp:425] ip1 <- pool2
I0630 15:48:44.360144  6523 net.cpp:399] ip1 -> ip1
I0630 15:48:44.361908  6523 net.cpp:141] Setting up ip1
I0630 15:48:44.361930  6523 net.cpp:148] Top shape: 256 32 (8192)
I0630 15:48:44.361938  6523 net.cpp:156] Memory required for data: 339145728
I0630 15:48:44.361953  6523 layer_factory.hpp:77] Creating layer relu1
I0630 15:48:44.361968  6523 net.cpp:91] Creating Layer relu1
I0630 15:48:44.361979  6523 net.cpp:425] relu1 <- ip1
I0630 15:48:44.361989  6523 net.cpp:386] relu1 -> ip1 (in-place)
I0630 15:48:44.361999  6523 net.cpp:141] Setting up relu1
I0630 15:48:44.362010  6523 net.cpp:148] Top shape: 256 32 (8192)
I0630 15:48:44.362017  6523 net.cpp:156] Memory required for data: 339178496
I0630 15:48:44.362025  6523 layer_factory.hpp:77] Creating layer ip2
I0630 15:48:44.362040  6523 net.cpp:91] Creating Layer ip2
I0630 15:48:44.362048  6523 net.cpp:425] ip2 <- ip1
I0630 15:48:44.362061  6523 net.cpp:399] ip2 -> ip2
I0630 15:48:44.362087  6523 net.cpp:141] Setting up ip2
I0630 15:48:44.362099  6523 net.cpp:148] Top shape: 256 2 (512)
I0630 15:48:44.362107  6523 net.cpp:156] Memory required for data: 339180544
I0630 15:48:44.362118  6523 layer_factory.hpp:77] Creating layer ip2_ip2_0_split
I0630 15:48:44.362130  6523 net.cpp:91] Creating Layer ip2_ip2_0_split
I0630 15:48:44.362138  6523 net.cpp:425] ip2_ip2_0_split <- ip2
I0630 15:48:44.362191  6523 net.cpp:399] ip2_ip2_0_split -> ip2_ip2_0_split_0
I0630 15:48:44.362207  6523 net.cpp:399] ip2_ip2_0_split -> ip2_ip2_0_split_1
I0630 15:48:44.362221  6523 net.cpp:141] Setting up ip2_ip2_0_split
I0630 15:48:44.362233  6523 net.cpp:148] Top shape: 256 2 (512)
I0630 15:48:44.362243  6523 net.cpp:148] Top shape: 256 2 (512)
I0630 15:48:44.362251  6523 net.cpp:156] Memory required for data: 339184640
I0630 15:48:44.362260  6523 layer_factory.hpp:77] Creating layer accuracy
I0630 15:48:44.362277  6523 net.cpp:91] Creating Layer accuracy
I0630 15:48:44.362285  6523 net.cpp:425] accuracy <- ip2_ip2_0_split_0
I0630 15:48:44.362295  6523 net.cpp:425] accuracy <- label_testing_cells_1_split_0
I0630 15:48:44.362306  6523 net.cpp:399] accuracy -> accuracy
…
