…
I0701 16:42:20.448559 30194 net.cpp:49] Initializing net from parameters: 
name: "fish_filter"
state {
  phase: TRAIN
}
layer {
  name: "training_cells"
  type: "Python"
  top: "image"
  top: "label"
  include {
    phase: TRAIN
  }
  python_param {
    module: "fisherman.caffe_layers"
    layer: "ChunkingFishFovDataLayer"
    param_str: "{\'tops\': [\'image\', \'label\'], \'seed\': 1337, \'data_dir\': \'/home/sam/code/fisherman/data/dense_labelling_same_res/\', \'split\': \'train\', \'n_samples\': 20, \'chunker_params\': {\'chunk_size\': 254, \'window_size\': 1}}"
  }
}
layer {
  name: "conv1"
  type: "Convolution"
  bottom: "image"
  top: "conv1"
  param {
    lr_mult: 1
  }
  param {
    lr_mult: 2
  }
  convolution_param {
    num_output: 15
    kernel_size: 15
    stride: 1
    weight_filler {
      type: "xavier"
    }
    bias_filler {
      type: "constant"
    }
  }
}
layer {
  name: "pool1"
  type: "Pooling"
  bottom: "conv1"
  top: "pool1"
  pooling_param {
    pool: MAX
    kernel_size: 5
    stride: 5
  }
}
layer {
  name: "conv2"
  type: "Convolution"
  bottom: "pool1"
  top: "conv2"
  param {
    lr_mult: 1
  }
  param {
    lr_mult: 2
  }
  convolution_param {
    num_output: 5
    kernel_size: 7
    stride: 1
    weight_filler {
      type: "xavier"
    }
    bias_filler {
      type: "constant"
    }
  }
}
layer {
  name: "pool2"
  type: "Pooling"
  bottom: "conv2"
  top: "pool2"
  pooling_param {
    pool: MAX
    kernel_size: 3
    stride: 3
  }
}
layer {
  name: "ip_conv1"
  type: "Convolution"
  bottom: "pool2"
  top: "ip_conv_1"
  param {
    lr_mult: 1
  }
  param {
    lr_mult: 2
  }
  convolution_param {
    num_output: 32
    kernel_size: 7
    stride: 1
    weight_filler {
      type: "xavier"
    }
    bias_filler {
      type: "constant"
    }
  }
}
layer {
  name: "relu1"
  type: "ReLU"
  bottom: "ip_conv_1"
  top: "ip_conv_1"
}
layer {
  name: "drop1"
  type: "Dropout"
  bottom: "ip_conv_1"
  top: "ip_conv_1"
  dropout_param {
    dropout_ratio: 0.5
  }
}
layer {
  name: "ip_conv2"
  type: "Convolution"
  bottom: "ip_conv_1"
  top: "ip_conv2"
  param {
    lr_mult: 1
  }
  param {
    lr_mult: 2
  }
  convolution_param {
    num_output: 2
    kernel_size: 1
    stride: 1
    weight_filler {
      type: "xavier"
    }
    bias_filler {
      type: "constant"
    }
  }
}
layer {
  name: "upsample"
  type: "Deconvolution"
  bottom: "ip_conv2"
  top: "upsample"
  param {
    lr_mult: 0
  }
  convolution_param {
    num_output: 2
    bias_term: false
    kernel_size: 149
    stride: 15
  }
}
layer {
  name: "loss"
  type: "InfogainSoftmaxLoss"
  bottom: "upsample"
  bottom: "label"
  top: "loss"
  loss_param {
    normalize: true
  }
  infogain_loss_param {
    source: "/home/sam/code/fisherman/infogainH.binaryproto"
  }
  softmax_param {
    axis: 1
  }
}
I0701 16:42:20.448900 30194 layer_factory.hpp:77] Creating layer training_cells
I0701 16:42:21.234282 30194 net.cpp:91] Creating Layer training_cells
I0701 16:42:21.234323 30194 net.cpp:399] training_cells -> image
I0701 16:42:21.234340 30194 net.cpp:399] training_cells -> label
I0701 16:42:21.319109 30194 net.cpp:141] Setting up training_cells
I0701 16:42:21.319146 30194 net.cpp:148] Top shape: 20 2 254 254 (2580640)
I0701 16:42:21.319203 30194 net.cpp:148] Top shape: 20 1 254 254 (1290320)
I0701 16:42:21.319211 30194 net.cpp:156] Memory required for data: 15483840
I0701 16:42:21.319224 30194 layer_factory.hpp:77] Creating layer conv1
I0701 16:42:21.319253 30194 net.cpp:91] Creating Layer conv1
I0701 16:42:21.319263 30194 net.cpp:425] conv1 <- image
I0701 16:42:21.319281 30194 net.cpp:399] conv1 -> conv1
I0701 16:42:21.325559 30194 net.cpp:141] Setting up conv1
I0701 16:42:21.325582 30194 net.cpp:148] Top shape: 20 15 240 240 (17280000)
I0701 16:42:21.325592 30194 net.cpp:156] Memory required for data: 84603840
I0701 16:42:21.325614 30194 layer_factory.hpp:77] Creating layer pool1
I0701 16:42:21.325631 30194 net.cpp:91] Creating Layer pool1
I0701 16:42:21.325640 30194 net.cpp:425] pool1 <- conv1
I0701 16:42:21.325651 30194 net.cpp:399] pool1 -> pool1
I0701 16:42:21.325708 30194 net.cpp:141] Setting up pool1
I0701 16:42:21.325722 30194 net.cpp:148] Top shape: 20 15 48 48 (691200)
I0701 16:42:21.325731 30194 net.cpp:156] Memory required for data: 87368640
I0701 16:42:21.325738 30194 layer_factory.hpp:77] Creating layer conv2
I0701 16:42:21.325753 30194 net.cpp:91] Creating Layer conv2
I0701 16:42:21.325762 30194 net.cpp:425] conv2 <- pool1
I0701 16:42:21.325774 30194 net.cpp:399] conv2 -> conv2
I0701 16:42:21.328240 30194 net.cpp:141] Setting up conv2
I0701 16:42:21.328269 30194 net.cpp:148] Top shape: 20 5 42 42 (176400)
I0701 16:42:21.328289 30194 net.cpp:156] Memory required for data: 88074240
I0701 16:42:21.328302 30194 layer_factory.hpp:77] Creating layer pool2
I0701 16:42:21.328326 30194 net.cpp:91] Creating Layer pool2
I0701 16:42:21.328336 30194 net.cpp:425] pool2 <- conv2
I0701 16:42:21.328344 30194 net.cpp:399] pool2 -> pool2
I0701 16:42:21.328393 30194 net.cpp:141] Setting up pool2
I0701 16:42:21.328408 30194 net.cpp:148] Top shape: 20 5 14 14 (19600)
I0701 16:42:21.328415 30194 net.cpp:156] Memory required for data: 88152640
I0701 16:42:21.328423 30194 layer_factory.hpp:77] Creating layer ip_conv1
I0701 16:42:21.328438 30194 net.cpp:91] Creating Layer ip_conv1
I0701 16:42:21.328449 30194 net.cpp:425] ip_conv1 <- pool2
I0701 16:42:21.328462 30194 net.cpp:399] ip_conv1 -> ip_conv_1
I0701 16:42:21.328722 30194 net.cpp:141] Setting up ip_conv1
I0701 16:42:21.328743 30194 net.cpp:148] Top shape: 20 32 8 8 (40960)
I0701 16:42:21.328748 30194 net.cpp:156] Memory required for data: 88316480
I0701 16:42:21.328758 30194 layer_factory.hpp:77] Creating layer relu1
I0701 16:42:21.328764 30194 net.cpp:91] Creating Layer relu1
I0701 16:42:21.328769 30194 net.cpp:425] relu1 <- ip_conv_1
I0701 16:42:21.328775 30194 net.cpp:386] relu1 -> ip_conv_1 (in-place)
I0701 16:42:21.328783 30194 net.cpp:141] Setting up relu1
I0701 16:42:21.328789 30194 net.cpp:148] Top shape: 20 32 8 8 (40960)
I0701 16:42:21.328794 30194 net.cpp:156] Memory required for data: 88480320
I0701 16:42:21.328799 30194 layer_factory.hpp:77] Creating layer drop1
I0701 16:42:21.328807 30194 net.cpp:91] Creating Layer drop1
I0701 16:42:21.328811 30194 net.cpp:425] drop1 <- ip_conv_1
I0701 16:42:21.328817 30194 net.cpp:386] drop1 -> ip_conv_1 (in-place)
I0701 16:42:21.328836 30194 net.cpp:141] Setting up drop1
I0701 16:42:21.328842 30194 net.cpp:148] Top shape: 20 32 8 8 (40960)
I0701 16:42:21.328846 30194 net.cpp:156] Memory required for data: 88644160
I0701 16:42:21.328851 30194 layer_factory.hpp:77] Creating layer ip_conv2
I0701 16:42:21.328860 30194 net.cpp:91] Creating Layer ip_conv2
I0701 16:42:21.328866 30194 net.cpp:425] ip_conv2 <- ip_conv_1
I0701 16:42:21.328872 30194 net.cpp:399] ip_conv2 -> ip_conv2
I0701 16:42:21.329000 30194 net.cpp:141] Setting up ip_conv2
I0701 16:42:21.329008 30194 net.cpp:148] Top shape: 20 2 8 8 (2560)
I0701 16:42:21.329012 30194 net.cpp:156] Memory required for data: 88654400
I0701 16:42:21.329018 30194 layer_factory.hpp:77] Creating layer upsample
I0701 16:42:21.329027 30194 net.cpp:91] Creating Layer upsample
I0701 16:42:21.329032 30194 net.cpp:425] upsample <- ip_conv2
I0701 16:42:21.329038 30194 net.cpp:399] upsample -> upsample
I0701 16:42:21.332638 30194 net.cpp:141] Setting up upsample
I0701 16:42:21.332669 30194 net.cpp:148] Top shape: 20 2 254 254 (2580640)
I0701 16:42:21.332679 30194 net.cpp:156] Memory required for data: 98976960
I0701 16:42:21.332692 30194 layer_factory.hpp:77] Creating layer loss
I0701 16:42:21.332710 30194 net.cpp:91] Creating Layer loss
I0701 16:42:21.332718 30194 net.cpp:425] loss <- upsample
I0701 16:42:21.332727 30194 net.cpp:425] loss <- label
I0701 16:42:21.332739 30194 net.cpp:399] loss -> loss
I0701 16:42:21.332764 30194 layer_factory.hpp:77] Creating layer loss
…
I0701 16:42:21.340607 30194 net.cpp:49] Initializing net from parameters: 
name: "fish_filter"
state {
  phase: TEST
}
layer {
  name: "testing_cells"
  type: "Python"
  top: "image"
  top: "label"
  include {
    phase: TEST
  }
  python_param {
    module: "fisherman.caffe_layers"
    layer: "ChunkingFishFovDataLayer"
    param_str: "{\'tops\': [\'image\', \'label\'], \'seed\': 1337, \'data_dir\': \'/home/sam/code/fisherman/data/dense_labelling_same_res/\', \'split\': \'test\', \'n_samples\': 5, \'chunker_params\': {\'chunk_size\': 254, \'window_size\': 1}}"
  }
}
layer {
  name: "conv1"
  type: "Convolution"
  bottom: "image"
  top: "conv1"
  param {
    lr_mult: 1
  }
  param {
    lr_mult: 2
  }
  convolution_param {
    num_output: 15
    kernel_size: 15
    stride: 1
    weight_filler {
      type: "xavier"
    }
    bias_filler {
      type: "constant"
    }
  }
}
layer {
  name: "pool1"
  type: "Pooling"
  bottom: "conv1"
  top: "pool1"
  pooling_param {
    pool: MAX
    kernel_size: 5
    stride: 5
  }
}
layer {
  name: "conv2"
  type: "Convolution"
  bottom: "pool1"
  top: "conv2"
  param {
    lr_mult: 1
  }
  param {
    lr_mult: 2
  }
  convolution_param {
    num_output: 5
    kernel_size: 7
    stride: 1
    weight_filler {
      type: "xavier"
    }
    bias_filler {
      type: "constant"
    }
  }
}
layer {
  name: "pool2"
  type: "Pooling"
  bottom: "conv2"
  top: "pool2"
  pooling_param {
    pool: MAX
    kernel_size: 3
    stride: 3
  }
}
layer {
  name: "ip_conv1"
  type: "Convolution"
  bottom: "pool2"
  top: "ip_conv_1"
  param {
    lr_mult: 1
  }
  param {
    lr_mult: 2
  }
  convolution_param {
    num_output: 32
    kernel_size: 7
    stride: 1
    weight_filler {
      type: "xavier"
    }
    bias_filler {
      type: "constant"
    }
  }
}
layer {
  name: "relu1"
  type: "ReLU"
  bottom: "ip_conv_1"
  top: "ip_conv_1"
}
layer {
  name: "drop1"
  type: "Dropout"
  bottom: "ip_conv_1"
  top: "ip_conv_1"
  dropout_param {
    dropout_ratio: 0.5
  }
}
layer {
  name: "ip_conv2"
  type: "Convolution"
  bottom: "ip_conv_1"
  top: "ip_conv2"
  param {
    lr_mult: 1
  }
  param {
    lr_mult: 2
  }
  convolution_param {
    num_output: 2
    kernel_size: 1
    stride: 1
    weight_filler {
      type: "xavier"
    }
    bias_filler {
      type: "constant"
    }
  }
}
layer {
  name: "upsample"
  type: "Deconvolution"
  bottom: "ip_conv2"
  top: "upsample"
  param {
    lr_mult: 0
  }
  convolution_param {
    num_output: 2
    bias_term: false
    kernel_size: 149
    stride: 15
  }
}
layer {
  name: "accuracy"
  type: "Accuracy"
  bottom: "upsample"
  bottom: "label"
  top: "accuracy"
  include {
    phase: TEST
  }
}
layer {
  name: "loss"
  type: "InfogainSoftmaxLoss"
  bottom: "upsample"
  bottom: "label"
  top: "loss"
  loss_param {
    normalize: true
  }
  infogain_loss_param {
    source: "/home/sam/code/fisherman/infogainH.binaryproto"
  }
  softmax_param {
    axis: 1
  }
}
I0701 16:42:21.341209 30194 layer_factory.hpp:77] Creating layer testing_cells
I0701 16:42:21.341306 30194 net.cpp:91] Creating Layer testing_cells
I0701 16:42:21.341322 30194 net.cpp:399] testing_cells -> image
I0701 16:42:21.341338 30194 net.cpp:399] testing_cells -> label
I0701 16:42:21.362588 30194 net.cpp:141] Setting up testing_cells
I0701 16:42:21.362619 30194 net.cpp:148] Top shape: 5 2 254 254 (645160)
I0701 16:42:21.362627 30194 net.cpp:148] Top shape: 5 1 254 254 (322580)
I0701 16:42:21.362632 30194 net.cpp:156] Memory required for data: 3870960
I0701 16:42:21.362638 30194 layer_factory.hpp:77] Creating layer label_testing_cells_1_split
I0701 16:42:21.362655 30194 net.cpp:91] Creating Layer label_testing_cells_1_split
I0701 16:42:21.362661 30194 net.cpp:425] label_testing_cells_1_split <- label
I0701 16:42:21.362668 30194 net.cpp:399] label_testing_cells_1_split -> label_testing_cells_1_split_0
I0701 16:42:21.362679 30194 net.cpp:399] label_testing_cells_1_split -> label_testing_cells_1_split_1
I0701 16:42:21.362704 30194 net.cpp:141] Setting up label_testing_cells_1_split
I0701 16:42:21.362710 30194 net.cpp:148] Top shape: 5 1 254 254 (322580)
I0701 16:42:21.362715 30194 net.cpp:148] Top shape: 5 1 254 254 (322580)
I0701 16:42:21.362720 30194 net.cpp:156] Memory required for data: 6451600
I0701 16:42:21.362723 30194 layer_factory.hpp:77] Creating layer conv1
I0701 16:42:21.362735 30194 net.cpp:91] Creating Layer conv1
I0701 16:42:21.362740 30194 net.cpp:425] conv1 <- image
I0701 16:42:21.362746 30194 net.cpp:399] conv1 -> conv1
I0701 16:42:21.362957 30194 net.cpp:141] Setting up conv1
I0701 16:42:21.362965 30194 net.cpp:148] Top shape: 5 15 240 240 (4320000)
I0701 16:42:21.362969 30194 net.cpp:156] Memory required for data: 23731600
I0701 16:42:21.362979 30194 layer_factory.hpp:77] Creating layer pool1
I0701 16:42:21.362987 30194 net.cpp:91] Creating Layer pool1
I0701 16:42:21.362992 30194 net.cpp:425] pool1 <- conv1
I0701 16:42:21.362998 30194 net.cpp:399] pool1 -> pool1
I0701 16:42:21.363020 30194 net.cpp:141] Setting up pool1
I0701 16:42:21.363026 30194 net.cpp:148] Top shape: 5 15 48 48 (172800)
I0701 16:42:21.363031 30194 net.cpp:156] Memory required for data: 24422800
I0701 16:42:21.363035 30194 layer_factory.hpp:77] Creating layer conv2
I0701 16:42:21.363044 30194 net.cpp:91] Creating Layer conv2
I0701 16:42:21.363049 30194 net.cpp:425] conv2 <- pool1
I0701 16:42:21.363054 30194 net.cpp:399] conv2 -> conv2
I0701 16:42:21.363210 30194 net.cpp:141] Setting up conv2
I0701 16:42:21.363219 30194 net.cpp:148] Top shape: 5 5 42 42 (44100)
I0701 16:42:21.363224 30194 net.cpp:156] Memory required for data: 24599200
I0701 16:42:21.363232 30194 layer_factory.hpp:77] Creating layer pool2
I0701 16:42:21.363239 30194 net.cpp:91] Creating Layer pool2
I0701 16:42:21.363243 30194 net.cpp:425] pool2 <- conv2
I0701 16:42:21.363248 30194 net.cpp:399] pool2 -> pool2
I0701 16:42:21.363279 30194 net.cpp:141] Setting up pool2
I0701 16:42:21.363286 30194 net.cpp:148] Top shape: 5 5 14 14 (4900)
I0701 16:42:21.363289 30194 net.cpp:156] Memory required for data: 24618800
I0701 16:42:21.363338 30194 layer_factory.hpp:77] Creating layer ip_conv1
I0701 16:42:21.363350 30194 net.cpp:91] Creating Layer ip_conv1
I0701 16:42:21.363358 30194 net.cpp:425] ip_conv1 <- pool2
I0701 16:42:21.363366 30194 net.cpp:399] ip_conv1 -> ip_conv_1
I0701 16:42:21.363633 30194 net.cpp:141] Setting up ip_conv1
I0701 16:42:21.363672 30194 net.cpp:148] Top shape: 5 32 8 8 (10240)
I0701 16:42:21.363682 30194 net.cpp:156] Memory required for data: 24659760
I0701 16:42:21.363697 30194 layer_factory.hpp:77] Creating layer relu1
I0701 16:42:21.363708 30194 net.cpp:91] Creating Layer relu1
I0701 16:42:21.363718 30194 net.cpp:425] relu1 <- ip_conv_1
I0701 16:42:21.363728 30194 net.cpp:386] relu1 -> ip_conv_1 (in-place)
I0701 16:42:21.363739 30194 net.cpp:141] Setting up relu1
I0701 16:42:21.363757 30194 net.cpp:148] Top shape: 5 32 8 8 (10240)
I0701 16:42:21.363773 30194 net.cpp:156] Memory required for data: 24700720
I0701 16:42:21.363781 30194 layer_factory.hpp:77] Creating layer drop1
I0701 16:42:21.363793 30194 net.cpp:91] Creating Layer drop1
I0701 16:42:21.363801 30194 net.cpp:425] drop1 <- ip_conv_1
I0701 16:42:21.363819 30194 net.cpp:386] drop1 -> ip_conv_1 (in-place)
I0701 16:42:21.363844 30194 net.cpp:141] Setting up drop1
I0701 16:42:21.363865 30194 net.cpp:148] Top shape: 5 32 8 8 (10240)
I0701 16:42:21.363873 30194 net.cpp:156] Memory required for data: 24741680
I0701 16:42:21.363881 30194 layer_factory.hpp:77] Creating layer ip_conv2
I0701 16:42:21.363894 30194 net.cpp:91] Creating Layer ip_conv2
I0701 16:42:21.363903 30194 net.cpp:425] ip_conv2 <- ip_conv_1
I0701 16:42:21.363914 30194 net.cpp:399] ip_conv2 -> ip_conv2
I0701 16:42:21.364130 30194 net.cpp:141] Setting up ip_conv2
I0701 16:42:21.364154 30194 net.cpp:148] Top shape: 5 2 8 8 (640)
I0701 16:42:21.364162 30194 net.cpp:156] Memory required for data: 24744240
I0701 16:42:21.364182 30194 layer_factory.hpp:77] Creating layer upsample
I0701 16:42:21.364194 30194 net.cpp:91] Creating Layer upsample
I0701 16:42:21.364202 30194 net.cpp:425] upsample <- ip_conv2
I0701 16:42:21.364212 30194 net.cpp:399] upsample -> upsample
I0701 16:42:21.364436 30194 net.cpp:141] Setting up upsample
I0701 16:42:21.364459 30194 net.cpp:148] Top shape: 5 2 254 254 (645160)
I0701 16:42:21.364466 30194 net.cpp:156] Memory required for data: 27324880
I0701 16:42:21.364476 30194 layer_factory.hpp:77] Creating layer upsample_upsample_0_split
I0701 16:42:21.364487 30194 net.cpp:91] Creating Layer upsample_upsample_0_split
I0701 16:42:21.364495 30194 net.cpp:425] upsample_upsample_0_split <- upsample
I0701 16:42:21.364506 30194 net.cpp:399] upsample_upsample_0_split -> upsample_upsample_0_split_0
I0701 16:42:21.364519 30194 net.cpp:399] upsample_upsample_0_split -> upsample_upsample_0_split_1
I0701 16:42:21.364557 30194 net.cpp:141] Setting up upsample_upsample_0_split
I0701 16:42:21.364568 30194 net.cpp:148] Top shape: 5 2 254 254 (645160)
I0701 16:42:21.364578 30194 net.cpp:148] Top shape: 5 2 254 254 (645160)
I0701 16:42:21.364586 30194 net.cpp:156] Memory required for data: 32486160
I0701 16:42:21.364594 30194 layer_factory.hpp:77] Creating layer accuracy
I0701 16:42:21.364609 30194 net.cpp:91] Creating Layer accuracy
I0701 16:42:21.364619 30194 net.cpp:425] accuracy <- upsample_upsample_0_split_0
I0701 16:42:21.364629 30194 net.cpp:425] accuracy <- label_testing_cells_1_split_0
I0701 16:42:21.364639 30194 net.cpp:399] accuracy -> accuracy
…
